S6/Assets/models/model_l1.pth (torch_old, 45318 bytes, 27 tensors)

convblock1.0.weight f4 [16, 1, 3, 3]
0	0xbdb61c76	-0.08892147
1	0xbedaac72	-0.4270969
2	0xbea6b90e	-0.3256306
3	0x3ecc6f44	0.3992864
4	0x3f50e22c	0.8159511
5	0x3ecbfa6c	0.39839494
6	0x3d8965b5	0.06708852
7	0x3ecca3c0	0.3996868
8	0xbee7ff2f	-0.45311877
9	0x3e97427e	0.29542917
10	0x3eb10b68	0.34579015
11	0xbf6f70b5	-0.9353135
12	0x3e96e949	0.29474857
13	0x3ecc7867	0.3993561
14	0xbf8dc760	-1.107647
15	0x3e8cf243	0.2752858
16	0x3eeae124	0.45874894
17	0xbdf1d5e6	-0.11808376
18	0x3d936f5b	0.07198974
19	0xbe6d5c9e	-0.23179862
20	0x3d1aa847	0.037758138
21	0xbe8ff1b9	-0.28114107
22	0x3cc4727e	0.023980375
23	0xbd032021	-0.032013062
24	0x3e11c2ef	0.14234518
25	0x3f4d1494	0.80109525
26	0x3e7c096a	0.24612966
27	0xbe896049	-0.26831272
28	0xbea85fc2	-0.32885557
29	0x3dbbf75f	0.09178042
30	0xbf8ca709	-1.0988475
31	0xbd7b0d02	-0.061291702
32	0x3f2e2399	0.6802307
33	0xbea6f93f	-0.32612035
34	0x3ea992c4	0.33119786
35	0x3f4cbe81	0.79978186
36	0xbdae6853	-0.08515992
37	0xbeab981e	-0.33514494
38	0xbf28ab2b	-0.6588618
39	0xbf4f4fe2	-0.80981266
40	0xbf761538	-0.9612613
41	0xbd08c485	-0.03339054
42	0xbe8cc9b3	-0.27497634
43	0x3f34ebc6	0.7067226
44	0x3f3cf5ed	0.7381275
45	0x3ec61ce8	0.3869393
46	0xbec3114e	-0.3809914
47	0xbefd1aad	-0.49434415
48	0x3f4d5d68	0.8022065
49	0xbf38a757	-0.7213034
50	0xbf1957e7	-0.59899753
51	0x3ef6af7b	0.48180756
52	0xbf2c889c	-0.6739595
53	0xbf3ffd9a	-0.7499634
54	0xbf316db7	-0.69308037
55	0xbfc4dcb5	-1.5379854
56	0xbf569d48	-0.8383374
57	0x3f02b463	0.510565
58	0xbd68d045	-0.056839246
59	0x3b54b1e5	0.0032454666
60	0x3f31d256	0.6946157
61	0x3f0f5966	0.55995786
62	0x3f2598f0	0.6468649
63	0x3e219576	0.15779671
64	0xbf058896	-0.5216154
65	0xbf16a275	-0.5884164
66	0xbda7c59a	-0.081919864
67	0xbf72ce9c	-0.9484651
68	0x3f00cbaa	0.50310767
69	0xbf8a2c05	-1.0794684
70	0xbe1596f3	-0.14608364
71	0x3f1ef334	0.6208985
72	0xbe2aecda	-0.16691914
73	0x3ec67590	0.38761568
74	0x3f7a91e6	0.97878873
75	0xbf424e02	-0.7590028
76	0xbe756fdb	-0.2396845
77	0x3f6ddeb7	0.9291796
78	0xbf839816	-1.0280788
79	0xbed04cc9	-0.40683582
80	0x3e99972d	0.2999815
81	0x3f1b51fc	0.60671973
82	0x3f3e85db	0.74423
83	0x3e9b7c05	0.30368057
84	0xbf1983d2	-0.59966767
85	0x3e8b59f6	0.27217072
86	0x3f40d6f9	0.7532802
87	0xbfa8d090	-1.3188648
88	0xbf90843c	-1.1290355
89	0xbf4ad3c8	-0.792294
90	0xbdb00e9b	-0.08596536
91	0x3eaa6c50	0.3328576
92	0xbf37141e	-0.7151507
93	0x3e23f91d	0.16012998
94	0x3dd7efbf	0.10543775
95	0xbf2cce70	-0.675025
96	0xbf3ca94f	-0.73695844
97	0xbf03ac7d	-0.5143507
98	0xbf5faac7	-0.8736996
99	0x3e1386d7	0.14406906
100	0x3f23a1ca	0.63918746
101	0x3ee0ab93	0.438809
102	0x3f35eebd	0.7106741
103	0x3f72eb6f	0.94890493
104	0xbf081a62	-0.53165257
105	0x3dd7cbdd	0.10536931
106	0xbfacbabf	-1.349449
107	0xbf5db569	-0.86604935
108	0x3f45d734	0.772815
109	0xbf5f8941	-0.8731881
110	0xbf62f903	-0.8866121
111	0x3f2470f2	0.6423484
112	0xbbfde96b	-0.007748773
113	0xbe70a56b	-0.23500602
114	0x3e29e1c5	0.1659003
115	0x3e6984c0	0.22804546
116	0xbc98ab30	-0.018636316
117	0xbe534a35	-0.20633776
118	0xbf219bd7	-0.6312842
119	0xbeb0d05f	-0.34533975
120	0x3c340db4	0.010989595
121	0x3f71c6c6	0.9444393
122	0x3eda722d	0.42665234
123	0x3b9b6d60	0.004743263
124	0x3ee5c6e1	0.44878295
125	0x3e34166f	0.17586683
126	0xbf889ed2	-1.0673468
127	0x3dbe9c46	0.093071505
128	0x3f281a9a	0.6566559
129	0xbf361d6b	-0.7113864
130	0x3f8323f6	1.024535
131	0x3f07d8f5	0.53065425
132	0x3e33a5b6	0.17543682
133	0x3c2aa8d2	0.010416226
134	0xbceca5ac	-0.028887592
135	0x3f79104d	0.972905
136	0x3f311d44	0.6918528
137	0xbf34a021	-0.7055684
138	0x3cbd9a29	0.023144798
139	0x3d9b505b	0.07583686
140	0xbd896eb0	-0.06710565
141	0xbd1716fc	-0.036887154
142	0xbdfde69e	-0.12397502
143	0xbe8b9969	-0.2726548

convblock1.2.weight f4 [16]
0	0x3f85a6fb	1.0441583
1	0x3fa602c1	1.296959
2	0x3f3f180c	0.7464607
3	0x3f91e988	1.1399393
4	0x3f841bdf	1.0321006
5	0x3fb3085a	1.3986924
6	0x3fa8f3bd	1.3199383
7	0x3f97a74d	1.1847931
8	0x3fb1f15b	1.3901781
9	0x3fbb283f	1.4621657
10	0x3fb7956a	1.4342473
11	0x3fcbcac9	1.592126
12	0x3f97593b	1.1824106
13	0x3f9228d8	1.1418715
14	0x3f9fed91	1.2494375
15	0x3fa46bc8	1.2845392

convblock1.2.bias f4 [16]
0	0x3cfd3a60	0.030911624
1	0x3efe5561	0.49674514
2	0x3d534e14	0.051588133
3	0xbe4f7b6f	-0.2026193
4	0x3ed3aafc	0.41341388
5	0x3e9514bb	0.2911738
6	0x3ed20642	0.410204
7	0x3eb32b4a	0.34993964
8	0x3e26757c	0.16255754
9	0x3e7a0f81	0.24419977
10	0x3eae1d98	0.34006953
11	0x3e88e4fb	0.26737198
12	0xbdd27699	-0.10276527
13	0x3e19fb65	0.15037306
14	0x3e1b023c	0.15137571
15	0x3ec2ae8c	0.38023794

convblock1.2.running_mean f4 [16]
0	0x3ecb92b5	0.39760366
1	0x3eaf3d88	0.34226632
2	0x3eb3e920	0.35138798
3	0x3edeafdf	0.43493554
4	0x3f3194bc	0.69367576
5	0x3f480f1a	0.78148043
6	0x3f1f364c	0.62192225
7	0x3f439a95	0.7640775
8	0x3eed438e	0.46340603
9	0x3f2ee70a	0.6832129
10	0x3f683f16	0.9072126
11	0x3f028984	0.5099108
12	0x3eaeebdb	0.34164318
13	0x3ee53874	0.44769633
14	0x3f042a8e	0.51627433
15	0x3eda5993	0.42646465

convblock1.2.running_var f4 [16]
0	0x3f60ea24	0.8785727
1	0x3f665563	0.8997404
2	0x3f295a0c	0.66153026
3	0x3f9c29e3	1.2200283
4	0x3ed91159	0.42396048
5	0x3f00911a	0.5022141
6	0x3fb60225	1.4219404
7	0x3e96d917	0.294625
8	0x3fe0098b	1.7502912
9	0x3f8cdfae	1.1005762
10	0x3eaa1355	0.33217874
11	0x40004442	2.0041661
12	0x3f3807a9	0.7188669
13	0x3f94211d	1.1572605
14	0x3fe1aea0	1.7631416
15	0x3f8d01a0	1.1016121

convblock2.0.weight f4 [24, 16, 3, 3]
0	0x3e54e21c	0.20789379
1	0x3d80e17f	0.0629301
2	0x3d84b03d	0.06478927
3	0x3d1773ca	0.03697566
4	0xbbf40b37	-0.007447626
5	0x3c258194	0.010101695
6	0xbcab7334	-0.020928957
7	0xbe1ea1b1	-0.15491368
8	0xbb9902d1	-0.004669525
9	0xbe798b2e	-0.24369499
10	0xbe28ecc3	-0.16496567
11	0xbd2a90c3	-0.04164196
12	0xbd975d7a	-0.07390876
13	0xbe2554fe	-0.16145703
14	0xbd15932c	-0.036517307
15	0x3d18c4a3	0.037296902
16	0xbdfb4e9a	-0.122708514
17	0xbd7d1811	-0.06179053
18	0x3b4ef38c	0.003157827
19	0x3c2cbf7c	0.0105437
20	0x3dd9362c	0.106060356
21	0x3b21b7b9	0.0024676158
22	0xbc674e9c	-0.014117863
23	0x3b188f75	0.0023278866
24	0x3c032b55	0.008005937
25	0x3c9d45a7	0.019198252
26	0x3dad31ba	0.0845675
27	0x3d7c1b92	0.06154973
28	0x3ceffd11	0.029295476
29	0xbd040fdd	-0.03224169
30	0xbd29d039	-0.041458342
31	0xbe985190	-0.29749727
32	0xbe417f7e	-0.1889629
33	0xbe4c7dbc	-0.19969839
34	0xbd30a0fa	-0.04312227
35	0x3dad2391	0.084540494
36	0x3eb610e0	0.3555975
37	0x3d676c6c	0.056499884
38	0x3da0bafe	0.07848166
39	0x3b2a4d9d	0.0025986203
40	0xbc5ce590	-0.013482466
41	0xbd2286e8	-0.039679438
42	0x3b80532f	0.0039161663
43	0x3d051990	0.03249508
44	0x3e5de61b	0.2166981
45	0xbe9b9d2c	-0.3039335
46	0xbd85abdd	-0.06526921
47	0xbe648b0f	-0.22318672
48	0xbd34cf1f	-0.04414284
49	0xbcd69f57	-0.026199026
50	0xbe6af2ca	-0.22944179
51	0xbdd669c2	-0.104693905
52	0xbebe50fa	-0.37171155
53	0xbe73e977	-0.23819529
54	0x3e76b566	0.24092636
55	0x3d948f49	0.07253892
56	0xba08cd3a	-0.00052185694
57	0x39fc86b0	0.00048165536
58	0x3d2b3496	0.041798197
59	0xbc2e65d7	-0.010644398
60	0xbd0b4815	-0.03400429
61	0x3b517471	0.0031960274
62	0x3c83b326	0.016076636
63	0x3d0c4713	0.03424747
64	0xbde56837	-0.11201518
65	0xbdaf7efb	-0.085691415
66	0xbe1e651e	-0.1546826
67	0xbc9b5c5d	-0.01896494
68	0xbdd78bfd	-0.105247475
69	0xbd911b20	-0.07085252
70	0x3b7b865a	0.003837964
71	0x3d9cb838	0.076523244
72	0xbe027c23	-0.12742667
73	0xbe6e1a0b	-0.23252122
74	0xbe00b5fb	-0.1256942
75	0xbe1194e9	-0.14216961
76	0x3c9ea2c2	0.019364718
77	0xbd03f83a	-0.03221915
78	0xbd2b8f28	-0.04188457
79	0xbd305d90	-0.04305798
80	0xbd9e3b37	-0.07726138
81	0xbe0483b4	-0.12940866
82	0xbe5a15c3	-0.21297364
83	0x3bcd4d0e	0.006265289
84	0xbcbed8c1	-0.023296716
85	0x3dc83b07	0.097768836
86	0x3ca7a1a7	0.020462824
87	0x3d012717	0.03153142
88	0xbe00b3ad	-0.12568541
89	0xbe8cadbf	-0.27476308
90	0xbd02f4af	-0.03197163
91	0xbc9a973f	-0.018870948
92	0x3c9b3ef5	0.018950919
93	0xbc19cd5f	-0.009387343
94	0xbce42467	-0.02784939
95	0xbdde95e2	-0.10868432
96	0x3bd3c000	0.006462097
97	0xbe02e4e3	-0.12782626
98	0xbe9cd961	-0.30634597
99	0xbc789690	-0.015172616
100	0xbced537e	-0.028970476
101	0x3bf77682	0.007551969
102	0x3d11f5bb	0.035634737
103	0x3d658b8d	0.05604129
104	0xbd87d253	-0.06631913
105	0x3c240617	0.010011218
106	0xbe97189f	-0.29510972
107	0xbcc3a676	-0.023883086
108	0xbd22e7fa	-0.03977201
109	0xbd536635	-0.051611144
110	0xbd640b99	-0.055675123
111	0xbd8a6d91	-0.067591794
112	0xbe3e965c	-0.18612045
113	0xbd056d88	-0.03257516
114	0xbd64c1a2	-0.055848725
115	0xbd8e16da	-0.06937952
116	0xbe76cd95	-0.24101861
117	0x3e2a6132	0.1663864
118	0x3e1ca83e	0.15298554
119	0x3d607089	0.054794822
120	0xbaba0b69	-0.0014194074
121	0xbc2f03e8	-0.010682084
122	0x3b640e0c	0.0034798412
123	0xbe6d5f61	-0.23180915
124	0xbe8adf35	-0.27123418
125	0xbc492a99	-0.0122782225
126	0x3e553ff0	0.20825171
127	0x3e92adae	0.28648132
128	0x3e62c3aa	0.22144952
129	0x3e26de45	0.16295727
130	0x3d496272	0.04916615
131	0xbdf9e546	-0.122019336
132	0xbdc0b9ca	-0.094104365
133	0xbe869a08	-0.26289392
134	0xbb6ba60a	-0.0035957121
135	0xbe14caa7	-0.1453043
136	0xbe4a2aff	-0.19742964
137	0xbe766022	-0.2406011
138	0xbc4418a4	-0.011968765
139	0xbc98c3a7	-0.018647982
140	0x3c3c2d32	0.011485385
141	0xbc364075	-0.011123766
142	0xbd1fee30	-0.039045513
143	0xbd0bdae1	-0.034144286
144	0x3d007f13	0.031371187
145	0xbc73361f	-0.014844446
146	0xbba82484	-0.005131306
147	0x3d3d239e	0.046176545
148	0xbc26db5d	-0.010184136
149	0xbd819e1f	-0.06328987
150	0xbe615b59	-0.22007503
151	0xbe6c35c7	-0.2306739
152	0xbdf1e82b	-0.11811861
153	0x3e134b70	0.14384246
154	0x3c9ca05e	0.019119438
155	0x3edce6bd	0.4314479
156	0x3c1737be	0.009229599
157	0xbcb7a180	-0.022415876
158	0x3df0512f	0.117342345
159	0x3b7af03e	0.0038290168
160	0xbdc1955f	-0.094523184
161	0x3dad3a44	0.08458379
162	0x39fcbaef	0.00048204462
163	0xbc6cf7a1	-0.014463336
164	0xbe27b138	-0.16376197
165	0xbd881b5d	-0.06645844
166	0xbd37b330	-0.04484862
167	0x3c7270af	0.014797374
168	0xbc3e964c	-0.011632513
169	0x3b312451	0.0027029703
170	0x3cf60c55	0.030035177
171	0xbcc81ca5	-0.024427721
172	0xbd0a3ead	-0.03375118
173	0xbe49a1a2	-0.19690564
174	0xbddc25a1	-0.10749365
175	0xbdc9d2c6	-0.09854655
176	0xbd0a9c79	-0.03384063
177	0xbe8b3b0e	-0.27193493
178	0xbd7eda99	-0.06222019
179	0x3caa83bb	0.020814767
180	0xbe464761	-0.19363166
181	0xbe1eef80	-0.1552105
182	0x3b69ea72	0.0035692719
183	0xbe303d95	-0.17210992
184	0xbdc47902	-0.09593393
185	0x3c6f5140	0.014606774
186	0xbcb8e601	-0.022570612
187	0x3dfa5197	0.12222593
188	0x3de21980	0.1104002
189	0x3d19b3c2	0.037524946
190	0x3c6b8023	0.014373812
191	0x3e5bb4c9	0.21455683
192	0x3dee57fa	0.11637874
193	0xbd337c39	-0.04381964
194	0xbd8e721d	-0.06955359
195	0x3dc44b04	0.095846206
196	0xbeef1f1f	-0.4670343
197	0xbdf9083b	-0.12159773
198	0x3cdb29f1	0.026753398
199	0xbe08710b	-0.13324372
200	0xbe4728e4	-0.19449192
201	0x38d9519a	0.00010362566
202	0xbd4aa0ac	-0.049469635
203	0xbe6e7d43	-0.23289971
204	0xbe487668	-0.19576418
205	0x3bcb0e44	0.006196769
206	0x3d893540	0.0669961
207	0xbebb4daf	-0.36582705
208	0xbb867c6e	-0.0041041886
209	0x3cddf1e4	0.027092882
210	0xbc90b0fa	-0.017662514
211	0xbbfec800	-0.0077753067
212	0x3d53d135	0.051713187
213	0xba8e8d13	-0.0010875784
214	0x3cd23004	0.025657661
215	0x3cfb613a	0.03068601
216	0x3b054207	0.0020333545
217	0xbd19221b	-0.03738604
218	0xbe9236b0	-0.28557348
219	0xbdeec9ea	-0.11659606
220	0xbdff998c	-0.124804586
221	0xbe5b4084	-0.2141133
222	0xbe7f0a2b	-0.24906223
223	0xbe919e98	-0.2844131
224	0xbdef3020	-0.11679101
225	0x3de4404e	0.11145078
226	0xbc407faa	-0.0117491875
227	0xbdfd61c4	-0.12372163
228	0x3e4de3fd	0.20106502
229	0x3e81f83a	0.25384694
230	0xbdad7ab1	-0.08470667
231	0x3eee888e	0.46588558
232	0xbb80ace0	-0.0039268583
233	0xbd791819	-0.060813997
234	0xbbd71c76	-0.006564672
235	0x3d21121c	0.03932391
236	0x3e40d098	0.18829572
237	0x3ca741e1	0.020417156
238	0x3e1e23af	0.154433
239	0x3e843a2d	0.25825635
240	0x3ea39ae6	0.31954116
241	0x3df63207	0.12021261
242	0x3e753978	0.23947704
243	0x3e9f6b65	0.31136623
244	0xbc05b5b8	-0.008161001
245	0x3dfc3a40	0.12315798
246	0x3e642987	0.22281466
247	0xbc1d0dbd	-0.009585795
248	0x3dc0817c	0.09399697
249	0xbc25853c	-0.010102566
250	0xbd5677cf	-0.052360352
251	0xbd899b46	-0.06719069
252	0x3ddd456a	0.10804255
253	0x3d4f4e4b	0.050611775
254	0x3d867425	0.065651216
255	0x3e0ff575	0.14058478

convblock2.2.weight f4 [24]
0	0x3f6f17a1	0.9339543
1	0x3fbbbfd3	1.4667915
2	0x3fa3a5d6	1.2784984
3	0x3faaaa5a	1.3333237
4	0x3fba8f04	1.4574895
5	0x3f8b9ba4	1.0906873
6	0x3fa0aa79	1.2552024
7	0x3fa3f743	1.2809833
8	0x3fa81c9e	1.3133733
9	0x3f8c8ad7	1.097987
10	0x3f8e9200	1.1138306
11	0x3faff0d9	1.3745376
12	0x3fa6b6f2	1.302458
13	0x3fb7e4b9	1.4366676
14	0x3f8dc6b6	1.1076267
15	0x3fa3fd80	1.2811737
16	0x3fa0d646	1.2565391
17	0x3f69c1ca	0.91311324
18	0x3fb726a4	1.4308667
19	0x3f81daec	1.0144935
20	0x3f9e4051	1.2363378
21	0x3fbee8af	1.4914759
22	0x3fb01dd9	1.3759109
23	0x3f88aeb0	1.067831

convblock2.2.bias f4 [24]
0	0xbcc999c1	-0.024609448
1	0x3eb601cf	0.35548255
2	0xbe91d7f6	-0.28485078
3	0x3f4b0dce	0.7931794
4	0x3de03960	0.109484434
5	0xbc93b8a0	-0.018032372
6	0xbe9634b8	-0.29337096
7	0x3d6c6b9e	0.05771982
8	0x3f859782	1.0436862
9	0x3d4b7f1f	0.04968178
10	0x3e369525	0.17830332
11	0xbeb0eca4	-0.34555542
12	0xbe89a1d5	-0.2688128
13	0x3ac75d0b	0.0015210224
14	0x3d1a82c6	0.03772237
15	0xbed1f7db	-0.4100941
16	0xbeb91e8d	-0.3615612
17	0xbf851e08	-1.039979
18	0xbe6394f3	-0.22224788
19	0x3f31d9ff	0.6947326
20	0x3f07cf52	0.5305072
21	0xbd280fd6	-0.041030727
22	0x3f40efe0	0.7536602
23	0x3be6eb1d	0.0070470707

convblock2.2.running_mean f4 [24]
0	0x3f05cc06	0.5226444
1	0x402f47d2	2.7387586
2	0x3fdd73b4	1.7300935
3	0x40215675	2.520902
4	0x3f8014d0	1.0006351
5	0x3f0e5600	0.55599976
6	0x3fa705d6	1.3048656
7	0x3f1a93c6	0.60381734
8	0x4004563c	2.0677633
9	0x3f501876	0.81287324
10	0x3f84d4b6	1.0377414
11	0x3f56254e	0.8365067
12	0x3fc10f5a	1.508281
13	0x3f910d9b	1.1332277
14	0x3f42d0fb	0.7610013
15	0x3f07ecd9	0.53095776
16	0x3f8f3193	1.1187004
17	0x3e11a170	0.1422174
18	0x3f9cf5de	1.2262533
19	0x3f9fd841	1.248787
20	0x3fc3c949	1.5295802
21	0x3fc9e8eb	1.5774206
22	0x4009b00f	2.1513708
23	0x3f8cb80e	1.0993669

convblock2.2.running_var f4 [24]
0	0x401a9dc1	2.4158785
1	0x41284cab	10.518718
2	0x4164c3a9	14.297769
3	0x40a7ee95	5.247874
4	0x41011c2d	8.069379
5	0x4087bbe1	4.2416844
6	0x411b9f25	9.726354
7	0x402ab0b2	2.6670346
8	0x40657078	3.5849895
9	0x40981da3	4.753618
10	0x40b5ab4b	5.67716
11	0x40e16ca4	7.044512
12	0x415acc9c	13.674953
13	0x41113181	9.074586
14	0x40a69a4f	5.2063365
15	0x40731418	3.7981014
16	0x40e55078	7.166073
17	0x3f195a76	0.5990366
18	0x417e2005	15.882817
19	0x3fc2798e	1.5193346
20	0x405ca12e	3.4473376
21	0x41941d91	18.514437
22	0x40837973	4.1085753
23	0x40b176b9	5.5457425

convblock3.0.weight f4 [10, 24, 1, 1]
0	0x3da53bbf	0.08068036
1	0xbecd2eaf	-0.4007468
2	0xbea5b5ce	-0.32365268
3	0x3bb1857e	0.005417525
4	0xbef9ecc0	-0.48813438
5	0xbeaec5c7	-0.34135267
6	0xbdf24ad8	-0.118306816
7	0xbecd3796	-0.4008147
8	0xbe394675	-0.18093283
9	0xbe8aa9f8	-0.270828
10	0xbd946cbc	-0.07247302
11	0xbf37aacd	-0.71744996
12	0xbf200021	-0.62500197
13	0xbf6045de	-0.8760661
14	0xbf06223b	-0.5239598
15	0xbe84aa22	-0.2591105
16	0x3fae37e8	1.3610811
17	0x3f868aca	1.0511105
18	0xbe284ac2	-0.16434768
19	0xbd8114a0	-0.06302762
20	0xbe40011f	-0.18750428
21	0xbf28c2b1	-0.65922076
22	0x3da0c93e	0.07850884
23	0xbf23036f	-0.63677114
24	0x3f54deb4	0.8315232
25	0x3ddabdb6	0.10680716
26	0x3f948490	1.1602955
27	0xba8a686c	-0.0010559685
28	0xbe555e61	-0.20836784
29	0xbef3436d	-0.4751238
30	0xbedc00a1	-0.4296923
31	0x3ef2291b	0.47296986
32	0xbece248b	-0.40262255
33	0xbf183834	-0.5946076
34	0xbef5f745	-0.48040214
35	0xbf13388a	-0.57508147
36	0x3d76cedd	0.060255874
37	0xbee5dc64	-0.44894707
38	0xbf4664bc	-0.7749746
39	0xbe0dc8e1	-0.1384616
40	0x3ca1ebae	0.019765701
41	0xbd301ba9	-0.04299513
42	0x3c57dba6	0.013174927
43	0x3e0ebeb8	0.13939941
44	0xbe642730	-0.22280574
45	0xbe4d2428	-0.20033324
46	0xbe923f27	-0.28563806
47	0xbdc94788	-0.09828097
48	0x3c9e1b27	0.019300057
49	0xbf1189f0	-0.568511
50	0xbe996ef5	-0.29967466
51	0xbd913671	-0.07090462
52	0x3f8f8e50	1.1215305
53	0xbe07a936	-0.13248143
54	0xbdea4cba	-0.11440416
55	0xbf2c3cfe	-0.67280567
56	0xbf445af2	-0.7670127
57	0x3bfbcc6a	0.00768428
58	0x3eb537d6	0.35394162
59	0x3f411e18	0.75436544
60	0x3f3d2665	0.7388671
61	0x3d81ee0a	0.063442305
62	0x3f504768	0.8135896
63	0x3f05656c	0.5210788
64	0xbe3c3fbe	-0.1838369
65	0x3f1b603f	0.60693735
66	0xbe70c1f9	-0.23511495
67	0xbf6701b5	-0.9023698
68	0xbd844241	-0.064579494
69	0xbec82351	-0.39089444
70	0xbf6a0e42	-0.91428006
71	0xbed506d2	-0.41606766
72	0x3e6cca59	0.23124065
73	0x3f5ebfea	0.8701159
74	0x3e47e7de	0.19522044
75	0xbe338b24	-0.17533547
76	0xbcead739	-0.02866708
77	0x3dc0ee99	0.09420509
78	0x3ed2dc4a	0.41183692
79	0xbea70b52	-0.32625824
80	0xbf0f23ed	-0.55914193
81	0xbda5234a	-0.080633715
82	0xbf09549c	-0.5364473
83	0x3ec0988f	0.37616393
84	0xbe0ebb10	-0.13938546
85	0xbd962992	-0.07332148
86	0x3d6c41c3	0.057679903
87	0x3fb3fedf	1.4062155
88	0xbf04dbcb	-0.5189788
89	0x3ef63688	0.4808848
90	0xbe9ad33a	-0.30239278
91	0xbdf7fa73	-0.12108316
92	0x3d85f021	0.065399416
93	0x3e9c6af3	0.30550346
94	0xbefbc307	-0.49172232
95	0xbdce831f	-0.10083603
96	0x3f1d1f0b	0.6137549
97	0xbcf33bb1	-0.029691549
98	0x3f67ef27	0.9059929
99	0xbe0a074e	-0.13479349
100	0x3e6c4c45	0.2307597
101	0x3f857605	1.0426642
102	0x3f6b8bf2	0.92010415
103	0xbdfffbd1	-0.12499202
104	0x3d879835	0.06620828
105	0x3e917af2	0.28414112
106	0x3f51bd10	0.8192911
107	0x3d3b91cc	0.04579334
108	0x3ee7b9c4	0.45258915
109	0xbee6b31a	-0.4505852
110	0x3ce3f88e	0.027828481
111	0xbd7ccf70	-0.061721265
112	0x3da162ad	0.07880149
113	0xbd90300c	-0.07040414
114	0x3da5a7e0	0.0808866
115	0xbe925946	-0.28583735
116	0xbdaceac6	-0.08443217
117	0xbe6a959b	-0.22908632
118	0x3dd11b24	0.10210255
119	0x3f37934d	0.7170914
120	0xbcf9cda9	-0.030493574
121	0x3fc359dc	1.5261798
122	0xbdac4fdb	-0.08413669
123	0x3fa064b4	1.2530732
124	0x3e5033e4	0.20332295
125	0xbe98e935	-0.29865423
126	0xbf2f2850	-0.68420887
127	0xbe3a8117	-0.18213306
128	0xbe8c564a	-0.27409583
129	0xbe3e53ea	-0.18586698
130	0x3eeaee00	0.45884705
131	0xbe65ba1c	-0.22434276
132	0x3f931b99	1.1492797
133	0xbed98c06	-0.42489642
134	0x3c7965f7	0.015222064
135	0xbeb0940d	-0.34487954
136	0xbebc6165	-0.36793056
137	0xbe2f2de3	-0.17107348
138	0xbccf5e9d	-0.02531367
139	0xbe34e519	-0.17665519
140	0xbb067593	-0.0020516857
141	0xbe425ba0	-0.18980265
142	0xbedffeae	-0.43748993
143	0xbeafa7ae	-0.34307617
144	0x3d464f62	0.04841555
145	0xbeb76512	-0.35819298
146	0x3e0d3095	0.13788064
147	0xbf70508a	-0.9387289
148	0xbec1675b	-0.37774166
149	0x3f4a23c9	0.78960854
150	0xbdd5026a	-0.10400851
151	0x3dd4256d	0.10358701
152	0xbf29e3dc	-0.6636331
153	0x3f4c3104	0.7976229
154	0xbeb2f3f6	-0.34951752
155	0x3f3eea4a	0.74576247
156	0xbe8949a4	-0.26813996
157	0x3f89bc8f	1.0760669
158	0x3dae2676	0.085034296
159	0x3ec7cb44	0.39022267
160	0x3eddc97d	0.43317786
161	0x3eb1f198	0.34754634
162	0xbdbb6fed	-0.091522075
163	0xbf0a980c	-0.54138255
164	0x3c2cfd16	0.010558387
165	0x3fc1b33a	1.5132821
166	0x3e97fe2f	0.29686114
167	0xbe241b56	-0.16026053
168	0xbf230378	-0.6367717
169	0xbf0e8a20	-0.5567951
170	0xbf3b4295	-0.7314847
171	0xbde185b8	-0.11011833
172	0xbf34f2fe	-0.70683277
173	0xbf14f9d5	-0.58193713
174	0x3f9d1f74	1.2275224
175	0xbf1d168d	-0.61362535
176	0xbcbab054	-0.022789158
177	0xbefd8854	-0.49518073
178	0xbde6e842	-0.112747684
179	0xbf0953c3	-0.53643435
180	0xbeadcf43	-0.3394719
181	0xbe24551d	-0.16048093
182	0xbe8bf805	-0.2733766
183	0xbb9a6ab7	-0.0047124284
184	0xbedb1687	-0.42790624
185	0x3f4ef0d8	0.8083625
186	0x3ea36028	0.319093
187	0xbd7f3b10	-0.062312186
188	0xbee5989b	-0.4484299
189	0x3ea666d8	0.3250034
190	0x3e8dd5f7	0.27702305
191	0x3f1cd95a	0.6126915
192	0xbe2e0e84	-0.16997725
193	0xbdfd4082	-0.123658195
194	0x3e4d0981	0.20023157
195	0xbef6d711	-0.48210958
196	0xbebac6f3	-0.3647991
197	0xbe224cef	-0.1584966
198	0x3ea63d18	0.32468486
199	0x3f8b85f2	1.0900252
200	0xbf289805	-0.65856963
201	0xbe44de66	-0.19225463
202	0x3d3aa092	0.045563288
203	0xbe8fdc38	-0.280977
204	0x3e939e0e	0.28831524
205	0x3e71f899	0.23629989
206	0xbe480c98	-0.19536054
207	0xbdc41b53	-0.09575524
208	0x3e9f8e5c	0.311633
209	0x3e2a5a76	0.1663607
210	0x3fe36d45	1.7767721
211	0x3ec4dd35	0.38450018
212	0xbf396487	-0.7241902
213	0xbe85122e	-0.25990433
214	0xbf0d3b84	-0.5516894
215	0x3e723f40	0.2365694
216	0xbe06ddfc	-0.13170618
217	0x3d69a5c6	0.05704286
218	0xbee4a3f3	-0.44656333
219	0x3c391d8b	0.0112985475
220	0x3f0bf752	0.54674256
221	0xbeca1523	-0.3946925
222	0xbefab938	-0.48969436
223	0xbd6a533b	-0.05720828
224	0xbf019210	-0.506135
225	0x3cb3907c	0.021919481
226	0xbea7c041	-0.32763866
227	0xbb87cc34	-0.004144216
228	0xbedf0eb3	-0.43565902
229	0x3f36ef84	0.7145922
230	0xbd92aca5	-0.071618356
231	0xbe4383af	-0.19093202
232	0xbd867453	-0.06565156
233	0x3d2c55f3	0.042074155
234	0xbef34cc2	-0.475195
235	0xbe49036a	-0.19630209
236	0x3f915384	1.1353612
237	0x3e8b900c	0.27258337
238	0x3f4c8dbb	0.79903764
239	0xbed27955	-0.41108194

convblock4.0.weight f4 [14, 10, 3, 3]
0	0xbcd982a2	-0.026551548
1	0xbd73dcc8	-0.059536725
2	0xbecdda63	-0.40205678
3	0x3ce11e38	0.02748023
4	0x3e992554	0.29911292
5	0xba9540c2	-0.0011387097
6	0xbd627a8b	-0.055292647
7	0xbe579089	-0.2105123
8	0xbd9ec91a	-0.07753201
9	0xbed94ff7	-0.4244382
10	0xbde0c3eb	-0.109748684
11	0xbd929c62	-0.07158734
12	0xbe696ba4	-0.22794968
13	0xbcfe3a38	-0.03103362
14	0xbd8babfc	-0.06819913
15	0xbe84ad11	-0.2591329
16	0xbe887c84	-0.26657498
17	0xbec66bb1	-0.38754037
18	0x3d0d4f39	0.03449938
19	0x3c8bf7be	0.017085906
20	0xbc9f6e3b	-0.019461742
21	0xbd103794	-0.035209253
22	0x3eb559b8	0.35420012
23	0xbcd3b1e7	-0.025841666
24	0x3e86d85b	0.2633694
25	0x3ea95776	0.3307454
26	0x3e427993	0.1899169
27	0xbe88b5f7	-0.26701328
28	0xbd837822	-0.06419398
29	0xbeec425a	-0.46144372
30	0xbd62346c	-0.055225775
31	0xbc1f7283	-0.009731892
32	0xbe6c973a	-0.23104563
33	0xbd854b12	-0.06508459
34	0x3ef8f683	0.48625574
35	0x3e6aaa7e	0.229166
36	0xbe4cb3f8	-0.19990528
37	0x3d0902c6	0.03344991
38	0x3e403bab	0.18772762
39	0xbe81c80d	-0.2534794
40	0x3dbca095	0.09210316
41	0x3e39b699	0.18136062
42	0xbee799a1	-0.45234397
43	0xbc72e56d	-0.014825207
44	0x3e9c72bd	0.30556288
45	0xbe1e58a3	-0.154635
46	0x3d2f6acd	0.042826463
47	0x3dc0943d	0.09403274
48	0xbd4ecc35	-0.050487716
49	0xbcd5aa12	-0.026082072
50	0xbcf23c23	-0.029569691
51	0x3d36458a	0.04449991
52	0x3d5a21ce	0.053254895
53	0x3d6f2d3a	0.05839274
54	0xbec8cacf	-0.3921723
55	0xbe381aea	-0.17979017
56	0xbf9acaaf	-1.2093104
57	0xbe9ff83f	-0.31244084
58	0x3c864895	0.016392032
59	0x3d29124c	0.041277215
60	0xbe60e250	-0.21961331
61	0x3e55ff75	0.2089823
62	0x3ed47192	0.41492897
63	0xbe3ed96c	-0.18637627
64	0xbc58b8af	-0.013227626
65	0xbd2f342f	-0.042774376
66	0xbdcc2671	-0.099682696
67	0x3dc2ad8d	0.095057584
68	0xbe753906	-0.23947534
69	0xbe8f5f6e	-0.28002495
70	0x3ca52b21	0.020162167
71	0xbdc3699e	-0.09541629
72	0xbf890ccf	-1.0707034
73	0xbee14d1f	-0.4400415
74	0xbf48b1da	-0.7839638
75	0xbe96d728	-0.29461026
76	0x3e6ac328	0.22926009
77	0x3dc61338	0.096716344
78	0xbe838cdc	-0.25693405
79	0xbc907a65	-0.017636487
80	0xbdce3e9b	-0.10070535
81	0x3eaea585	0.34110656
82	0x3dd0f404	0.10202792
83	0xbdd44910	-0.10365498
84	0x3ee88fb7	0.45422146
85	0xbbdcec14	-0.00674201
86	0xbdebdfad	-0.11517272
87	0x3eedb78f	0.46429107
88	0x3c21f1fe	0.009884356
89	0xbcdeafb9	-0.0271834
90	0xbb8d79a1	-0.004317478
91	0x3baedb44	0.005336197
92	0xbe341cfa	-0.17589179
93	0xbe7fcce3	-0.24980502
94	0xbc30d648	-0.010793276
95	0x3e816eea	0.25279933
96	0xbd8d8da1	-0.06911779
97	0x3de35a30	0.11101186
98	0xbd586873	-0.052833986
99	0x3cc41759	0.023936914
100	0xbaef65e9	-0.0018264625
101	0x3f08ccb7	0.5343737
102	0xbe4bea4b	-0.19913594
103	0xbcc0407e	-0.023468252
104	0x3e306780	0.17226982
105	0xbe1a4977	-0.15067087
106	0xbec42cd6	-0.38315457
107	0xbeb1d253	-0.34730777
108	0xbce3479f	-0.027744113
109	0x3dd1ac8f	0.10237991
110	0x3e314512	0.17311504
111	0x3e3920d6	0.18078932
112	0x3c7e9928	0.015539445
113	0x3e8255f8	0.25456214
114	0x3b17dfb8	0.0023174118
115	0x3ba012a6	0.0048850356
116	0x3efb9521	0.49137214
117	0xbebb3d78	-0.36570334
118	0xbdd995a1	-0.106242426
119	0xbe32ad14	-0.17448837
120	0xbb713a39	-0.0036808385
121	0x3e4e1256	0.20124182
122	0xbd036460	-0.032078147
123	0x3f143fb3	0.579097
124	0x3d3efa2d	0.046625305
125	0x3da321c5	0.079654254
126	0x3db56417	0.08856981
127	0xbe5097f0	-0.2037046
128	0xbe0e8296	-0.13917002
129	0xbdf16e68	-0.117886364
130	0xbeeec44b	-0.46634135
131	0xbf148dd8	-0.58028936
132	0x3f0002cf	0.50004286
133	0xbca78aa5	-0.020451853
134	0xbf2aa686	-0.66660345
135	0xbdeff552	-0.11716713
136	0x3e9ec45f	0.31009194
137	0x3f36d0c6	0.71412313
138	0xbcd12210	-0.025528938
139	0x3ee99564	0.45621789
140	0x3ec12e65	0.3773071
141	0xbf465eae	-0.7748822
142	0xbf07e12d	-0.53077966
143	0x3c804c46	0.01566137
144	0x3d9608e6	0.07325916
145	0xbe6399ad	-0.22226591
146	0xbf39ddea	-0.7260424
147	0x3f1f6610	0.6226511
148	0xbd974420	-0.07386041
149	0xbd911b83	-0.070853256
150	0x3fc9fa7d	1.5779568
151	0x3e9b6aac	0.30354822
152	0xbe65b166	-0.22430953
153	0x3d8e5058	0.06948918
154	0x3e850a3d	0.25984374
155	0xbf22596d	-0.634177
156	0x3d3c7bdc	0.04601656
157	0x3f19901d	0.59985524
158	0xbe3ceb01	-0.18449022
159	0x3f5562c5	0.83353835
160	0x3f61ca82	0.8819963
161	0x3e993f92	0.29931313
162	0xbd410ee3	-0.047133338
163	0xbc320104	-0.0108645
164	0x3eb4ef6f	0.35338923
165	0x3ae50acc	0.0017474531
166	0x3b97f8b5	0.0046378025
167	0xbdb955db	-0.09049579
168	0x3ead7d57	0.3388469
169	0x3dcd5248	0.100254595
170	0xbf198a3f	-0.5997657
171	0x3c84cabd	0.016209954
172	0x3bbcbc0a	0.0057597207
173	0xbde8b164	-0.113619596
174	0xbca8cf09	-0.020606535
175	0xbbbf46cc	-0.005837297
176	0x3e7ce46a	0.24696508
177	0xbf02e669	-0.5113283
178	0xbdc357f6	-0.095382616
179	0x3c3e20ce	0.011604501
180	0xbe16c222	-0.14722493
181	0x3cb69ee4	0.022292562
182	0xbd82cd0d	-0.063867666
183	0x3d920186	0.07129197
184	0xbd30bbb7	-0.04314777
185	0x3c1c130e	0.009526027
186	0xbe5e8406	-0.2173005
187	0xbec2cae3	-0.38045415
188	0xba9f43f4	-0.0012150989
189	0x3ed5723d	0.4168872
190	0xbd7fe13b	-0.062470656
191	0xbf42ca2f	-0.7608976
192	0x3e48e75c	0.19619507
193	0xbe65e687	-0.2245122
194	0xbe26086a	-0.16214147
195	0xbf08f32b	-0.53496045
196	0xbeb82270	-0.35963774
197	0xbe8a057b	-0.26957306
198	0xbf540a6b	-0.82828397
199	0xbf4e8f72	-0.8068763
200	0xbefdb1ac	-0.49549615
201	0x3f1519e7	0.5824265
202	0x3d52abfa	0.05143354
203	0xbde1cf45	-0.11025862
204	0x3f516701	0.81797796
205	0x3c3a6dc1	0.011378706
206	0xbf24a5b1	-0.64315325
207	0xbe8c422c	-0.27394235
208	0xbf7369df	-0.9508342
209	0xbe1aa55e	-0.15102145
210	0xbca97614	-0.020686187
211	0x3d4c901d	0.049942125
212	0x3e018845	0.12649639
213	0x3eb212ee	0.34780067
214	0x3ebd3c87	0.3696024
215	0xbc7356f0	-0.0148522705
216	0x3e985a64	0.29756463
217	0x3d0fb0a4	0.035080567
218	0xbf2052c6	-0.626263
219	0x3eb5599b	0.35419926
220	0x3d3284ad	0.04358356
221	0xbe60e0a2	-0.2196069
222	0xbdfdd1b8	-0.12393516
223	0xbcdad7ef	-0.026714293
224	0xbf7995f4	-0.97494435
225	0xbce4f23c	-0.027947538
226	0xbe945d42	-0.289774
227	0xbe0c0dee	-0.13677189
228	0xbd7d0719	-0.061774347
229	0xbe9a975c	-0.30193603
230	0xbd18b68a	-0.037283458
231	0x3f081223	0.53152674
232	0x3e3fc508	0.18727505
233	0x3dd7af2f	0.105314605
234	0x3cfc066c	0.030764781
235	0x3d91d7c6	0.07121234
236	0x3e619a5d	0.22031541
237	0x3eaf380f	0.34222457
238	0x3dd40aee	0.10353647
239	0x3c9c2770	0.019061774
240	0x3ec498f8	0.38397956
241	0xbd9e77b1	-0.07737673
242	0xbe85eee2	-0.26158816
243	0x3d1c00c7	0.03808668
244	0xbe0b28c2	-0.13589767
245	0x3eecb482	0.46231467
246	0xbda5a0ca	-0.08087309
247	0xbdbf0468	-0.09327012
248	0x3eac3982	0.33637625
249	0xbf3b58c9	-0.7318235
250	0xbda9d356	-0.08292262
251	0x3d904549	0.07044465
252	0x3d8bcdc2	0.068263546
253	0xbd7959c1	-0.06087661
254	0xbf4277a9	-0.75963837
255	0xbeb0c552	-0.34525543

convblock4.2.weight f4 [14]
0	0x3fd3684d	1.6516205
1	0x3fed07d5	1.8518015
2	0x4006811b	2.10163
3	0x3fe8f40c	1.8199477
4	0x3fb7ce5b	1.435985
5	0x3ff066ff	1.8781432
6	0x3fd91bff	1.6961669
7	0x4015ebfe	2.3425288
8	0x3fd5c94e	1.6702058
9	0x4007705a	2.1162324
10	0x3fe20ecb	1.7660764
11	0x3fccb49a	1.5992615
12	0x3fb674b6	1.4254367
13	0x3fbf785b	1.4958605

convblock4.2.bias f4 [14]
0	0xbec26c91	-0.37973455
1	0x3f25a62d	0.6470669
2	0x3e9309ff	0.28718564
3	0x3d243063	0.040085208
4	0xbe4601ce	-0.19336626
5	0x3eb761f5	0.35816923
6	0x3e824fdf	0.25451562
7	0x3f3d31f6	0.7390436
8	0x3e1d7e6c	0.15380257
9	0x3ead7a86	0.3388254
10	0xbe80376b	-0.2504228
11	0x3ce0bbbe	0.027433272
12	0xbe7e083e	-0.24807832
13	0x3dbd1e3c	0.092342824

convblock4.2.running_mean f4 [14]
0	0x4129e5a5	10.618566
1	0x411c520d	9.770032
2	0x414fa9c7	12.97895
3	0x4175518b	15.332408
4	0x4101f684	8.1226845
5	0x412d67e9	10.837869
6	0x41191f8c	9.570202
7	0x412702be	10.4381695
8	0x40b863f8	5.762203
9	0x414adda6	12.679113
10	0x412865f5	10.524892
11	0x40c4c5ce	6.149146
12	0x413ab0be	11.66815
13	0x410ff2cc	8.996777

convblock4.2.running_var f4 [14]
0	0x43486797	200.40465
1	0x43a8c763	337.5577
2	0x43871eda	270.24103
3	0x43a5d860	331.69043
4	0x43766c96	246.42416
5	0x43a1815c	323.01062
6	0x4396533d	300.6503
7	0x4350673d	208.40327
8	0x431889fa	152.53897
9	0x439e52aa	316.6458
10	0x4382735c	260.90125
11	0x434f2a09	207.1642
12	0x43a7267d	334.3007
13	0x434ca1b8	204.63171

convblock5.0.weight f4 [16, 14, 3, 3]
0	0x3d767fc7	0.06018045
1	0xbe90ed6e	-0.28306144
2	0xbed832af	-0.4222617
3	0x3e92a5bc	0.2864207
4	0x3d9822b5	0.07428495
5	0xbe18db5e	-0.14927432
6	0x3d276add	0.040873397
7	0xbceb486e	-0.02872106
8	0xbe7f6140	-0.24939442
9	0xbf57fce0	-0.8437023
10	0xbf4c8955	-0.7989705
11	0xbf7205a8	-0.9453988
12	0xbf4cc2d6	-0.79984796
13	0xbe61befd	-0.22045512
14	0xbeb2dc67	-0.3493378
15	0xbefc5b8d	-0.49288598
16	0xbb71ca69	-0.0036894327
17	0x3e3aebae	0.18253967
18	0xbec003e4	-0.37502968
19	0xbe704288	-0.2346288
20	0x3f13e364	0.57768846
21	0xbe8602e4	-0.2617408
22	0xbe6f5359	-0.23371638
23	0x3ecfb468	0.40567327
24	0xbe84a759	-0.25908926
25	0xbda92800	-0.082595825
26	0xbc045993	-0.008077997
27	0x3f0bc218	0.5459304
28	0x3e863b78	0.26217246
29	0x3e844be4	0.2583915
30	0x3eea1b8a	0.45724136
31	0xbea0f111	-0.3143392
32	0x3f2f73e6	0.6853622
33	0x3ec93583	0.3929864
34	0x3df695df	0.120403044
35	0x3ee8b87e	0.45453256
36	0x3e6dc3e7	0.23219262
37	0x3d2cff27	0.04223552
38	0x3daa4d21	0.083154924
39	0x3e82ea33	0.25569305
40	0x3e4220f0	0.18957877
41	0x3cc4c2e4	0.024018712
42	0x3dc818a1	0.097703226
43	0x3cf14308	0.029450908
44	0xbf18add9	-0.5964027
45	0x3e1c3741	0.15255453
46	0xbb80baeb	-0.0039285324
47	0xbe3d3b38	-0.18479621
48	0xbe1e8795	-0.15481408
49	0xbdc279f9	-0.09495921
50	0xbd540787	-0.05176499
51	0xbd65f577	-0.056142297
52	0x3c462892	0.012094634
53	0x3d63a920	0.055581212
54	0xbdce7f24	-0.10082844
55	0x3ed8b52d	0.42325726
56	0x3de9ea91	0.11421693
57	0xbe663f2d	-0.22485037
58	0x3e60dcbe	0.21959206
59	0x3c665025	0.014057194
60	0xbf1bce7f	-0.60861963
61	0x3d63cd75	0.05561586
62	0x3e3a4a59	0.18192424
63	0x3d17912b	0.037003677
64	0xbc4c2743	-0.012460533
65	0xbe33e396	-0.17567286
66	0xbd5a61f4	-0.05331607
67	0x3d81909e	0.06326412
68	0xbeb8ff7c	-0.3613242
69	0x3cda730e	0.02666619
70	0xbe83c482	-0.2573586
71	0xbeeb08aa	-0.45905048
72	0x3b58edcd	0.0033100725
73	0xbce1da46	-0.027569901
74	0x3e1ebe16	0.155022
75	0xbe118633	-0.14211349
76	0xbd8e311f	-0.06942963
77	0x3e419960	0.18906164
78	0x3bf290a3	0.007402496
79	0xbd1dcc5e	-0.038524978
80	0x3b8d9664	0.0043209065
81	0xbe6a5a88	-0.22886097
82	0xbce0c3a4	-0.027437039
83	0x3cd7e6a9	0.026355105
84	0x3e88527c	0.2662543
85	0xbd680fe8	-0.056655794
86	0xbee2b419	-0.4427803
87	0x3f1afd8e	0.60543144
88	0xbd13c490	-0.03607613
89	0xbea5370a	-0.32268554
90	0xbed8fd39	-0.42380694
91	0xbf2097b9	-0.6273151
92	0xbee0489f	-0.43805405
93	0xbee08a52	-0.4385553
94	0xbedbcd58	-0.42930102
95	0x3dccb268	0.09994966
96	0xbeae602d	-0.3405775
97	0xbd65a783	-0.056067955
98	0x3f935cb4	1.1512666
99	0x3e971ae8	0.29512715
100	0x3e826919	0.25470808
101	0x3ed55295	0.41664568
102	0xbd8e63d2	-0.06952633
103	0xbe428753	-0.18996935
104	0x3e35f47e	0.17769048
105	0x3ce95de5	0.028487155
106	0x3d33d021	0.04389966
107	0x3d9a1644	0.07523778
108	0xbc38fb1b	-0.011290337
109	0x3ea9d6ba	0.33171636
110	0x3e0fffeb	0.14062469
111	0xbe1ec5e2	-0.15505174
112	0x3e99d030	0.30041647
113	0x3e76265e	0.24038073
114	0xbe706a6b	-0.23478095
115	0x3d496a94	0.049173906
116	0x3e361226	0.1778036
117	0xbd843843	-0.064560436
118	0xbf26c544	-0.65144753
119	0xbf8610ef	-1.0473918
120	0x3d20575d	0.039145816
121	0xbdb04a5a	-0.086079314
122	0xbec56a4c	-0.3855766
123	0xbca8c065	-0.020599553
124	0xbdabda67	-0.08391266
125	0xbc14144c	-0.009038042
126	0x3f44cadf	0.76872057
127	0x3e802306	0.2502672
128	0x3e9be864	0.30450737
129	0x3ea402cd	0.32033387
130	0xbdcd3ee6	-0.100217625
131	0xbe4efe4e	-0.20214197
132	0x3ec719db	0.38886914
133	0x3d909147	0.070589595
134	0xbca7a609	-0.020464914
135	0x3ed99713	0.42498073
136	0x3cbd8243	0.023133403
137	0xbd7077fd	-0.05870818
138	0x3ecad319	0.3961418
139	0x3d9f5435	0.07779733
140	0xbcc5ecef	-0.02416083
141	0xbe57585e	-0.21029803
142	0xbf01f1e0	-0.50759697
143	0xbed36360	-0.41286755
144	0x3ede409c	0.43408668
145	0x3c8df43a	0.01732837
146	0x3dd352a6	0.10318498
147	0x3d24c14f	0.040223416
148	0xbe369b67	-0.17832719
149	0x3e05762e	0.13033363
150	0x3bd9d65e	0.006647869
151	0xbd8e6e39	-0.06954617
152	0x3c573f29	0.013137617
153	0xbc646497	-0.013939998
154	0x3b9600d5	0.004577736
155	0xbcbd5e3f	-0.02311623
156	0xbe9d466a	-0.30717784
157	0xbe1af453	-0.15132265
158	0x3d98c517	0.07459467
159	0xbdeefe3e	-0.116695866
160	0xbd96e963	-0.07368734
161	0xbd8f2c40	-0.06990862
162	0xbf2d5f14	-0.677232
163	0xbe9076ab	-0.28215536
164	0xbe8a12be	-0.26967424
165	0xbe79260b	-0.24330918
166	0xbd844b7c	-0.0645971
167	0xbe0ecce8	-0.13945353
168	0xbf2e09be	-0.67983615
169	0xbe88f293	-0.2674757
170	0xbecc257b	-0.39872345
171	0x3ec00708	0.37505364
172	0x3deabd13	0.11461844
173	0xbcbb6c6b	-0.022878846
174	0x3cb553a8	0.022134617
175	0xbc2263d2	-0.009911494
176	0x3e49b436	0.19697651
177	0x3d1caaaf	0.038248714
178	0xbb20889c	-0.0024495488
179	0x3ee30697	0.44340965
180	0xbed3eecd	-0.41393128
181	0xbea920ed	-0.33032933
182	0xbf18a972	-0.59633553
183	0xbef498f8	-0.47772956
184	0xbe938e90	-0.28819704
185	0xbbf8c7c7	-0.0075921747
186	0xbe848553	-0.25882968
187	0x3d910a90	0.07082093
188	0x3d42521b	0.047441583
189	0xbe41565d	-0.18880601
190	0xbd946b6b	-0.07247051
191	0xbde77618	-0.113018215
192	0xbd9ea04b	-0.07745417
193	0x3c296362	0.010338636
194	0x3d7603fa	0.060062386
195	0xbe236e66	-0.15960082
196	0xbd21ed9e	-0.03953325
197	0x3d72e193	0.059297156
198	0x3f601786	0.87535894
199	0x3eebcbac	0.46053827
200	0x3f158358	0.5840354
201	0x3f19ad8f	0.60030454
202	0x3dd5cbc2	0.10439254
203	0x3f07b6f4	0.5301354
204	0x3e71b7ff	0.23605345
205	0xbd2d3d4e	-0.042294793
206	0x3e327cc2	0.17430404
207	0x3df0d207	0.117588095
208	0x3e0bb100	0.13641739
209	0x3d817ed0	0.06323016
210	0xbe38b645	-0.1803828
211	0xbe8ea436	-0.27859658
212	0xbec4973b	-0.3839663
213	0x3c982cbb	0.018576017
214	0xbe2b3c98	-0.16722333
215	0xbcb27b03	-0.021787172
216	0xbe8c9ad0	-0.27461863
217	0x3d1a792c	0.037713215
218	0x3e84bce1	0.25925353
219	0xbe1c8ebe	-0.15288827
220	0x3ce4d3bb	0.027932992
221	0x3e91fbe6	0.28512496
222	0x3de55921	0.111986406
223	0x3ea9c09c	0.33154762
224	0x3e9c1d1e	0.30490965
225	0x3ed1c125	0.4096767
226	0x3cf2a30b	0.02961876
227	0xbf045156	-0.5168661
228	0xbdd3d965	-0.10344199
229	0xbe512fec	-0.20428437
230	0xbe3c5c23	-0.18394522
231	0xbedfe627	-0.4373028
232	0xbe7cfdb5	-0.24706157
233	0x3d083662	0.03325499
234	0xbf22916d	-0.6350315
235	0xbf08b65b	-0.5340325
236	0xbef9568f	-0.4869885
237	0xbbdba34b	-0.0067028156
238	0xbad79d80	-0.0016450137
239	0xbc853516	-0.016260665
240	0xbd94c071	-0.07263268
241	0xbde5fed9	-0.11230249
242	0xbeca12a1	-0.39467338
243	0x3e9d1943	0.30683336
244	0x3df4eee3	0.119596265
245	0x3dd3d2af	0.10342919
246	0x3ecc33c5	0.39883247
247	0x3d4b38b6	0.04961463
248	0xbeb8ad87	-0.3606989
249	0x3db00fbc	0.08596751
250	0xbd1be8b1	-0.03806371
251	0xbe6a70bc	-0.22894567
252	0x3f39dcc6	0.726025
253	0x3e4869cc	0.19571608
254	0x3f06694e	0.5250443
255	0x3ce8e45a	0.028429199

convblock5.2.weight f4 [16]
0	0x3fac7d65	1.3475767
1	0x3fa85646	1.3151329
2	0x3fb60707	1.4220895
3	0x3feb2b15	1.8372523
4	0x3fca17b1	1.578848
5	0x3fa85826	1.3151901
6	0x3fb7f3d4	1.4371285
7	0x3facf28b	1.3511518
8	0x4017e16b	2.3731334
9	0x3fafddab	1.3739523
10	0x402f0795	2.7348378
11	0x3faba864	1.3410764
12	0x3fb8da13	1.4441551
13	0x3fce2908	1.6106272
14	0x3fa6b827	1.3024949
15	0x400ed97b	2.232024

convblock5.2.bias f4 [16]
0	0x3eacc791	0.33746007
1	0x3f323783	0.69615954
2	0xbd2c3e37	-0.04205152
3	0x3f4677d5	0.775266
4	0x3f202aae	0.62565124
5	0x3e3ae47e	0.18251225
6	0xbd548465	-0.051884074
7	0xbd834ea0	-0.06411481
8	0x3fa31671	1.2741224
9	0xbdae4e0b	-0.08510979
10	0x3fd812d2	1.6880744
11	0xbef4d2af	-0.4781699
12	0xbec02898	-0.3753097
13	0x3e74a84e	0.23892328
14	0xbe4d6bf3	-0.2006071
15	0x3fe1bcec	1.7635779

convblock5.2.running_mean f4 [16]
0	0x403cf006	2.9521499
1	0x4073e448	3.8108082
2	0x400916e8	2.142023
3	0x4050cff4	3.2626925
4	0x40510331	3.2658198
5	0x40268b81	2.6022646
6	0x3feb12e6	1.8365142
7	0x404c2eb2	3.19035
8	0x40801ccd	4.0035157
9	0x4031ebc9	2.7800162
10	0x408979d1	4.29612
11	0x405a3efe	3.4100947
12	0x40aece76	5.4627028
13	0x4047bbca	3.1208367
14	0x408b2ccd	4.349219
15	0x408047ef	4.008781

convblock5.2.running_var f4 [16]
0	0x41cb37aa	25.40218
1	0x41c8b484	25.088142
2	0x418b6136	17.422466
3	0x41cc4d6d	25.537806
4	0x41afaba0	21.958801
5	0x41a04578	20.03392
6	0x416cc7e9	14.798806
7	0x41cc911f	25.57086
8	0x4211b881	36.43018
9	0x419868db	19.051199
10	0x422a37d6	42.554527
11	0x41fd4601	31.659182
12	0x424a75d2	50.61506
13	0x41d4fd98	26.623825
14	0x421b12c1	38.768314
15	0x420f58db	35.836773

convblock6.0.weight f4 [16, 16, 3, 3]
0	0xbe1725d3	-0.14760523
1	0xbf195622	-0.59897053
2	0xbf9b7359	-1.2144576
3	0x3e1fc0cc	0.1560089
4	0xbe824375	-0.2544209
5	0xbf1eb78e	-0.6199883
6	0x3e5e4193	0.21704702
7	0x3daf98e8	0.085740864
8	0x3cc13240	0.023583531
9	0x3ed3a574	0.41337168
10	0xbe3b2be8	-0.18278468
11	0x3930ad8e	0.00016849322
12	0xbd06b40d	-0.032886554
13	0xbeeabdee	-0.4584803
14	0x3d366e48	0.044538766
15	0x3cb21294	0.021737374
16	0xbea94c33	-0.33065948
17	0x3d1e2516	0.038609587
18	0x3e1885a1	0.14894725
19	0x3e187dfc	0.14891809
20	0x3d95bc78	0.07311338
21	0x3c48cc40	0.012255728
22	0x3ebe0329	0.37111786
23	0x3eb6e989	0.35725048
24	0xbde0194f	-0.10942327
25	0x3e1c7de1	0.15282394
26	0x3e2c3001	0.16815187
27	0xbe89498d	-0.26813927
28	0xbda8021d	-0.08203528
29	0xbdd20f76	-0.10256855
30	0xbcc03423	-0.02346236
31	0xbd8ae66e	-0.06782232
32	0x3d8cbb7e	0.06871699
33	0x3e1a58a6	0.15072879
34	0x3c7e028b	0.015503536
35	0x3d8b1f67	0.06793099
36	0xbd8a8dee	-0.06765352
37	0x3eb276ad	0.34856167
38	0x3e1cf95d	0.153295
39	0xbdec7a7e	-0.11546801
40	0x3cc54b5a	0.024083782
41	0x3bcc8f88	0.006242696
42	0xbd89ae21	-0.067226656
43	0x3da78426	0.08179502
44	0x3e4d9979	0.20078076
45	0x3cb934db	0.022608211
46	0xbe4a65d3	-0.19765405
47	0xbf043dd7	-0.5165686
48	0x3d074c3d	0.03303169
49	0x3d5475f0	0.051870286
50	0xbcb11ef7	-0.02162121
51	0xbde7db33	-0.11321106
52	0x3e427275	0.18988974
53	0x3eb48edc	0.35265243
54	0x3eb5b6f5	0.35491148
55	0x3edb517f	0.42835614
56	0xbd9ba21e	-0.07599281
57	0xbe0401f7	-0.12891375
58	0x3db2c8d3	0.087297104
59	0xbd318348	-0.04333809
60	0x3eeca715	0.46221223
61	0x3eb4dd89	0.35325268
62	0x3dccfe40	0.10009432
63	0xbe13549f	-0.14387749
64	0xbd70ebae	-0.05881851
65	0x3e339020	0.17535448
66	0xbd01eb81	-0.031718735
67	0x3bf67bf8	0.0075221024
68	0x3e51b5cc	0.20479506
69	0xbe80e48d	-0.2517437
70	0x3d9de231	0.07709158
71	0x3e9f9912	0.3117147
72	0xbd4ea647	-0.050451543
73	0xbd96f807	-0.07371526
74	0xbf63497e	-0.88784015
75	0xbd01fcec	-0.031735346
76	0xbe93a3e6	-0.28835982
77	0xbf8227d4	-1.0168405
78	0xbddd1eea	-0.10796912
79	0x3a88cd02	0.0010437074
80	0xbe8a7717	-0.27043983
81	0xbef623b0	-0.48074102
82	0xbf29830c	-0.66215587
83	0xbe10f380	-0.14155388
84	0x3cd18ea0	0.025580704
85	0xbd832704	-0.06403926
86	0x3b8ba160	0.0042611808
87	0x3f413cca	0.7548338
88	0x3e663f76	0.22485146
89	0x3e0fe991	0.14053942
90	0x3e0f4ae8	0.13993418
91	0xbc339fab	-0.010963361
92	0x3ce8b425	0.028406212
93	0xbe67933b	-0.22614758
94	0xbe37ce2e	-0.17949745
95	0xbce59ded	-0.028029406
96	0xbe909253	-0.28236637
97	0xbed01b86	-0.40646
98	0xbe0f1fba	-0.13976946
99	0xbea1d093	-0.31604442
100	0xbdd39ccd	-0.10332642
101	0xbd0ca9e2	-0.0343417
102	0xbee32b1e	-0.44368833
103	0xbbb848e6	-0.0056239245
104	0x3ba37acc	0.0049890038
105	0xbcd70848	-0.026249066
106	0x3e5dd937	0.21664892
107	0x3dc1a982	0.09456159
108	0xbca20bc6	-0.019781005
109	0xbea98d63	-0.33115682
110	0xbf14839d	-0.58013326
111	0x3cfcd9b7	0.030865533
112	0x3d6eac19	0.058269594
113	0xbe1c82da	-0.15284291
114	0xbd35911d	-0.044327844
115	0xbb54efc8	-0.0032491554
116	0xbe2dec84	-0.16984755
117	0x3e51cde8	0.20488703
118	0x3d5dc65f	0.05414426
119	0xbec5c744	-0.3862859
120	0xbe68fb23	-0.22752051
121	0xbce27a9b	-0.027646353
122	0xbe928c62	-0.2862273
123	0xbf049710	-0.51793003
124	0xbce6a7a3	-0.028156107
125	0x3c478cce	0.012179567
126	0x3c2c3534	0.0105107315
127	0xbce1e9d7	-0.027577324
128	0xbdd5d025	-0.10440091
129	0x3d004cad	0.031323124
130	0x3e4373a3	0.1908708
131	0x3dff201b	0.124572955
132	0xbf11ae0f	-0.5690622
133	0x3e73eb9b	0.23820345
134	0x3db8fe60	0.09032893
135	0xbcb85a38	-0.022503957
136	0x3cdcbb8d	0.0269449
137	0x3eca5ea1	0.3952532
138	0x3d16558c	0.036702678
139	0xbdce7bea	-0.100822285
140	0xbb85c7b4	-0.0040826444
141	0xbdba8172	-0.09106721
142	0xbee15779	-0.4401205
143	0xbf0a1ec0	-0.5395317
144	0xbd88abf0	-0.066734195
145	0x3e3e9e7b	0.18615143
146	0xbdf63b42	-0.12023021
147	0x3e12b130	0.14325404
148	0x3ceacde5	0.028662631
149	0xbeb2b304	-0.34902203
150	0x3d855dad	0.06512008
151	0xbd244b93	-0.040111136
152	0xbefe1851	-0.49627927
153	0x3f20b5b1	0.6277724
154	0x3e667376	0.22504982
155	0x3f546a97	0.82975143
156	0xbce489b1	-0.027897688
157	0xbe7bbdb6	-0.24584088
158	0x3d0819ac	0.033227608
159	0xbc5920db	-0.013252462
160	0xbeb00932	-0.34382015
161	0xbcf9af3a	-0.030479062
162	0x3cac8e71	0.021064015
163	0xbe0a2583	-0.13490872
164	0xbd1d60b2	-0.038422294
165	0xbe7b517c	-0.24542803
166	0xbe8bfb0f	-0.2733998
167	0xbdb50f60	-0.08840823
168	0xbf1ba375	-0.6079629
169	0xbebb2d4a	-0.3655799
170	0xbd2e12bb	-0.04249833
171	0xbe0439f0	-0.12912726
172	0x3cbc5864	0.022991367
173	0xbcf8f9e1	-0.030392589
174	0xbd3e4990	-0.046456873
175	0xbcf1d1aa	-0.02951892
176	0xbd298215	-0.04138382
177	0xbf0a0b87	-0.5392384
178	0xbeb49587	-0.3527033
179	0xbd7bbcb1	-0.061459247
180	0xbda6055e	-0.081064925
181	0xbc9acf79	-0.018897759
182	0xbea596b0	-0.32341528
183	0xbcc2fbfa	-0.023801792
184	0xbb832f22	-0.0040034214
185	0xbf0eade3	-0.5573408
186	0x3e4000f3	0.18750362
187	0x3bd84e84	0.0066011567
188	0xbd736740	-0.05942464
189	0x3da9f7ae	0.08299194
190	0x3dd8239c	0.10553667
191	0xbe8d4dad	-0.27598324
192	0x3d27ca71	0.040964548
193	0x3c04f64c	0.008115362
194	0xbc7e8930	-0.015535638
195	0x3c2607d8	0.010133706
196	0xbe4dea77	-0.20108972
197	0xbd472956	-0.048623405
198	0x3e09bc48	0.1345073
199	0xbc175218	-0.009235881
200	0x3ab8cfba	0.0014099993
201	0xbdf38a33	-0.11891594
202	0xba2f6d7b	-0.0006692034
203	0xbc87e0b3	-0.016586637
204	0xbea97691	-0.3309827
205	0xbc4f9a64	-0.012671087
206	0x3de08df4	0.109645754
207	0xbeb1c3ac	-0.34719598
208	0xbdfd171e	-0.12357925
209	0xbef1e864	-0.47247612
210	0x3cb3b9d0	0.021939188
211	0x3e8ed1d7	0.2789447
212	0xbcc78caf	-0.024359075
213	0x3e3cabf6	0.18424973
214	0x3dd2ac77	0.10286801
215	0xbc2d067c	-0.010560628
216	0x3e0c56f9	0.13705052
217	0xbdc38b0b	-0.09548005
218	0xbe8a44ca	-0.27005607
219	0x3d27901e	0.040908925
220	0xbe3d85e8	-0.18508112
221	0xbf04db61	-0.51897246
222	0x3ca26d58	0.01982753
223	0xbecac70b	-0.39604983
224	0xbf5fcb9f	-0.87420076
225	0xbec5f87d	-0.38666144
226	0xbe7987f4	-0.24368268
227	0xbb932ba3	-0.004491286
228	0x3c994c97	0.018713279
229	0x3aa6e073	0.0012731686
230	0x3d2d4a1a	0.042306997
231	0x3c7393c5	0.014866774
232	0x3d09486e	0.03351634
233	0x3e38dc3b	0.18052761
234	0x3dd43257	0.10361164
235	0xbdeef916	-0.11668603
236	0xbea785ea	-0.32719356
237	0xbd2fa1fd	-0.042879093
238	0xbd9871bb	-0.07443567
239	0xbf17c97f	-0.59291834
240	0x3e144030	0.1447761
241	0x3cb6ef0b	0.022330781
242	0xbe547aa6	-0.20749912
243	0x3f5c2812	0.8599864
244	0xbd6ffb69	-0.058589373
245	0xbd9da297	-0.07697027
246	0x3eadcb9c	0.33944404
247	0xbcbb8ea7	-0.02289517
248	0xbd6e1ae4	-0.058131114
249	0x3f065c06	0.52484167
250	0xbcb28e4e	-0.021796372
251	0xbf06cbe3	-0.52654856
252	0x3c73b3cf	0.014874413
253	0xbe0c1450	-0.13679624
254	0xbee6a2f8	-0.4504621
255	0xbe05d5bf	-0.13069819

convblock6.2.weight f4 [16]
0	0x402bcb62	2.6842885
1	0x405305f6	3.2972388
2	0x4057fc6d	3.3747818
3	0x40439b72	3.0563626
4	0x404d28bc	3.2056112
5	0x4028617f	2.6309507
6	0x405e7b31	3.476269
7	0x406afad3	3.671559
8	0x4047b55c	3.1204443
9	0x40528cbc	3.2898397
10	0x404bab82	3.182343
11	0x40578149	3.367266
12	0x406c3741	3.6908724
13	0x4050f237	3.2647836
14	0x4078705a	3.8818574
15	0x402cdfdb	2.701163

convblock6.2.bias f4 [16]
0	0x3dbe4b86	0.09291749
1	0x3e10d0a2	0.14142087
2	0x3dbfa6c1	0.09357978
3	0xbc3cf1e0	-0.011532277
4	0x3e18b380	0.14912224
5	0xbeb1233c	-0.34597194
6	0x3f0cbe8d	0.5497826
7	0x3f333659	0.700048
8	0x3ee741d8	0.45167422
9	0xbead24e6	-0.33817214
10	0x3eafb3d4	0.34316885
11	0x3e3bc833	0.18338089
12	0x3eb0ca73	0.34529456
13	0xbddac9e4	-0.10683039
14	0x3dc9ea43	0.09859135
15	0xbec383e1	-0.38186553

convblock6.2.running_mean f4 [16]
0	0x3f507f67	0.814444
1	0x3fd3fda9	1.6561786
2	0x3f70d36f	0.9407262
3	0x3ef135e7	0.47111437
4	0x3fc2a716	1.520724
5	0x40367986	2.8511672
6	0x3fa512e9	1.2896396
7	0x3fd1f49f	1.6402777
8	0x3f6d416a	0.9267794
9	0x3f88f0ef	1.0698527
10	0x3f240c16	0.6408094
11	0x3f1e292e	0.61781585
12	0x3f3d44d6	0.7393316
13	0x3f5849cb	0.844876
14	0x3f99a8ba	1.2004616
15	0x3f1ee699	0.62070614

convblock6.2.running_var f4 [16]
0	0x40818b44	4.04825
1	0x41405766	12.0213375
2	0x40e36cad	7.107016
3	0x40497b52	3.1481519
4	0x413195b6	11.0990505
5	0x419e7e78	19.811752
6	0x4121b1cc	10.105907
7	0x415e1a9c	13.881496
8	0x40e9f332	7.310937
9	0x40f808cb	7.7510734
10	0x40824e20	4.0720367
11	0x408d72ff	4.4202876
12	0x40d2207f	6.566467
13	0x40d1251a	6.535779
14	0x4129774e	10.591627
15	0x403d94bb	2.9622028

convblock8.0.weight f4 [10, 16, 1, 1]
0	0xbd7b6a2b	-0.061380547
1	0x3f96b7db	1.1774858
2	0xbf18932c	-0.59599566
3	0xbf0fe2b0	-0.5620527
4	0xbd00a3f0	-0.031406343
5	0x3df356ab	0.11881765
6	0xbf2158c0	-0.63026047
7	0x3f30ae71	0.69016176
8	0xbecc6dc3	-0.39927492
9	0x40273507	2.6126115
10	0xbf772f07	-0.96556133
11	0xbe1cbcc0	-0.15306377
12	0xbe99e389	-0.30056408
13	0xbe581346	-0.21101102
14	0xbf17d956	-0.59316003
15	0xbeca017c	-0.39454257
16	0xbf85286e	-1.0402963
17	0xbfceb738	-1.6149664
18	0xbf2ba295	-0.67044955
19	0xbea3bc74	-0.31979716
20	0xbf203e73	-0.6259529
21	0x40070484	2.1096506
22	0xbf240e1a	-0.6408402
23	0xbfde1bd7	-1.7352246
24	0xbec9a2e7	-0.39382097
25	0xbf65956a	-0.8968111
26	0x3cacadea	0.021079022
27	0xbeb000ee	-0.3437571
28	0xbec24722	-0.37944895
29	0x3fc9b3a8	1.5757952
30	0xbd03752f	-0.032094177
31	0x3fbb568b	1.4635786
32	0x3e83b6c9	0.25725392
33	0x3f0e6c06	0.5563358
34	0xbd9c323f	-0.07626771
35	0x3cae3742	0.021266583
36	0x3fa9abff	1.3255614
37	0xbe0f9891	-0.14023043
38	0x3f0e6210	0.5561838
39	0x3d13c9f4	0.03608127
40	0x3fa62f6c	1.2983222
41	0xbf53a5fd	-0.82675153
42	0xbf87f633	-1.0622009
43	0xbf0f02b8	-0.55863523
44	0x3ec5883b	0.38580498
45	0x3fec61f0	1.8467388
46	0xbfc6ddfb	-1.5536493
47	0xbf7f60f5	-0.9975732
48	0xbe18aff9	-0.14910878
49	0xbe5424d6	-0.20717177
50	0xbf20a000	-0.6274414
51	0x3d1b6ed7	0.037947502
52	0x3e3ddbca	0.18540874
53	0xbfa50af8	-1.2893972
54	0xbe14815b	-0.1450247
55	0xbf613c0f	-0.8798227
56	0xbe26874b	-0.16262548
57	0x3e5867df	0.21133374
58	0xbf49aae3	-0.7877638
59	0xbd264052	-0.040588684
60	0x401d7592	2.460301
61	0x3f257ae3	0.64640635
62	0x3fe78bfc	1.8089595
63	0xbeb1cfa6	-0.34728736
64	0x3e60c963	0.21951823
65	0x3fc0f2a7	1.5074052
66	0x400775e1	2.1165698
67	0x3e0d9b57	0.13828789
68	0x3dd418ae	0.1035627
69	0x3e6cc822	0.2312322
70	0x3eb879e1	0.36030486
71	0xbfcbb005	-1.5913092
72	0x3de4d581	0.11173535
73	0xbf99083e	-1.195564
74	0x3fc95d97	1.5731686
75	0xbf6ad5c9	-0.9173246
76	0xbf6c6b9a	-0.92351687
77	0xbf82e3fa	-1.0225823
78	0xbe8813d4	-0.26577628
79	0x3ef40362	0.4765883
80	0x3f884666	1.0646484
81	0xbd90b500	-0.07065773
82	0x3c2a593c	0.010397252
83	0x3d7c6304	0.061617866
84	0xbe8fdaa2	-0.2809649
85	0xbf4d2051	-0.80127436
86	0xbfecd19a	-1.8501465
87	0x3f80ca28	1.0061693
88	0x3d68b5b6	0.056813918
89	0xbe9bb8e0	-0.30414486
90	0xbc99d633	-0.018778896
91	0x3f5664b5	0.83747417
92	0xbf87cf2d	-1.06101
93	0xbd74dcf1	-0.05978102
94	0x400acf96	2.16892
95	0xbf10ba11	-0.56533915
96	0xbeb5a9bb	-0.35481057
97	0x3ee917c6	0.4552595
98	0xbd6f846f	-0.058475908
99	0x400946a3	2.1449363
100	0xbf9448fb	-1.1584772
101	0x3ede5d8c	0.43430746
102	0xbfbca667	-1.4738282
103	0x3f7e2d2d	0.9928768
104	0xbe328cb0	-0.1743648
105	0x3ec7e923	0.39045057
106	0xbf51bd19	-0.81929165
107	0x40012858	2.0180874
108	0xbf2827d1	-0.65685755
109	0xbed97ab2	-0.42476422
110	0xbee03707	-0.43791983
111	0x3d96c98f	0.07362663
112	0x3f586368	0.8452668
113	0xbfb4df42	-1.4130633
114	0xbf5a40db	-0.8525521
115	0x3ebc6a31	0.36799768
116	0x400adc82	2.1697087
117	0x3e1d44d9	0.15358295
118	0x3f5d3d50	0.8642168
119	0xbf6c79d7	-0.9237341
120	0xbf4622b1	-0.77396685
121	0xbf1acc01	-0.60467535
122	0x3ebaf0c5	0.36511818
123	0xbec40c18	-0.38290477
124	0xbdb0e934	-0.0863823
125	0xbf15faa8	-0.58585596
126	0xbf832441	-1.0245439
127	0x3fae8e97	1.3637265
128	0xbe9f49c4	-0.31110966
129	0x3c081078	0.008304708
130	0xbefbdd25	-0.49192157
131	0xbf166ace	-0.5875672
132	0xbf838902	-1.0276186
133	0xbed794fb	-0.4210585
134	0x3f727332	0.94707024
135	0x3e4fc6c6	0.2029067
136	0x3fe97b3e	1.8240736
137	0x3f0ca6e7	0.5494217
138	0x3f9fdcd4	1.2489266
139	0x3fac89d7	1.3479565
140	0x3f87b107	1.06009
141	0xbeb801a9	-0.35938767
142	0xbdebd50b	-0.11515244
143	0xbf569c5e	-0.8383235
144	0xbf9e2c87	-1.2357339
145	0xbe878b34	-0.2647339
146	0x3fd75d5c	1.6825366
147	0xbf95593a	-1.1667855
148	0x3ea50919	0.32233503
149	0xbe1096f4	-0.14120084
150	0x3fbda406	1.4815681
151	0x3fb262d8	1.3936415
152	0xbf7cf14e	-0.988057
153	0xbc1c3645	-0.009534423
154	0x3f66dd11	0.9018107
155	0xbf9aaa08	-1.208314
156	0xbc8f5494	-0.017496385
157	0xbf0125f8	-0.5044856
158	0x3eb3465b	0.35014614
159	0x3eacd51e	0.33756346
