S6/Assets/models/model_dropout.pth (torch_old, 45214 bytes, 27 tensors)

convblock1.0.weight f4 [16, 1, 3, 3]
00000000: b46b b23f c61e 6bbf 72b4 61bf bc47 4f3f
00000010: 64db 4dbf 420f 36bc 5334 173f dc57 c73e
00000020: 7207 4dbe 3970 8a3f 1765 cd3e a73e 6bbe
00000030: 7aca 423f e2e5 f3be bc21 46bf d6d4 f73e
00000040: 5f5b 41bf 4a0e 79bf 9f58 823f 0553 173e
00000050: ccc5 5abf 56d3 193f 4f6c ba3e cf0b 133d
00000060: e2ae 1dbf 4ba2 02bf 9a62 723e 1066 053e
00000070: 1a11 4bbe a29b 0e3f a16a 8c3e 492a 6c3f
00000080: 97c7 863f 0a46 6bbf 101a 73bf ff3a 85be
00000090: 9e57 803e 43a8 483e c4fb d13e fa03 363f
000000a0: 74f1 4c3f d4e9 56bf 2604 563f 4064 76bf
000000b0: 4d6a 38bf 3e55 c33e 6a0d f33e 89c6 c73e
000000c0: 430b 3cbf 1d80 8b3e 4055 3abf 3cd0 9dbf
000000d0: 607c 65bf 76b3 71bf 2db9 86bd 6b9f a43e
000000e0: 5a95 713e 7ba4 52bf b669 023f 7b55 903f
000000f0: fb38 a2bf 8e5e 983e fc63 243f 6b97 b23d
00000100: 3533 393e cb36 8bbf 5902 fb3e 814d cebe
00000110: ea92 ddbe 2bef 34bf 9fdd 45bf d559 91be
00000120: c657 80be 3dc1 b43e 0b8a 1b3f df7c e63d
00000130: 67c6 803f aedc 043f ac2c edbe 5e96 e3be
00000140: abfb 5fbf 0589 5dbd 1f54 03bf 3ef7 91be
00000150: ac1b 063f ce36 5abf 5642 90bf 3964 683f
00000160: 46ac 833f cb7c 233f d393 40bf d8aa 69bf
00000170: eed8 d6be 9102 ac3e 8f9a 77be a8b7 54bf
00000180: c1eb 963e 3ca0 2a3e 2f42 b2bf bb3b dcbd
00000190: de9a 6c3f 1f8a 85bf c887 ad3e 8962 823f
000001a0: 9801 9cbf cb0d e03d 1c6b 073f e28c 6e3c
000001b0: 0b8d 43bd d244 d7be 9a2f 25bf 6edd e23e
000001c0: 8f6b 793f 26a7 1ebe d2e6 433f cdfc e13d
000001d0: b98a 023e 6d5d 92bd 6572 94bf 47e5 0bbf
000001e0: 97f8 88bf de29 13bf f50e 463f 8403 21be
000001f0: 6526 533f b6a5 3b3f ceb5 9cbf bf37 51bf
00000200: 0f99 ffbe 839a 2b3e 8a75 c53e a0b9 ab3e
00000210: 0e92 393f 4418 643f 9869 173f 44e3 993f
00000220: d39a 403f 4599 083f 5669 113f 6883 68be
00000230: ab3a 17bf e6fe 4abf 81b1 43bf 60cf 4abf
1.3939118 -0.9184383 -0.8816596 0.8096883 -0.8041289 -0.011112036 0.59064215 0.3893422
-0.20022371 1.0815498 0.40116188 -0.22973119 0.76090205 -0.47636324 -0.77395225 0.48404568
-0.75530046 -0.9728743 1.0183295 0.14777763 -0.85458064 0.600881 0.36410758 0.035899933
-0.61594975 -0.5102889 0.23670426 0.13027215 -0.19830742 0.55706227 0.274251 0.9225202
1.052966 -0.91903746 -0.94961643 -0.26021573 0.25066847 0.19595437 0.41012394 0.7109982
0.8005593 -0.83950543 0.8360008 -0.9624672 -0.720372 0.38150972 0.47471172 0.39018658
-0.73454684 0.2724618 -0.7278633 -1.2329173 -0.89642906 -0.9441446 -0.06578288 0.32152876
0.2359213 -0.8228223 0.5094255 1.1276087 -1.2673639 0.2975964 0.64215064 0.08720287
0.1808594 -1.0876096 0.4902523 -0.40293506 -0.4327615 -0.7067744 -0.7729129 -0.2838885
-0.25066966 0.3530368 0.6075751 0.11254286 1.0060548 0.5189923 -0.46323144 -0.4445066
-0.8749339 -0.05408575 -0.51300234 -0.28508943 0.52385974 -0.85239875 -1.1270244 0.9077793
1.0286949 0.63862294 -0.7522556 -0.9127631 -0.4196238 0.33595708 -0.24180053 -0.8309274
0.2947674 0.16662687 -1.3926448 -0.1075358 0.9242381 -1.0432776 0.33892655 1.018632
-1.2187986 0.10940131 0.5289781 0.014559956 -0.04774193 -0.42044693 -0.6452576 0.44309562
0.97429746 -0.1549345 0.7652408 0.11034546 0.12748231 -0.07146726 -1.159741 -0.54646724
-1.0700864 -0.5748576 0.7736657 -0.15723997 0.8248046 0.7329973 -1.2242982 -0.81725687
-0.49921462 0.1675816 0.38566238 0.33540058 0.72488487 0.89099526 0.591455 1.2022481
0.75236243 0.5335887 0.56801355 -0.22706378 -0.59073895 -0.79295194 -0.76442724 -0.7922268

convblock1.2.weight f4 [16]
00000000: f38f ba3f be9a ba3f f7b2 923f 8fcf 903f
00000010: 353d b83f b84d ab3f 8c03 a73f 9612 b33f
00000020: ec09 973f 89c2 883f 36fe c93f 21b9 a13f
00000030: 0cb6 993f e15f 9d3f 1f32 9f3f 793b ae3f
1.457518 1.4578474 1.1460866 1.1313342 1.4393679 1.3383093 1.3047957 1.3990047
1.1799903 1.0684367 1.5780704 1.2634622 1.2008681 1.2294885 1.2437171 1.36119

convblock1.2.bias f4 [16]
00000000: 5918 e4bd 3f50 b03e f13b e5bd f3f1 afbd
00000010: 50a3 793e cf92 db3e 79d0 cb3c 702b 203f
00000020: 116c 4cbc c7a2 6ebe 848f fc3e 7bcc 143e
00000030: 08ec e73d 19e6 d03d 0e87 3d3e 1cad 9f3e
-0.111374564 0.34436223 -0.111930735 -0.0859107 0.24378705 0.42885444 0.024879681 0.6256628
-0.012476937 -0.23304282 0.49328244 0.14531128 0.11324316 0.10200138 0.1850855 0.3118676

convblock1.2.running_mean f4 [16]
00000000: 5bde f53e fa24 233f d0b8 c43e fee5 ee3e
00000010: 309d 0e3f fb01 823f dd90 2a3f 5c01 693f
00000020: 45f9 e23e 0d84 e03e 4fa5 923f d91e ea3e
00000030: 21cf 0e3f bc82 343f 64fd 1f3f 3eaf 133f
0.48021206 0.63728297 0.3842225 0.46659845 0.557086 1.0156854 0.66627294 0.910177
0.44330803 0.43850747 1.1456698 0.4572666 0.55784804 0.70511985 0.6249602 0.57689273

convblock1.2.running_var f4 [16]
00000000: 2c86 e43f b555 0040 2d6b 7c3f 87b3 c23f
00000010: 01d4 0440 24af 073f 717f 3340 1264 a93e
00000020: c740 a83f f571 c93f ff0b 0e3f 209f c23f
00000030: 8d5d dc3f ac15 833f fa0d 2c40 e756 1f40
1.7853446 2.0052311 0.9860104 1.5211037 2.0754397 0.5300162 2.8046534 0.3308416
1.3144768 1.5737902 0.55487055 1.5204811 1.721605 1.0240989 2.688353 2.489679

convblock2.0.weight f4 [24, 16, 3, 3]
00000000: 2c21 333e db91 863b ec7b 09be 7e18 cebd
00000010: 2e14 c83e 0fe4 d1bd 0f8d d83e 7fc5 1abe
00000020: ff2a 86be dc53 93bd 583c 363e c4e1 53be
00000030: 8534 8bbc bfb3 243e 284f 84bd 48fa d2bd
00000040: 67bc 4ebd fb54 b63d 043a c0bd 4b30 f53d
00000050: ec82 08bd b4a2 f4bb 6a81 cd3e 3755 f9be
00000060: a25f 68be 7757 b1bd fd53 a4be 0421 dcbd
00000070: 9a52 4fbe 89d4 433d 490c 56be 1dfb d7be
00000080: bfa8 50be c1f8 523e 3ed1 653e e218 093e
00000090: babf f0bc d76a ae3e bde6 28bf 818f 2abc
000000a0: 4e2a 91be 8027 6bbe 0b83 82be 81c5 1abd
000000b0: b232 ec3e 1b2d a1be feae 91bc dd7a 0a3d
000000c0: df0f 5abf 3e01 84be 36a1 88be 10f5 48bf
000000d0: 6550 04be ce1b d03d 5281 db3e c652 fabe
000000e0: c39b 633d 1604 233e 3fb7 80be ee74 12be
000000f0: 1c5f a03e 510e 71be 6e97 babe e083 b6be
00000100: 63fe 3c3e 4d53 923e 5642 bbbe 4740 c9bd
00000110: d79f d9bd 32ef e1be da67 8dbe 2b64 23be
00000120: 3611 653e e158 6fbe d6d6 d7be 8b49 fabd
00000130: 69fb 21bf 6526 53be 6c3f 71bd c926 7bbc
00000140: 20df 053e b249 55be 7ca9 0b3e 9f11 74be
00000150: 519e 0bba 804d d03e d20b a0be 9e59 013e
00000160: 220a 323c 56a8 4ebe a3ed 8ebe afe0 063f
00000170: b5de b03e b695 f3be cba8 5c3e 7477 c63e
00000180: 261d 96be e43d e3bd c6ad b9bd 661f 2cbd
00000190: 1696 183e 9913 2ebf 1cdd 663e 1f2a 2a3d
000001a0: a5ce 32bf c9f2 493d db43 c5bb 0825 1bbe
000001b0: 9436 453c c943 81bd e290 19bf 2b11 d0bd
000001c0: 216a ad3c b396 d0be 8fb3 5bbd 45dc 97bd
000001d0: 55c5 84be 0689 e4be 0fa3 efbe 9feb 82be
000001e0: c450 f2be c3cc e9bd 120d 8ebd ff8e 88be
000001f0: 9aad 5cbe a2c4 e23d dd1d 3c3e b4d0 8fbe
00000200: aa37 d9be dda3 19be feea 10be 43f3 ddbd
00000210: 0519 c5b9 097d 20be daaa 5dbe 3b21 66be
00000220: 669c a03c 46ab 88be c2d5 b3be e9f7 0cbe
00000230: d908 b9be 6459 fdbe fafa b3be d72d f139
00000240: 0d85 30bd 8fbb 6e3d f8f7 4a3e 064b 09bd
00000250: 0cac fbbb 4f98 cfbb 3a34 843d c25f 9ebd
00000260: 1b0d 08be 4f44 03bd 6839 1fbe 821b 0c3d
00000270: 353e 97be c69c 0cbe 8e9e b03c 2cc4 37be
00000280: 8a01 9ebd 5a97 c3bd 6b46 053e d425 c43e
00000290: 1c28 963e e7fd 01be 0485 00be dd31 b6bc
000002a0: 24c0 23be 8589 2dbe 852a 28be 6719 c73d
000002b0: 1326 653e 08bc abbd d007 dfbc 8c9c 3e3d
000002c0: 7979 ffbd 6d8e b5bc ba04 d8bd 1a17 6abe
000002d0: 9967 66bd 3b54 01be 0345 02be efd2 15be
000002e0: 3792 86be ab29 d4bd f640 d4bd 9f0a e2bc
000002f0: e83c c2bc 35ea 443e c8d9 083e 6876 b43c
00000300: 3590 65be 5b4c 693c a493 a33e 3c77 533d
00000310: 36ef 0f3e 0bdb 083f 6665 1a3a 181e 1f3e
00000320: 7d2f 16be c7b5 8dbd 7e18 b8bd fdd7 33be
00000330: d179 0bbe 6b55 0dbe 5288 21be 6867 24be
00000340: 07cf 37be 495f aabd f08e 603d 65dc 3fbe
00000350: 332d 843e 8e31 e03e 9e28 403e d1e0 043f
00000360: df67 d038 b938 01be 1b70 9dbd a5f8 2cbe
00000370: edee 1cbd 9f84 b1bd fec5 4dbe 8b59 15be
00000380: 4558 a9bd c02f 9abc 9df7 00bd e0b0 a43d
00000390: 3df6 3d3e 2054 103d 27e5 453d 85f8 19be
000003a0: 0521 89bd a287 3fbe b56c 98bd 1050 3cbe
000003b0: e15c 81bd 96e4 073e a13b d93d c52d 753e
000003c0: 8030 0f3e 8b9f d53e 35a6 453f 2343 aabd
000003d0: dc59 6cbd 4fc2 e73d 8d7a ddbd 4d0e 52bd
000003e0: d4d3 65bd 135a c63c d0f7 883c bb6c 7fbd
000003f0: 194e 72bd 0f11 0dbd 31a0 d23d b28c 41bd
0.17493123 0.004106743 -0.13426179 -0.10063265 0.39077896 -0.10248577 0.4229512 -0.15114401
-0.26204678 -0.07193729 0.17796457 -0.20691592 -0.016992817 0.16084193 -0.0646041 -0.103016436
-0.050472643 0.089029275 -0.093860656 0.11972102 -0.03332798 -0.007465685 0.40137798 -0.48697826
-0.22692731 -0.08659261 -0.32095328 -0.10748485 -0.20246354 0.04781011 -0.20903124 -0.42183772
-0.20376872 0.20602705 0.22443101 0.13388398 -0.029388297 0.34065887 -0.6597708 -0.010410191
-0.28352588 -0.22964287 -0.25490603 -0.03778601 0.46132427 -0.31479725 -0.017783638 0.033808578
-0.8518047 -0.25782198 -0.26685494 -0.78498936 -0.12921293 0.10161553 0.428721 -0.48891276
0.055568468 0.15919527 -0.25139806 -0.14302418 0.31322563 -0.23540618 -0.36443657 -0.35647488
0.18456416 0.28579178 -0.36574048 -0.09826713 -0.1062619 -0.44127804 -0.27618295 -0.1595618
0.22369847 -0.23373748 -0.42156094 -0.122210585 -0.63274246 -0.20620115 -0.058898374 -0.015329071
0.13073397 -0.20828894 0.13638872 -0.23834847 -0.000532602 0.40684128 -0.31259018 0.12631842
0.010866674 -0.20181403 -0.27915677 0.5268659 0.34544912 -0.47575158 0.21548764 0.3876301
-0.29319113 -0.11095789 -0.09066348 -0.04202213 0.14901003 -0.67998654 0.22545284 0.041544076
-0.69846565 0.049303804 -0.006020052 -0.15150845 0.012036938 -0.06311757 -0.599867 -0.101595245
0.02116877 -0.40739974 -0.053638037 -0.0741506 -0.25931802 -0.4463579 -0.4680409 -0.2557039
-0.47327244 -0.11416008 -0.06936087 -0.26671597 -0.21550599 0.11072661 0.18370767 -0.28088915
-0.4242528 -0.15003915 -0.14152142 -0.10837414 -0.0003759341 -0.15672697 -0.21647206 -0.22473614
0.019605827 -0.2669317 -0.35124022 -0.13766445 -0.36139563 -0.49482262 -0.35152417 0.00046001255
-0.043095637 0.05828434 0.19821155 -0.033518814 -0.0076804217 -0.0063352953 0.06455274 -0.07733108
-0.1328625 -0.032047566 -0.15549242 0.03420592 -0.29539648 -0.1373168 0.02155998 -0.17945927
-0.07715137 -0.095503524 0.13015144 0.3831011 0.29327476 -0.12694512 -0.12550741 -0.022240574
-0.15991265 -0.16946991 -0.1642247 0.09721642 0.22377805 -0.083854735 -0.027225405 0.046536013
-0.12474341 -0.02216264 -0.105477765 -0.22860375 -0.056251142 -0.12629788 -0.12721638 -0.14631246
-0.26283428 -0.1035951 -0.10363953 -0.027592955 -0.023710683 0.19229968 0.13364327 0.022029117
-0.22418292 0.014239396 0.31948578 0.051627383 0.14056095 0.53459233 0.00058897433 0.15538824
-0.14666553 -0.06919437 -0.089890465 -0.17562862 -0.13620688 -0.13802116 -0.15774658 -0.16055071
-0.17950068 -0.083189555 0.054823816 -0.18736418 0.25815734 0.43787807 0.18765494 0.5190554
9.9375604e-05 -0.12619294 -0.07687398 -0.16891725 -0.038313795 -0.086678736 -0.2009506 -0.14584939
-0.08268789 -0.018821597 -0.031486142 0.08041549 0.18550964 0.035236478 0.04831424 -0.15036209
-0.06695751 -0.18704084 -0.07442609 -0.18389916 -0.06316543 0.13270792 0.106070764 0.23943241
0.13983345 0.41723284 0.77206737 -0.083135866 -0.057702884 0.11316358 -0.1081439 -0.05128317
-0.05611022 0.024212873 0.016719729 -0.062359553 -0.05915651 -0.034440096 0.1028446 -0.047253318

convblock2.2.weight f4 [24]
00000000: bb77 a43f 7fcf c13f 07cd ca3f a5b9 a63f
00000010: 3dce c93f 4772 a83f fce0 ae3f 6fb4 8b3f
00000020: bbe7 943f 467d 953f bba2 833f 7c03 a73f
00000030: df29 a23f 09cc 7c3f 2506 a53f 6fdc a73f
00000040: a537 c43f 6abf 963f b3b7 9b3f 9338 c53f
00000050: b022 9b3f bb18 be3f 44f4 973f 7375 943f
1.2849039 1.5141448 1.5843819 1.3025404 1.5766064 1.3159875 1.366241 1.0914439
1.1633219 1.1678855 1.0284036 1.3047938 1.2669028 0.9874883 1.28925 1.3114146
1.5329481 1.1777165 1.2165436 1.540789 1.2119961 1.4851297 1.1871419 1.1598343

convblock2.2.bias f4 [24]
00000000: 7f46 5e3e 63b8 043f 6756 edbd a375 be3e
00000010: cea7 603d 3237 d93e 6abb 243e 08d3 09bf
00000020: 1182 813e 2051 3c3d 1ed8 543e 289e 9e3e
00000030: f902 16be e801 08bb bf39 a63e cc6e 6f3e
00000040: d4cf e83e 5383 00bd 0b68 db3e 6fcb 2ebe
00000050: 6ed0 c5be 76f3 e93e bb9e 08be bc82 cdbe
0.2170658 0.5184385 -0.115887456 0.37199125 0.05484753 0.42424923 0.16087118 -0.53837633
0.25294545 0.045975804 0.20785567 0.3098004 -0.14649571 -0.002075309 0.32465932 0.2338211
0.4547106 -0.03137524 0.42852816 -0.17069791 -0.38635582 0.45693558 -0.13341801 -0.40138805

convblock2.2.running_mean f4 [24]
00000000: 7fe7 593f c157 6a40 6208 c93f 6f51 0c40
00000010: d69d 723f 3793 8b40 e2e0 e53e 7fc8 c33f
00000020: 6908 9940 cf75 3b3f 3e00 5640 2af1 6740
00000030: 8b0a 923f 8adb 4b40 cdde 6340 59a0 be3f
00000040: b5e5 7240 468e e93f c35e 4840 2c31 d63f
00000050: 5676 c13f 6a44 3440 1f07 323f e458 f53f
0.8511886 3.661606 1.5705683 2.1924703 0.9477209 4.3617206 0.44898134 1.5295562
4.7822766 0.73226637 3.3437648 3.6240945 1.1409467 3.1852746 3.5604737 1.4892684
3.7952702 1.8246543 3.1307838 1.6733756 1.5114238 2.8166757 0.69542116 1.9167752

convblock2.2.running_var f4 [24]
00000000: da02 d140 e306 2541 b390 8741 24b2 bb41
00000010: 4cc7 5241 cbbf 5841 8bfe 8d40 9910 6041
00000020: 46b7 f741 ba96 cf40 fd73 3841 7682 1041
00000030: e358 2341 0e46 f840 380e 2841 5600 9841
00000040: c57b 6d41 7f09 8641 c761 d141 5763 7c41
00000050: 5762 6741 2e26 0541 07b4 f940 2df0 b541
6.531598 10.314181 16.945654 23.461983 13.173656 13.546824 4.437322 14.004052
30.964489 6.4871492 11.528317 9.031851 10.209201 7.7585516 10.503471 19.000164
14.842717 16.754637 26.172743 15.774253 14.461509 8.321821 7.803226 22.742273

convblock3.0.weight f4 [10, 24, 1, 1]
00000000: 633b 08bf dbbc bbbf fe0b 38bf 8e43 14bf
00000010: 2178 0bbf 9ec2 63bf 0bf3 28bf deeb 423f
00000020: 2f84 83be 44fe 933c d1a3 d7be b9b2 90be
00000030: 0082 6a3f 4bd2 363f ce31 36bf 4f91 9cbe
00000040: 6cda 0dbf 6102 fdbe 5e67 37bf 5d91 28be
00000050: 886f 0e3f 1e61 40bf 3781 5b3e baa1 273f
00000060: 7143 ba3d 3592 063f f7fe 05be 6c5a d9be
00000070: 442b 4a3f 02f7 27bf 560b ed3e f069 bf3e
00000080: e739 1abf ddc1 eabd c0de b8bd 7a29 99bf
00000090: 5114 11bf 1b06 e6be cdc9 f7be 2d2d 11bf
000000a0: facc 3bbf aa62 893d 2e82 08bd 4875 fcbe
000000b0: 9a77 073f 49e1 b5be 23e1 9b3f 99c4 31be
000000c0: 32fa 06bf 72dc 1a3f 783e c63e ca6d 33bf
000000d0: c4db ebbe 092a 93bf 470e 24be 9dc4 153f
000000e0: 296e 2abf 7ddb eb3e 501f 043f 6f51 96bf
000000f0: 7318 19bf 0672 613e 34b5 29be 27b8 16be
00000100: 7d06 39bf f330 203f e93a f1be dba8 b6be
00000110: 487c 2abf 444d 8bbf 4f58 1dbd 6648 473f
00000120: 38fb 0d3e 8671 ba3d c3ab 1e3f 212c 7cbe
00000130: d28c 14be 36fb 84be 70ac 933e ef18 013f
00000140: c121 adbe 1a7c a83f 387e 593e b5b1 34bf
00000150: 8870 133e e1ef 9a3d bac6 803f 59e1 d8be
00000160: 1dbb 32bd 47a2 9d3e 37fa 8cbe 7ead 71bd
00000170: 84ca 11be fd91 a53f f0d0 423f 6aa2 5a3f
00000180: f137 bb3f be0e 28bd 62c2 50be 52b3 8d3f
00000190: 8835 2d3f 9d54 bbbb 8057 223f e564 39bf
000001a0: 52ae ecbe f95a aabe 806c 1bbf 2dfa 0abe
000001b0: 9311 f8bb cd18 1cbf 3eb2 d13d 8c95 203f
000001c0: a977 88be deca 2b3f 3c11 febc a23f 38bf
000001d0: 4dd2 0dbf c4f9 703e e044 aabb 8caf 06bf
000001e0: fe12 3bbd d659 92be 45b4 f0bc 3267 56bd
000001f0: 3691 17be 9d4a 243e faf1 11bf f055 0e3f
00000200: 76d8 6e3f 9fcb a7be 6330 ef3e 71c3 533e
00000210: f9cd a5be 1ec3 24bf 4d0d 62bf e114 bf3f
00000220: d276 73bf ede0 143f 4481 2c3f 20bf 163f
00000230: 8b90 d33d 7804 22bf 0567 19bf 6be1 a7be
00000240: 653f 35bc 8571 15bf 67e5 dd3c 3731 293f
00000250: e198 acbe cf95 39bf ee36 55bb bc5e e53e
00000260: 5fe4 6d3e 06af 4bbe 6c1c 22bf 4f46 bd3e
00000270: f8f4 473f 73b4 09bf 4cae 5fbe 26a5 893e
00000280: 77e2 a03f 9374 3c3f 577c 403f c263 a63e
00000290: 559c eabe bbb6 d5bd 9765 e4bd 5760 513f
000002a0: a644 413d 97c4 1abf 538f e43f ab57 85bd
000002b0: d2c9 e13f b23d 063f 1680 b1be 1244 7bbe
000002c0: 66ae d4be f62d 0fbe b592 05bf 63eb 833d
000002d0: 2de8 f0bc 4254 dabe 441c 83be 6ff7 ae3e
000002e0: 727d f1bd 8820 4f3f f43a ddbd dd5c d53d
000002f0: 24b1 a4be f8ee bf3e 21b0 79be 6c64 2d3c
00000300: 5714 503f ed31 46bf a124 3f3f 3c59 f1be
00000310: 99f4 a8be 368f ddbe 2221 4a3d 5d3e 2e3f
00000320: 2cc1 2c3e 17e8 61bd c5cc 843e 0b6a 54bd
00000330: a573 d43d 86c7 eb3d 2399 d9bd 6c1b 8dbd
00000340: 2e5a 39be 329c 51be 0b28 06bf 5e23 0140
00000350: 56c2 633f 4b20 e0bd ac87 e3be ed8c f8be
00000360: 6539 b2bd 466a 99be 30cf 40be 8b00 13be
00000370: 66d9 f9be e4e6 a9be 27dc b03f 32ae 5cbe
00000380: 4190 03bf 0684 49bd 2830 e9be 8570 10be
00000390: 0409 913f 2aea 9a3e e924 00be 45dc 9fbe
000003a0: da86 293f 3e32 72be 01f2 49bf ab41 74be
000003b0: cd56 813f 2799 983d 94a7 b73e 9332 e4be
-0.53215617 -1.4667009 -0.718933 -0.5791558 -0.5448018 -0.8896884 -0.65995854 0.76141155
-0.25686786 0.01806558 -0.4211717 -0.28261355 0.91604614 0.7141463 -0.71169746 -0.30579612
-0.5541141 -0.49415877 -0.716421 -0.16461702 0.55638933 -0.7514819 0.2143601 0.6548115
0.09094895 0.52566844 -0.13085543 -0.424518 0.7897227 -0.6561128 0.4629771 0.3738551
-0.602446 -0.11462758 -0.09026861 -1.1965783 -0.56671625 -0.44926533 -0.4839615 -0.5670956
-0.73359644 0.06708272 -0.033327274 -0.49308228 0.5291687 -0.3552344 1.2178081 -0.17360152
-0.5272552 0.6049262 0.38719535 -0.700894 -0.46066105 -1.1497203 -0.16021071 0.58503133
-0.6657434 0.46065894 0.5161028 -1.1743602 -0.5980293 0.22016153 -0.1657303 -0.14718686
-0.72275525 0.6257469 -0.47115257 -0.35675701 -0.6659589 -1.0882955 -0.038414296 0.77844846
0.13865364 0.09103684 0.6198084 -0.24626209 -0.14506844 -0.2597291 0.28842497 0.5042867
-0.33814815 1.3162873 0.21239555 -0.7058366 0.14398396 0.075652845 1.0060647 -0.42359427
-0.043635476 0.3078787 -0.2753465 -0.059003346 -0.1423741 1.2935177 0.76100063 0.85404074
1.4626447 -0.041029684 -0.20386651 1.1070349 0.6765981 -0.005716874 0.63414764 -0.7241958
-0.46226746 -0.33272532 -0.6071243 -0.13571997 -0.0075704544 -0.60975343 0.10239075 0.6272819
-0.26653793 0.67106426 -0.031014077 -0.71972096 -0.5539902 0.23532778 -0.005196199 -0.52611613
-0.04567241 -0.28584164 -0.029382834 -0.05234451 -0.14801487 0.16044088 -0.5700985 0.5559988
0.93299043 -0.32772538 0.46716604 0.20680024 -0.32383707 -0.64360225 -0.88301545 1.4928247
-0.9510318 0.5815571 0.67384744 0.58885384 0.10330304 -0.6328807 -0.5992282 -0.32789168
-0.011062478 -0.5837634 0.027086927 0.6609072 -0.33710387 -0.72494215 -0.0032533961 0.4479884
0.23231648 -0.19890985 -0.6332462 0.36967704 0.7810817 -0.5379097 -0.21843833 0.2688381
1.2569112 0.7361538 0.7518973 0.32497984 -0.45822397 -0.10435244 -0.11152189 0.8178763
0.04718461 -0.6045622 1.7856239 -0.06510862 1.7639716 0.5243789 -0.34668034 -0.24537686
-0.41539305 -0.13982376 -0.5217698 0.06441381 -0.029407585 -0.4264241 -0.25607502 0.34173152
-0.11791505 0.80909014 -0.1080226 0.10418103 -0.32166398 0.37487006 -0.24383594 0.0105830245
0.81281036 -0.7741993 0.74665266 -0.47138393 -0.32999113 -0.43273324 0.049348004 0.6806391
0.16870564 -0.05515298 0.25937477 -0.051858943 0.1037362 0.115126655 -0.10624912 -0.06889996
-0.18100807 -0.2046974 -0.5240485 2.0177836 0.8896841 -0.109436594 -0.44439447 -0.48545018
-0.087023534 -0.29963893 -0.18829036 -0.14355676 -0.48798674 -0.33183968 1.3817185 -0.21550825
-0.5139199 -0.049198173 -0.45544553 -0.14105423 1.1330876 0.30256778 -0.1251408 -0.3122274
0.6622139 -0.23651978 -0.78884894 -0.23853175 1.0104614 0.074510865 0.3587004 -0.44569835

convblock4.0.weight f4 [14, 10, 3, 3]
00000000: 2243 a73e 82ae a23e eaa3 ed3e e0e5 68be
00000010: 7e22 793e 699e 7e3e bccc 69be 5ece 25be
00000020: ed02 41bd 49f0 173f 9134 c03d 26d1 09be
00000030: f137 443e 0ae8 b5be b07f b6be e756 27be
00000040: 9377 cabe fc49 b8bd 8f29 c53e 28c4 923e
00000050: bef6 e5bc bb76 fabd dd60 903d f188 44bc
00000060: 8a8d 2bbf 5f6c 68be 269b 0a3e 2afe e4be
00000070: 2934 253d 381d 1ebd 8f54 14be 51c8 3d3e
00000080: 623c ac3e 1da6 c0be ed98 8fbe a17d 92bc
00000090: d482 003f e42b 03bf e83c dfbe 16dd fa3e
000000a0: 1a79 b4be 4fad 39bf b1bc 803f 4e89 17bd
000000b0: 4df9 02bf fa2b 5d3f 10f7 e33d f599 b1bd
000000c0: b24a 013f e028 cabe ba20 dcbe e856 5a3f
000000d0: ba7a 32bd 3534 41be eb57 083f cb42 a1be
000000e0: 8247 21bf 0fb0 a63e b5e8 97be 2ffc 88be
000000f0: a43d 303f de84 013e dc98 2fbe 5503 6ebe
00000100: 883f 17bf 9c9f 0abf 2a4f ad3e 89cd 09bf
00000110: 93d4 bbbe bace 573f 14fe 6b3d 3f79 8b3e
00000120: 17c5 e6be e25a a4be 56d0 143e a2f2 58be
00000130: 0b1d 87be eac1 06be fede f53d 1fd2 94be
00000140: 739b 89bd a74c 5ebd 279a 253e 5872 bb3c
00000150: b425 8bbe 7d9e 263e 13f4 a23e 92c9 f3bd
00000160: 1a0e 64be 9caf 06be b9c8 e93e 8324 4a3f
00000170: 3a8d 973e f868 bd3d a15a a23e 6e02 723e
00000180: dfb6 763c da3a 38be 259f 6ebf 5a3b e43e
00000190: faf8 ff3d 2882 cdbe 0d67 353f 2a4c 3e3e
000001a0: b033 233e 9846 2a3f f8ab 503e 8d9e 95bc
000001b0: d917 803e 88b8 c23e fc47 2ebe 71f4 013f
000001c0: 8a62 033f e863 9e3d e9ae 993e 0423 a43d
000001d0: 7156 24bd 06e1 86be b6e4 2b3d 16e0 febe
000001e0: 2d90 9c3c 6ba7 10bd 012f 52bf 6c94 193f
000001f0: 0fa1 dabd 6200 9fbe 50a5 d93e 5063 9bbe
00000200: 8a8b debe 85d6 893e 864d aebc c4b9 e1be
00000210: 0117 c43d daa1 3cbc 9672 35be 71c3 9dbe
00000220: 4aed 9dbc 5418 663f e6fc 03bf c8f2 f33e
00000230: 71a5 2f3f 2a70 85bf 2bb6 1bbe b163 1cbf
00000240: 9ec3 b33e 7964 153e 2eab b9be f172 b0bd
00000250: 281a c5bd 7534 9abe 74fe 9cbe 6b6c 0c3e
00000260: 4886 a13c 04d0 c0be adc2 6bbe 2da3 f3be
00000270: bdcd 69be 583c 8abe 44d5 06bf dddc de3e
00000280: ccd4 a33d 73ba 3bbf 3588 4abf 1b70 d03e
00000290: 2d43 d63e c938 27bf e5b9 003f 474b 063f
000002a0: 1683 70bf 4477 04bf 05f3 70bf fa94 eb3e
000002b0: e5e4 813e d1d9 1cbf c01c edbc fa95 89be
000002c0: 6092 eabe f7c3 e8bd e3a6 49be 27ae 88be
000002d0: d0ed a33c bdaf 3b3e ae6b 163f 349f d03e
000002e0: 2ad3 013e 501c 723e 0376 9cbe 8abc e0be
000002f0: c2f9 acbd 7636 23bf a8a6 883e dd2a b33e
00000300: 0b04 be3e 6914 dc3e 5198 833e 7897 59bd
00000310: 3e2c 9abe 55e7 8dbd 7b55 38bf 9ee4 3bbf
00000320: 5121 26bf d3bd a73e 85a9 5a3e 4e72 a13e
00000330: d686 5c3f 8c3c fb3d 4a0f 033f c6de 39be
00000340: d56d e6bd 639d 86be 778e 103e fe19 283e
00000350: 81ce 7b3e 6b6f 99be 3d29 03be e507 183f
00000360: ad35 473c c872 e33e 3cf0 1d3f 7473 02bf
00000370: f763 32be a29c 38be e195 e8be c1c2 ffbd
00000380: a9cc 27bf ccf3 6cbe 189a 14be 04e4 d0be
00000390: 8eb7 52be bbdf 67be 9192 c3be 86c5 383f
000003a0: 4624 c33e e8d5 d7be ec82 80bc 44c4 3bbe
000003b0: 8bb9 0fbe 3a2d c53d 2714 00be 63e9 45be
000003c0: fa77 213e ef11 d53e 2e24 dabd f99b 903e
000003d0: 9d16 e83b a2c0 bbbe a6a7 2dbe 212e 793e
000003e0: b650 f23c 154d c23e 4277 243e 1f6b 93be
000003f0: 467d 88be 45c4 c4be 87c3 fdbd 49a7 0fbe
0.32668406 0.31773764 0.4641412 -0.2274394 0.24329564 0.24865116 -0.22832006 -0.16192004
-0.04712193 0.5935102 0.09385026 -0.1345869 0.19161965 -0.35528594 -0.35644293 -0.16341744
-0.39544353 -0.089984864 0.3850827 0.2866528 -0.028071757 -0.12229677 0.07049725 -0.01199554
-0.67012846 -0.2269759 0.13535747 -0.44725162 0.040332947 -0.038602084 -0.14485382 0.18533446
0.33639818 -0.37626734 -0.2804636 -0.01788217 0.5019963 -0.51238847 -0.43601155 0.489968
-0.35248643 -0.7253007 1.0057584 -0.03699618 -0.5116165 0.8639523 0.11131108 -0.08671943
0.505046 -0.3948431 -0.42993718 0.8528886 -0.043574072 -0.18867572 0.5325915 -0.31496271
-0.6299974 0.32556197 -0.2966973 -0.267549 0.68844056 0.12648341 -0.17148155 -0.23243459
-0.59081316 -0.54149795 0.3384946 -0.53829247 -0.3668562 0.84299815 0.057615355 0.2724094
-0.45072243 -0.32100588 0.14532599 -0.21186307 -0.26389346 -0.1315991 0.12005423 -0.2906656
-0.06719103 -0.05427232 0.16172086 0.022881672 -0.27177203 0.16271396 0.3182684 -0.11903681
-0.22271004 -0.13152927 0.45660952 0.7896196 0.29599935 0.09248537 0.3170977 0.2363374
0.015058248 -0.179912 -0.93211585 0.44576532 0.124986604 -0.40138364 0.7086037 0.18583742
0.15937686 0.6651397 0.20378101 -0.01826408 0.25018194 0.3803141 -0.17019647 0.50763613
0.51322234 0.07733899 0.30016258 0.08014491 -0.0401215 -0.26343554 0.041966163 -0.4978034
0.019111717 -0.035315912 -0.8210297 0.599921 -0.10675251 -0.3105498 0.42508936 -0.30349207
-0.43465835 0.26921478 -0.0212772 -0.4408704 0.095747 -0.011513198 -0.17719492 -0.30813172
-0.019278187 0.8988087 -0.5155777 0.47646165 0.6861182 -1.0424855 -0.1520621 -0.61089617
0.35110182 0.14589109 -0.36263412 -0.08615673 -0.096241295 -0.30118147 -0.30662882 0.13713233
0.01971735 -0.37658703 -0.23023482 -0.4758543 -0.22832389 -0.26999164 -0.5266917 0.4352788
0.07999572 -0.73331374 -0.79114085 0.4071053 0.41848126 -0.6532102 0.5028365 0.52458614
-0.9395002 -0.51744485 -0.9412082 0.46012098 0.25369945 -0.6126986 -0.028944373 -0.26872236
-0.458148 -0.11365502 -0.19692568 -0.26695368 0.020010859 0.18328758 0.58758056 0.40746462
0.12678209 0.23643613 -0.30558786 -0.43893844 -0.08446075 -0.63754976 0.2668965 0.3499364
0.3711246 0.42984322 0.25702146 -0.053122967 -0.3011188 -0.06928889 -0.7200543 -0.7339572
-0.64894587 0.32762012 0.21353729 0.3153252 0.86143243 0.12267408 0.51195204 -0.18151388
-0.112514175 -0.26291952 0.14116846 0.16416165 0.24590494 -0.29967818 -0.128087 0.59387046
0.012158793 0.4442351 0.61694694 -0.5095742 -0.17420946 -0.180285 -0.4542685 -0.12488318
-0.6554666 -0.23139876 -0.14511907 -0.40798962 -0.20577833 -0.2264394 -0.3819776 0.72176397
0.38113612 -0.42155385 -0.015687428 -0.18336588 -0.14035623 0.09627767 -0.12507688 -0.19327311
0.15768424 0.41615245 -0.10651432 0.28243998 0.007082774 -0.36670405 -0.16958484 0.24334003
0.029579502 0.37949434 0.16061118 -0.28792664 -0.26658076 -0.38430992 -0.123908095 -0.14028658

convblock4.2.weight f4 [14]
00000000: 1648 0340 552d e83f 2823 b13f 95d9 ed3f
00000010: 7a44 0940 6805 b03f 51de d43f 9ad8 d63f
00000020: ab82 ed3f 146e b03f e321 e43f e40a cd3f
00000030: acdc c83f ea0f f53f
2.0512748 1.8138834 1.3838854 1.8582026 2.1448045 1.375165 1.6630346 1.6784852
1.8555502 1.3783593 1.7822841 1.6018949 1.5692344 1.9145482

convblock4.2.bias f4 [14]
00000000: 8bc1 d53e 5762 20be 42f0 24be d3d6 923e
00000010: 82f6 163f 2bd7 6dbe 61a2 e7be 340b c2bd
00000020: 7f40 75be c796 86bf c256 07bf 002d a6bd
00000030: cebc d43e df13 24be
0.41749224 -0.15662514 -0.16107276 0.28679523 0.5896989 -0.23226611 -0.45241073 -0.09474793
-0.23950385 -1.0514764 -0.52866757 -0.08114052 0.41550297 -0.16023205

convblock4.2.running_mean f4 [14]
00000000: 9ca8 2c41 befe e840 7b5d 0941 bfd9 a640
00000010: d704 7741 e399 eb40 f2e6 7841 5ee2 f840
00000020: ffef 9b41 a52c b041 78f6 0e42 5218 7941
00000030: 80fa dd40 71b9 ec41
10.791164 7.2810965 8.585322 5.2140803 15.438682 7.362535 15.556383 7.7776327
19.492186 22.0218 35.740692 15.568438 6.9368286 29.590548

convblock4.2.running_var f4 [14]
00000000: 8fe4 fc43 1ec9 a743 a9d2 b443 12bf 3143
00000010: d065 1944 58d3 7d43 5772 0f44 762d 9943
00000020: a6fa 6444 b9f2 1f44 353a d044 8261 0a44
00000030: ac93 3543 4bfd 9f44
505.7856 335.57123 361.64578 177.74637 613.5908 253.82556 573.78656 306.35516
915.9164 639.79254 1665.819 553.52356 181.57684 1279.9154

convblock5.0.weight f4 [16, 14, 3, 3]
00000000: d7b9 07bf 2f03 cf3c 4a97 79be 780f b7be
00000010: ea1e db3d 688f 94be 0e79 16bf 471e aabd
00000020: 3a26 e2be 8ac5 84be afad 1e3d 54a8 3a3e
00000030: e01d 99bc ffe8 a63e 6108 46bd ab91 08be
00000040: b756 713e 8490 5a3e d58b 04bf a8b3 2ebe
00000050: 314e 2bbe 0291 a7bd facc c7bc 784a 00be
00000060: 12c1 6bbe 7d9a 8d3e f3f9 113e 9571 49bb
00000070: 2ec7 3f3e dc68 13bc 3d99 8d3e f4f6 a03d
00000080: 8aee 9bbe 5675 f6bd e872 483d 4c1d 423e
00000090: 7266 e33e 4dda 7e3e 7111 aa3e 43c9 f83b
000000a0: 40a5 823e e529 68bd 4c9c 803e 5f68 cb3e
000000b0: e7bd ac3e a8a7 b93d d648 013e 5004 a8bd
000000c0: 4fa4 f7bd 6cba 953e a3c9 63bc dc1e 05be
000000d0: 4d23 3d3e 5ade 27be a467 e4be 555d e9be
000000e0: cdbd 74bf 5804 7fbc 79ff aa3e a3d3 c7bd
000000f0: 405c 73be 43ae ec3d 2b76 44be 53d9 873d
00000100: 1e63 3b3e 1851 6f3f 19c0 6e3d fdda 233c
00000110: f4a7 db3e e45d a93d 49cd acbc 60da b93d
00000120: 088b 91bc 5b53 fd3d f204 a73d 8a83 913d
00000130: aa50 013d ae08 703d 1375 aebd 9f0d 6a3e
00000140: ba43 303d 6ee5 b83c acce a1be b521 f8be
00000150: cb3d 593e 372b 8d3c 7da5 8abe 0361 b23e
00000160: c8e3 523d 2d37 b8be 31f0 08bf 6ad4 16bf
00000170: 9952 2ebf 6a8b 11be 34b6 04bf 56bd 57bf
00000180: aac1 00be b7d3 34bf 7766 88bf 4abb a3be
00000190: 8fce c23d ade8 b0be f03a bcbe 67a1 663e
000001a0: c232 00be 0577 1fbf 958f e23c aec9 3c3e
000001b0: 6e48 d1bd 1e1b 3c3e e3d6 e23e 9c3f fbbd
000001c0: 4f1d 803e 32f5 223e 641b bcbe 0df3 a5be
000001d0: b5fd 38bf 0596 37bf 72ff c5be 9e6d 28bf
000001e0: 3ce5 babe 53c7 69bd f4db 69be 5584 9bbe
000001f0: a7bb efbe 9015 bcbe b4a4 cabe f2e0 42bf
00000200: 3994 19bf 04dd 93bd 1d8d 3abe ecc5 943e
00000210: 6828 59be 3f11 c43d de07 ca3e ebc8 8bbe
00000220: c67b a53d e535 8f3e 6750 c33d c9e5 973e
00000230: 3172 6a3e 84bf 2bbe b459 dabd d305 cfbe
00000240: b547 f33e 1add 003e 434f 493f 7483 b73e
00000250: c8cb 04be c5c2 af3b 234e 2a3d 9dc1 a03c
00000260: 65a3 cf3c eb92 0fbd 5ffe fbbd eaf4 5abe
00000270: fe84 27bf 7d5a 86be 3850 1dbe 1e53 3ebf
00000280: 6e68 30be 7440 dbbd 5354 613c 2b77 6abe
00000290: 6df5 f53d 24e7 aebe 68a6 70be e864 14be
000002a0: afab 86bf 8615 32be f53f 8c3e 7f03 9a3e
000002b0: 74e7 ed3d 0246 2f3f c0d0 4ebf cfeb a2be
000002c0: 4ecd b43d 2f18 2fbf 1799 dabe dfab b4be
000002d0: e341 8f3e 649b ffbd a4cd debe dea5 e4bd
000002e0: 5bf5 61be 4441 4fbd 144a 89bc 61f4 debe
000002f0: dd82 92be 258f 813f c0c7 943e 8b77 ec3e
00000300: c05a 703e 35fc 853e aae3 e43e e6ce 8abe
00000310: a17e 7a3e 870f fd3e 75f9 293e 3c1f e13d
00000320: f136 203f 44a7 3dbe 0786 1fbe dce5 f83e
00000330: 03c2 f73e 4871 de3e e5b7 683f 1040 b4bd
00000340: b175 d93d ae5f 14be 0ce0 b83e a686 b83e
00000350: 6c10 d6bd 71e3 dfbc d68a a7be 6bca 65bf
00000360: c226 8b3f b4af 023f 4780 1e3f 7f0a 2f3f
00000370: 9335 87bd 0a4c 9a3e 1e5a efbc 8e5f 34be
00000380: 3efb 543e 00ba acbe f785 3dbd fdc5 9ebe
00000390: b4c9 333d bc16 6fbd 5684 e6bc 3276 d23e
000003a0: bf2c b3be f7b5 e03d 1ca3 af3c 3b80 813e
000003b0: 4293 f4be a758 ddbe da23 febd 679c a53d
000003c0: 1d86 373c 7ef4 cc3d 0468 003f 4167 ff3b
000003d0: 4c76 603e c869 c4be 19c5 0d3e b61e ae3d
000003e0: ac56 c4be 32a7 7bbe 1db1 46bd 948c a8bd
000003f0: f4d9 693d d4cd 99be a48c debe 4000 be3e
-0.53017944 0.025270073 -0.24374118 -0.3575399 0.10699256 -0.2901566 -0.58778465 -0.08306556
-0.4416979 -0.2593196 0.038739856 0.18228275 -0.018691003 0.32599637 -0.048347834 -0.13336818
0.23568235 0.21344191 -0.51775867 -0.17060721 -0.16729046 -0.08181955 -0.024389733 -0.12528408
-0.23022869 0.27656928 0.14255504 -0.0030737866 0.18728325 -0.008997168 0.27655974 0.078596026
-0.30455428 -0.12034099 0.04893771 0.18956488 0.44414097 0.24887963 0.33216432 0.0075923516
0.255167 -0.05668058 0.25119245 0.39728066 0.33738634 0.09065181 0.12625441 -0.082039475
-0.12091886 0.2924379 -0.013903054 -0.13000053 0.18470497 -0.16393414 -0.44610322 -0.4557902
-0.95602113 -0.0155650005 0.33398035 -0.097571634 -0.2376566 0.11556675 -0.19185703 0.06633248
0.18299529 0.93483114 0.058288667 0.010000941 0.42901576 0.08269861 -0.021093981 0.09074855
-0.01776649 0.123694144 0.0815524 0.07105167 0.031571068 0.058602028 -0.08518424 0.22856759
0.04303334 0.022570338 -0.3160299 -0.48463216 0.21214978 0.01723252 -0.27079383 0.3483964
0.05148676 -0.35979596 -0.53491503 -0.5891787 -0.68094784 -0.14213338 -0.5184052 -0.8427328
-0.12573877 -0.7063555 -1.065627 -0.31978828 0.09512054 -0.34552518 -0.36763716 0.22522508
-0.12519363 -0.62290984 0.027656356 0.1843631 -0.10218893 0.1836972 0.4430457 -0.12267992
0.2502236 0.15913847 -0.36739647 -0.32411996 -0.72262126 -0.71713287 -0.38671452 -0.6579226
-0.36503017 -0.057074856 -0.22837812 -0.303744 -0.46822855 -0.367352 -0.39578784 -0.7612449
-0.59991795 -0.0721989 -0.18217893 0.29057252 -0.2120682 0.09573602 0.39459127 -0.27301726
0.080802485 0.27970806 0.0953682 0.296675 0.22895123 -0.16772276 -0.10661641 -0.4043413
0.47515646 0.12584344 0.7863657 0.35842478 -0.12968361 0.0053637945 0.041578423 0.019623572
0.025346467 -0.03505222 -0.12304377 -0.2138249 -0.65437305 -0.26240912 -0.15362632 -0.74345577
-0.17227337 -0.10705653 0.013753015 -0.22897021 0.12009702 -0.3416072 -0.23500979 -0.14491618
-1.0521144 -0.17391023 0.27392545 0.30080792 0.11616412 0.684662 -0.8078728 -0.31820533
0.08828221 -0.68396276 -0.42694923 -0.35287377 0.27979955 -0.1248081 -0.43516266 -0.11164449
-0.22066252 -0.05059935 -0.016758956 -0.4354582 -0.28615466 1.0121809 0.29058647 0.46184954
0.23472118 0.2616898 0.44704944 -0.27110976 0.24462368 0.4942591 0.16599067 0.109922856
0.62583834 -0.18520838 -0.15578471 0.4861287 0.48390207 0.43445802 0.909056 -0.088012815
0.10618151 -0.14489624 0.36108434 0.3604023 -0.10452351 -0.027330132 -0.3272311 -0.8976199
1.0871203 0.5104935 0.61914486 0.6837539 -0.06602015 0.30136138 -0.029217776 -0.17614576
0.20798966 -0.33735657 -0.046270337 -0.31010428 0.04389353 -0.05837129 -0.028139275 0.411058
-0.34995076 0.10972207 0.021440081 0.25293145 -0.477686 -0.432317 -0.12409182 0.08086472
0.011201409 0.10007571 0.50158715 0.0077942912 0.21920127 -0.38361955 0.13844718 0.085019514
-0.38347375 -0.24575499 -0.048508752 -0.08229938 0.057092622 -0.30039847 -0.43466675 0.37109566

convblock5.2.weight f4 [16]
00000000: 5304 1b40 bc4d a43f ea21 aa3f d5e9 d83f
00000010: f233 e63f a44f b63f c576 ad3f 399d c03f
00000020: 142d bc3f 2d5b 983f 1d86 0340 424f e93f
00000030: 8256 ae3f 720b ea3f 8b30 f33f 3e73 d43f
2.422139 1.2836223 1.32916 1.694636 1.7984602 1.4243054 1.355187 1.504798
1.4701257 1.1902825 2.0550606 1.8227313 1.362015 1.8284743 1.8999189 1.6597669

convblock5.2.bias f4 [16]
00000000: ad99 f53f 3b5a 0b3e 7a81 af3d 5c52 303f
00000010: 1c2d 953e b75e 0dbd 1ec8 48bf 0a8e 323f
00000020: 594e f03e f811 8c3e 9fc9 9c3f 7b46 023f
00000030: 67bb 17be 952e 2f3f 43a2 5e3e a236 663f
1.9187523 0.13608639 0.085696176 0.6887567 0.29135978 -0.034514155 -0.78430355 0.69747984
0.46934775 0.2735746 1.224903 0.50888795 -0.14817582 0.68430454 0.21741585 0.89927113

convblock5.2.running_mean f4 [16]
00000000: 87cb d040 5245 5040 ef24 4040 5031 8c40
00000010: 97ad 8d40 e039 6440 ef28 8d40 1652 7c40
00000020: acdf 9940 1ecc 3e40 4ad9 b440 4c95 5e40
00000030: 5e78 6f40 e186 7f40 fecf b340 0147 9340
6.5248446 3.254231 3.0022542 4.3810196 4.42744 3.5660324 4.411247 3.9425101
4.8085537 2.9812083 5.6515245 3.4778624 3.7417216 3.9926074 5.6191397 4.6024175

convblock5.2.running_var f4 [16]
00000000: 05ca 8542 cc4d f341 9a2b e841 6a1e 0142
00000010: 4df6 1342 040b 1c42 ee43 6042 8c8a 1342
00000020: 2c42 2d42 28ee ec41 17db 2b42 cff0 4442
00000030: 6007 1842 4170 0b42 1a25 7842 87e0 3542
66.89457 30.412987 29.02129 32.2797 36.99053 39.010757 56.066338 36.8853
43.31462 29.616287 42.963955 49.235165 38.007202 34.859623 62.036232 45.469265

convblock6.0.weight f4 [16, 16, 3, 3]
00000000: 3370 1f3e dfed 98be 9c9a 6ebf 5aeb 47be
00000010: 4ad4 58bd 9f36 a9be 4a72 babe f1cd e5bd
00000020: 7c70 64be c773 a8be 8531 913e 3d65 c53e
00000030: ab6c 9bbe 72ba 743d 515e 64bd baac f0be
00000040: f0b4 07bf b36e 31bf 24a1 343d 0141 a83d
00000050: ee75 153e b422 9c3e efcb 7a3e c977 d13d
00000060: 5bb5 a5be 04c3 babe 3cb1 22bf d0e4 bcbe
00000070: 6cdb 3bbe 4e61 d9be 2e69 433d 5546 a9bd
00000080: 1d68 59be 4154 0c3f 0e62 9e3e 2b06 863e
00000090: e87d 1bbf 74b5 d9be 6d01 78bd 98b4 a83e
000000a0: 3594 543e 5b97 d23d cfd7 f0bc f5ff 93be
000000b0: d16d f7be 704c 5dbc 1e51 09be 6cf3 e8bd
000000c0: 00b5 23be ac30 a4be 0ec2 82bc b21e 043e
000000d0: 4013 833d b5f9 5c3f 6e19 f4be cafe ff3d
000000e0: dd72 97bd 33c0 3cbf 05e2 07be 90cf 7fbe
000000f0: 6780 9dbe 1aac 673b ee6e 49bd f24f 89be
00000100: 2897 75be 1322 443d a3bf 98be eba3 80be
00000110: 5252 7ebe 43b5 1ebe 83da 9dbc 32a0 69be
00000120: 0af4 1fbe cd20 65bc 2a17 3c3e 9f0f 1e3d
00000130: 2abb 3bbd 5a6b 8cbd 89aa 443f 42b5 063f
00000140: f28a 88bd 979b eebe edcb 46be 44cd d93e
00000150: fb69 c1be 03bc c5be 2682 b73e 8525 7f3e
00000160: 4eac 283e 234e 603f 6290 d0be 5f84 673e
00000170: b3b9 493e 5118 9dbe 9165 8e3e 1d3c 2b3e
00000180: 35cd 47bf a683 06bf f0c5 80be a6da c7be
00000190: 9d5a b9bd 00ca 14bf 5021 ab3e 5fed 853e
000001a0: 41b5 65be 2cff 163d 1f83 623e 175e b7be
000001b0: 2ba9 acbd 0066 05be c567 3bbe a07a b33e
000001c0: 0971 4e3d d5a8 f0bd dc12 583e d45d a03d
000001d0: 5881 203f f111 0cbe b3a2 e13d 3e43 74be
000001e0: a25a c53d cb2b f43d edad cdbe 4057 82be
000001f0: 9990 58bd 06e4 563e edd2 1b3d ce3e 9ebe
00000200: 0b99 3fbf 8619 b9bd 8838 283c e125 093d
00000210: e615 5fbf 68fb fcbe 3eaf ab3e c793 65bf
00000220: 38b8 dfbe b2f3 993e 7a91 a6be d0aa c63d
00000230: 0b81 fa3e ef51 a5be e2bf 8d3e 8cb8 253f
00000240: f241 b53d b3ff dd3d 4a5b 033e 8bd4 bd3d
00000250: 6488 103e ecf9 133e 6b7e 983e 3634 ef3d
00000260: 5b96 44bd 7605 b23d cc11 fdbd e8e0 98be
00000270: b538 fe3d 23a5 a93d fdee 8dbe 21ae ae3d
00000280: 5424 00be da53 bdbe be6c 09bf 3f86 00bf
00000290: 2347 16bf 8e6d d5bd 2878 babd 7129 95be
000002a0: f0cc 38bd 7e20 d9bd 0bb9 43be 93c9 1ebe
000002b0: e6cc 9b3c ece6 633d 57b5 8ebe 5218 2e3d
000002c0: 475e 7c3e 4353 f0be c47b cabd 2a00 833e
000002d0: 1d2d 1c3f e19b 5d3e 93bd 6bbc b0d7 143f
000002e0: 2638 c1bc 8407 a7be ca09 433f 5fbc ba3e
000002f0: 4d38 a33d 2b2b a73e 76bc c63e ecee d23e
00000300: c40d b6ba c538 153e 0d96 03bd f596 67be
00000310: d6d4 55be 8864 f2be e56f b1bd 9f46 23be
00000320: bcf7 edbe 82c1 aebe 580a 9abe c7e2 ebbe
00000330: 073a d9be 0056 f5be 9963 47bf 5283 87bd
00000340: 2e9b 7bbd 7deb da3d 9e6a 8dbd 222a fdbd
00000350: f7d2 513e 967e 59bd fe8a a2bd 423f 753d
00000360: d9b7 f0bd dffc 8f3d 8193 293d 028f 9ebe
00000370: 8721 a43c 27f0 063d 6b1e a2be 3ff2 0d3c
00000380: 3568 8f3e 704c dbbe 6dfa 7ebe 4574 4abe
00000390: 8eee 97be 0b03 abbe e24f 8ebe 56e1 b7be
000003a0: 2960 f2be 7a55 26bf 51fc 06bd 3d0e 14be
000003b0: 08fd 3cbd 839b 5d3d d2ac e6bd af78 c6bd
000003c0: dfea 8f3e acbf 823d 335e 153e abd5 893d
000003d0: 776e 023e 7b7e 343e 7614 d0bd 9a4a 813d
000003e0: 86b9 96bd ac7b 87be f32e a0be 10b8 f6be
000003f0: 26e1 a8bc 197b 943d b448 9b3d 09c3 c6be
0.15570144 -0.2986898 -0.93204665 -0.19523373 -0.05293683 -0.33049485 -0.3641532 -0.11220921
-0.22308534 -0.3290083 0.28358093 0.385538 -0.30356345 0.05974812 -0.05575401 -0.4700678
-0.53010464 -0.6930954 0.04409899 0.082155235 0.14595768 0.30495226 0.24491857 0.10227925
-0.32364926 -0.3647691 -0.6355169 -0.3689332 -0.18345422 -0.4245705 0.04770773 -0.08265368
-0.21231122 0.5481606 0.30934185 0.2617658 -0.6073899 -0.4252125 -0.060548235 0.32950282
0.20759661 0.10282775 -0.02939978 -0.28906217 -0.4832597 -0.013506994 -0.1340985 -0.11374554
-0.15987015 -0.32068384 -0.015961673 0.12902334 0.06400156 0.8631852 -0.4767565 0.12499769
-0.07394955 -0.7373077 -0.13269813 -0.24981523 -0.30762026 0.0035350383 -0.049178056 -0.26818806
-0.23983443 0.04788406 -0.29833707 -0.2512506 -0.2483609 -0.15498833 -0.019269234 -0.22815016
-0.15620437 -0.013984871 0.18368211 0.038589116 -0.04583279 -0.06856413 0.76822716 0.5262033
-0.06667127 -0.4660308 -0.19413729 0.42539418 -0.3777617 -0.38620004 0.35841483 0.24916656
0.16471979 0.8761923 -0.40735155 0.2260909 0.19699745 -0.30682614 0.27811864 0.1672215
-0.78047496 -0.5254463 -0.25151014 -0.39034003 -0.09050486 -0.5812073 0.33423853 0.26157662
-0.22432424 0.036864445 0.22120331 -0.35813972 -0.08430704 -0.13027191 -0.18301304 0.35054493
0.050400767 -0.11750952 0.21100944 0.07830396 0.6269736 -0.13678719 0.110173605 -0.23853776
0.096364275 0.11922415 -0.40171757 -0.2545719 -0.052872274 0.20985422 0.03804295 -0.3090729
-0.748429 -0.09038071 0.010267384 0.03348339 -0.8714279 -0.49410558 0.33532137 -0.89678615
-0.43695235 0.30068737 -0.32532865 0.09700549 0.48926577 -0.32289073 0.27685457 0.6473472
0.08850469 0.108397864 0.12827793 0.09269055 0.14114529 0.14450806 0.2978395 0.1167988
-0.047994953 0.08692448 -0.1235691 -0.2985909 0.1241316 0.082834505 -0.27721396 0.08529306
-0.12513858 -0.36978036 -0.5368155 -0.50204843 -0.58702296 -0.104212865 -0.09104949 -0.2913318
-0.04511732 -0.106019005 -0.19113557 -0.15506582 0.019018602 0.055640146 -0.27872726 0.042503662
0.24645339 -0.46938524 -0.09886888 0.25586063 0.6100634 0.21641494 -0.01438846 0.58141613
-0.023586344 -0.3262292 0.7618681 0.3647184 0.07969723 0.32650122 0.3881566 0.41197908
-0.00138896 0.14572437 -0.03212552 -0.2261618 -0.20881972 -0.47342324 -0.0866392 -0.15944909
-0.4647807 -0.3413201 -0.30086017 -0.46071455 -0.42427084 -0.47917175 -0.7788635 -0.06616844
-0.061427288 0.10689447 -0.06905101 -0.12361552 0.20490633 -0.053099237 -0.07936667 0.05987478
-0.11753816 0.07030653 0.041400436 -0.3096848 0.020035518 0.03294387 -0.31663832 0.008663713
0.2800919 -0.42831755 -0.24900217 -0.19770916 -0.2967419 -0.3340076 -0.2779532 -0.35914105
-0.4733899 -0.64974177 -0.03295547 -0.14458556 -0.046139747 0.054103386 -0.112634316 -0.09690987
0.2810888 0.06384215 0.14586715 0.06730207 0.12737451 0.17626373 -0.101601526 0.06313057
-0.073596045 -0.26461542 -0.3128582 -0.48187304 -0.020615172 0.072500415 0.075822264 -0.38820675

convblock6.2.weight f4 [16]
00000000: 5196 3040 1955 0440 e60a 6740 e724 6240
00000010: 4348 4d40 fdfd 3d40 4054 6e40 90e1 5940
00000020: a520 2d40 f7d3 5840 625a 0740 2cef 3c40
00000030: fc30 5240 470d 3e40 e183 2b40 2c42 5140
2.7591746 2.067694 3.6100402 3.5335023 3.2075355 2.9686272 3.7238922 3.4043922
2.7051175 3.3879373 2.1148915 2.952098 3.2842398 2.9695604 2.6799242 3.2696638

convblock6.2.bias f4 [16]
00000000: 9be9 c8be 51a0 b2be 1d9b 663f 0377 8e3e
00000010: 599c ca3e 9f7c a53e bcb1 9e3e fce9 153e
00000020: 2c6e 01bd 42fc dc3d b8aa d8be 1f9b 91be
00000030: 575b 6a3e 2f41 e4be 9295 043c d9a4 893d
-0.39240727 -0.34887937 0.90080434 0.27825174 0.3957241 0.3232164 0.30994976 0.14640039
-0.03159921 0.10790302 -0.42317748 -0.2843866 0.22886406 -0.4458098 0.008092301 0.06720895

convblock6.2.running_mean f4 [16]
00000000: 1e31 9e3f 1ac9 a940 f689 903f c861 6c3f
00000010: cb8d bf3f 8d47 5e3f cfb9 ce3f 3f09 943f
00000020: 687f 203f a8a6 0c40 b8b3 ee3f af17 373f
00000030: 7eee 373f e37e 053f 16ce 3740 cd49 db3f
1.2358739 5.3057985 1.1292102 0.923367 1.4965147 0.8682793 1.6150454 1.1565322
0.62694407 2.197672 1.8648596 0.71520513 0.71848285 0.5214674 2.8719535 1.7131897

convblock6.2.running_var f4 [16]
00000000: af71 2341 efd5 0042 7520 5641 050e 1b41
00000010: 1552 5841 8408 0341 653a a041 65f0 3241
00000020: 4174 9a40 7ed5 ca41 e45b 3441 c7a4 c040
00000030: c5b0 d540 68d1 6f40 24b4 ae41 5b13 8141
10.215255 32.20892 13.382924 9.690923 13.52004 8.189579 20.028513 11.18369
4.826691 25.354244 11.272434 6.0201144 6.6778283 3.7471561 21.83796 16.13445

convblock8.0.weight f4 [10, 16, 1, 1]
00000000: 8734 eb3f b527 92be 6718 b3bf c7cf 6dbf
00000010: f33a 413e afd4 54bf ec03 9ebf be12 7bbf
00000020: 9189 a5be afc4 e63f ee33 273e fdd4 96be
00000030: fc86 6bbf dba9 63bf e3da 983e 7981 af3f
00000040: f15e 243f f907 cb3f fdc5 55bf 5531 8f3d
00000050: f8e3 31bf 98d7 bbbe e7b6 86bf 52dd 7ebf
00000060: 7724 54be d5a3 80bf 84f3 f23f 46c6 c83f
00000070: 5e44 033e b584 cc3f 7c05 53bf 5402 b1bf
00000080: f95e 74bf a941 6ebf a16e 983f 1447 79bf
00000090: 55e3 b93e f084 20bf fce1 f2be daac 9abe
000000a0: c237 0340 f1c6 abbe 88b6 05bf 9fce f53f
000000b0: d1ac 1d3f a957 b7bf 9f74 d03d ba72 00bf
000000c0: d50e 113f ecac 16bf 4aad 90be c2ee 0140
000000d0: eff1 a23f 6825 93bf 7e72 9ebe db91 aebd
000000e0: 11f7 eabe 15d4 01bf 092f d9be 5450 a0be
000000f0: df57 2040 9aea 0cbf 298a 27bf f37d 40bf
00000100: 9354 44bf 0410 4dbe ca03 8a3e d013 3cbe
00000110: 46d1 8fbf d1dd ca3f 090b 77bf 0653 ff3f
00000120: bd7b 223f 43af d6bf a065 243f 5fa4 52bf
00000130: 78c4 62bf ec8b e43e bc0e 133f e79c f33f
00000140: 5493 4e3f 1ce8 f5be 6820 3bbf 622f ef3f
00000150: bc92 99bf 3c0a 4dbe 4eab 0e40 f9f7 c43e
00000160: 33be 28bf a6fc 91be 514e 8cbf c0fc f83d
00000170: e199 02bf 7bb3 82bf 7a03 bc3e 99a3 cdbe
00000180: b8c4 41be 06a1 0c3f 8724 78bf e87b 99bf
00000190: 7ff5 bcbf 39f6 41bf 6778 1640 eb67 dfbe
000001a0: a6aa 91be 111a 7d3f cc4b a73d 7a93 de3e
000001b0: 8c2f a43e 506f 4a3f c3aa a5bf a66d bd3f
000001c0: bff7 88bf 2243 d23e 7abb 68bf 5f31 1cbf
000001d0: 5d84 cd3f a963 833f 9b09 c7be 672e dbbe
000001e0: 2f34 743f 1701 9fbf 6323 9ebd d46e 60bf
000001f0: 8648 04bf 5ff9 a63f 0b82 ed3f 41a2 b4bf
00000200: b828 6b3e 2621 d7be 2e5b 2140 f863 ae3e
00000210: 1432 0a3f 0049 9c3f 56bf 8f3f f2d6 a5bf
00000220: 58bb 32bf 31eb f53e 4acb 9c3c f903 24bf
00000230: 271d 233f bdaa 0cbf ee70 38bf b46d 8bbe
00000240: b076 86bf 9f1d 5f3f 6970 9b3f e919 643f
00000250: 86ed 1c3e eb1d 9ebe a777 03bf 3ce4 ef3f
00000260: db58 74be 058b b63f 0c2a 2ebf dbe3 21bf
00000270: 9df5 83bf 9aa5 313f 5f0b 143f 446a a0bd
1.8375405 -0.2854592 -1.3991822 -0.9289517 0.18870144 -0.8313703 -1.2344947 -0.98075473
-0.32331517 1.8028773 0.16328403 -0.29459372 -0.92002845 -0.88931054 0.29854497 1.3711387
0.6420737 1.5861808 -0.8350523 0.06991831 -0.6948848 -0.36687922 -1.0524567 -0.9955646
-0.20717035 -1.0049998 1.8980565 1.5685508 0.12819049 1.5977999 -0.82430243 -1.3828835
-0.95457417 -0.9306894 1.1908761 -0.9737408 0.36306253 -0.62702847 -0.47438037 -0.3021
2.0502782 -0.33550218 -0.52231646 1.9203681 0.6159182 -1.4323627 0.10178494 -0.5017506
0.56663257 -0.5885761 -0.2825721 2.0301976 1.2730082 -1.149579 -0.30946726 -0.085239135
-0.45891622 -0.50714236 -0.42418697 -0.31311285 2.5053632 -0.55045474 -0.6544519 -0.75192183
-0.7669155 -0.2002564 0.26956016 -0.18366933 -1.123574 1.5848943 -0.96501213 1.9947212
0.6347006 -1.6772236 0.6421757 -0.8228206 -0.8858104 0.44638002 0.5744436 1.9032258
0.80693555 -0.48028648 -0.73096323 1.8686335 -1.1997905 -0.20023435 2.2292056 0.38470438
-0.6591522 -0.28513068 -1.09614 0.12157583 -0.5101605 -1.0211023 0.36721402 -0.40163878
-0.18922698 0.549332 -0.96930736 -1.1990938 -1.476242 -0.7576633 2.3510988 -0.4363397
-0.28450507 0.988679 0.08168754 0.4347189 0.32067525 0.790761 -1.2942737 1.4799087
-1.0700606 0.41066843 -0.90911067 -0.61012834 1.6056019 1.0264789 -0.38874516 -0.4280884
0.95392126 -1.2422208 -0.07721593 -0.8766911 -0.5167316 1.3044852 1.8555311 -1.4112016
0.22964752 -0.42017478 2.5211902 0.34060645 0.53982663 1.2209778 1.1230266 -1.2956221
-0.69817114 0.48031 0.019139905 -0.6406856 0.6371636 -0.54948026 -0.7204732 -0.27232134
-1.050497 0.87154573 1.214368 0.89102036 0.15324983 -0.308822 -0.5135445 1.8741527
-0.2386202 1.4261175 -0.6803291 -0.63238305 -1.030933 0.6939331 0.5782985 -0.078327686
