S6/Assets/models/model_l2.pth (torch_old, 45318 bytes, 27 tensors)

convblock1.0.weight f4 [16, 1, 3, 3]
0	0xbe88cb9a	-0.26717836
1	0x3ec9044f	0.392611
2	0xbf302af1	-0.68815523
3	0x3f338d26	0.7013725
4	0x3f520df0	0.82052517
5	0xbf9a2ea6	-1.2045486
6	0x3f261973	0.6488258
7	0x3ebbf7c1	0.3671246
8	0x3d95fbdf	0.07323431
9	0xbf42382a	-0.7586695
10	0xbf86a4c1	-1.0519029
11	0xbf2d1f8e	-0.67626274
12	0x3f32ac8f	0.69794554
13	0xbf040940	-0.51576614
14	0xbf8d41e9	-1.1035739
15	0x3eece218	0.46266246
16	0x3ef8811f	0.48536012
17	0xbf067a35	-0.52530223
18	0xbe6c8ab2	-0.23099783
19	0x3e9a0b6c	0.3008684
20	0xbf485421	-0.7825337
21	0x3e7a042b	0.24415652
22	0xb964c4a5	-0.0002181703
23	0xbf7cd242	-0.9875833
24	0xbf494afc	-0.7863004
25	0xbf783267	-0.9695191
26	0xbee936c5	-0.45549598
27	0x3efe0f38	0.49620986
28	0x3f1c0a3d	0.6095312
29	0x3f33ce15	0.7023633
30	0xbf14dbe2	-0.58148015
31	0xbf09ea26	-0.5387291
32	0xbe872e67	-0.2640259
33	0xbf261a00	-0.6488342
34	0xbf56aafe	-0.83854663
35	0xbf6d472e	-0.92686737
36	0x3eb56b74	0.35433543
37	0x3e8a47d5	0.27007928
38	0xbf498562	-0.7871915
39	0xbd874b7a	-0.06606193
40	0x3fc8fdc8	1.5702448
41	0x3d81ff64	0.0634754
42	0xbf9dd5a3	-1.2330822
43	0xbe546dec	-0.20745057
44	0xbe172583	-0.14760403
45	0xbf61d38d	-0.88213426
46	0x3c0c02d3	0.008545595
47	0xbd9a7a15	-0.075428165
48	0xbf16cd27	-0.5890679
49	0x3f513b95	0.8173154
50	0x3dfede25	0.124447145
51	0xbe9555af	-0.29166934
52	0x3f5b7c28	0.8573632
53	0x3f33a51a	0.701738
54	0x3e8d65b1	0.27616647
55	0x3f312329	0.69194275
56	0x3f839250	1.0279026
57	0x3f4769ea	0.7789599
58	0x3ed7e3ab	0.42165884
59	0xbd71fa98	-0.059076875
60	0xbeee28fa	-0.46515638
61	0xbf94dc91	-1.1629812
62	0xbf1fb3e5	-0.6238387
63	0xbf890871	-1.0705701
64	0xbf5b4f8a	-0.8566824
65	0xbe2ebe00	-0.17064667
66	0xbe48b992	-0.1960204
67	0x3eb0794f	0.3446755
68	0x3f3c5528	0.7356744
69	0x3d0a89ff	0.03382301
70	0x3f27463f	0.6534156
71	0x3f469ad2	0.7757999
72	0x3f7a2691	0.977151
73	0x3eaf7f1b	0.3427666
74	0x3d4831ce	0.048875622
75	0x3f34d3f4	0.70635915
76	0x3f5d5633	0.86459655
77	0xbf06a86e	-0.52600753
78	0xbdc1d161	-0.09463764
79	0xbf053d63	-0.52046794
80	0xbf74d042	-0.95630276
81	0xbd0660ae	-0.032807045
82	0x3e6f8587	0.2339078
83	0x3fb3169f	1.3991278
84	0xbed71cd4	-0.42014182
85	0x3f1fc812	0.6241466
86	0x3f6e9e3c	0.93210196
87	0xbf9e7779	-1.238021
88	0xbed3f7b1	-0.4139991
89	0x3db6c1cf	0.08923685
90	0xbe6c4cc3	-0.23076157
91	0xbf907b0b	-1.128755
92	0xbe424e23	-0.1897512
93	0xbf55423a	-0.8330418
94	0xbc3c74a2	-0.011502417
95	0x3f107ca6	0.564402
96	0x3f86f2d6	1.0542858
97	0x3f7287a1	0.94738203
98	0x3d6f6e2d	0.05845468
99	0x3f40e92c	0.7535579
100	0x3db7fa82	0.089833274
101	0xbf7a6f6d	-0.9782627
102	0x3f521acb	0.8207213
103	0xbefa2f9e	-0.48864454
104	0xbf790fa1	-0.9728947
105	0x3daa5392	0.08316721
106	0xbf505b50	-0.8138933
107	0xbe9a258c	-0.3010677
108	0x3ef3dfeb	0.47631773
109	0xbe2a5fb4	-0.1663807
110	0xbe98f0ae	-0.29871124
111	0x3e2bdcdd	0.16783471
112	0xbed96c3b	-0.42465386
113	0x3e9f5b78	0.31124473
114	0xbe613d29	-0.21995987
115	0x3eb3fd2a	0.35154086
116	0x3f43dd6b	0.7650973
117	0x3ea1204e	0.3146996
118	0xbecc442e	-0.39895767
119	0xbf68c457	-0.9092459
120	0x3f443ce9	0.7665544
121	0x3eb8b50d	0.3607563
122	0xbd602fd2	-0.054733105
123	0x3f32870e	0.6973733
124	0x3dd3af57	0.10336178
125	0x3e015cae	0.1263301
126	0xbf366b3e	-0.7125739
127	0xbf151d37	-0.58247703
128	0x3ecb1c1c	0.39669883
129	0xbf58bb61	-0.8466092
130	0xbea942cf	-0.33058783
131	0x3f225781	0.6341477
132	0xbf897970	-1.0740185
133	0xbebc1a20	-0.36738682
134	0x3f4bfd4e	0.7968339
135	0xbef2e454	-0.47439826
136	0x3d11c6e3	0.035590064
137	0x3f9b5599	1.2135497
138	0xbeefe125	-0.4685146
139	0x3eb5f8aa	0.35541278
140	0x3f42e40a	0.7612921
141	0xbf0e13ce	-0.5549897
142	0xbea2b44d	-0.31778184
143	0xbf54e385	-0.8315967

convblock1.2.weight f4 [16]
0	0x3f9f5971	1.244917
1	0x3f909771	1.1296216
2	0x3fb4a6e0	1.4113426
3	0x3f990f36	1.1957767
4	0x3f84b2e7	1.0367097
5	0x3fb61e21	1.4227945
6	0x3fa55b0c	1.291841
7	0x3fa54c83	1.2913975
8	0x3fa4aeaa	1.2865803
9	0x3fa5d7d7	1.2956494
10	0x3fa0238c	1.2510848
11	0x3fa1dd29	1.2645618
12	0x3f37bd34	0.71773076
13	0x3f8417c1	1.0319749
14	0x3f98fa35	1.1951357
15	0x3f880503	1.062653

convblock1.2.bias f4 [16]
0	0x3e30bf85	0.17260559
1	0x3e9e317d	0.30897132
2	0x3e9c798a	0.30561477
3	0x3dd3ce3e	0.10342072
4	0x3d9049f5	0.07045356
5	0x3ead4844	0.33844197
6	0x3dfbbd6f	0.12291991
7	0x3cc21c9a	0.023695279
8	0x3d358e68	0.044325262
9	0x3e538288	0.20655262
10	0xbbb8d01c	-0.005640043
11	0x3c9172a2	0.017754856
12	0x3dd05552	0.101725236
13	0x3e972d13	0.29526576
14	0x3ec804a2	0.39066035
15	0xbda40079	-0.08007903

convblock1.2.running_mean f4 [16]
0	0x3f0fbb9b	0.5614564
1	0x3f7b777e	0.98229206
2	0x3f8c800f	1.097658
3	0x3f4efe59	0.80856854
4	0x3e8b3fd7	0.27197143
5	0x3f104659	0.5635734
6	0x3f20cb70	0.6281042
7	0x3f0f2ca4	0.5592749
8	0x3f283950	0.6571245
9	0x3f447e9e	0.767557
10	0x3eebd9f2	0.46064717
11	0x3f49a186	0.7876209
12	0x3eccd8bb	0.40009102
13	0x3f0d072f	0.55089086
14	0x3f5a1831	0.85193163
15	0x3ed6765a	0.4188717

convblock1.2.running_var f4 [16]
0	0x3ff96f12	1.9487021
1	0x3efe3168	0.4964707
2	0x3ef6a753	0.48174533
3	0x3f18e8dd	0.5973032
4	0x3f0b6ba6	0.54461133
5	0x3ffa527f	1.9556426
6	0x40275b71	2.6149561
7	0x400e015d	2.2188332
8	0x402cb355	2.6984456
9	0x40636f21	3.5536578
10	0x3fd5e6cc	1.6711059
11	0x3f465d32	0.77485955
12	0x3f3e6a14	0.7438061
13	0x3fdcbc59	1.7244979
14	0x3f478534	0.77937627
15	0x3f7e2ee6	0.9929031

convblock2.0.weight f4 [24, 16, 3, 3]
0	0x3da0a0b0	0.07843149
1	0x3cc6c064	0.02426166
2	0x3d8e4841	0.06947375
3	0xbe39a6ad	-0.18129988
4	0xbdb52055	-0.088440575
5	0xbe04b014	-0.12957793
6	0xbe256bc3	-0.16154389
7	0xbe863a19	-0.262162
8	0xbe97f7d9	-0.2968128
9	0x3e8b0e72	0.27159458
10	0x3e75a752	0.23989609
11	0x3e200853	0.15628175
12	0x3e39daa3	0.1814981
13	0xbd7bf376	-0.06151148
14	0xbded8f09	-0.115995474
15	0xbda7bdc4	-0.08190492
16	0xbe26a8d0	-0.16275334
17	0xbe2bee4c	-0.16790122
18	0xbe99700f	-0.29968306
19	0xbe987b52	-0.29781586
20	0xbe53e246	-0.20691785
21	0xbe8ba35a	-0.27273065
22	0xbe8f4958	-0.27985644
23	0xbdca98c4	-0.09892419
24	0xbde021ce	-0.10943948
25	0x3e1f663d	0.15566345
26	0x3c640984	0.013918284
27	0xbe4daf22	-0.20086339
28	0xbe494229	-0.19654144
29	0xbdfe713c	-0.124239415
30	0x3ea0a146	0.31373042
31	0x3ed401ee	0.41407722
32	0x3e2cc163	0.16870646
33	0x3dfb3bcd	0.122672655
34	0x3d8bce2e	0.06826435
35	0x3d4dc8a4	0.050240174
36	0x3eda1c10	0.42599535
37	0x3def81b2	0.11694659
38	0xbd21477d	-0.039374817
39	0x3e6da30d	0.2320673
40	0x3ea942a1	0.33058646
41	0x3da76d4b	0.08175143
42	0x3e6d1dac	0.2315585
43	0x3e71fde7	0.23632012
44	0x3cff7f92	0.03118876
45	0xbd7d012e	-0.061768703
46	0x3bc571c5	0.0060255253
47	0x3e875d9c	0.26438606
48	0xbe128c19	-0.14311256
49	0xbcf9acb4	-0.03047786
50	0x3a34d674	0.0006898411
51	0xbe8ad224	-0.2711345
52	0xbe23ea8a	-0.16007438
53	0xbe69d143	-0.22833733
54	0xbe2bdf64	-0.16784436
55	0xbeabc10d	-0.33545724
56	0xbe18e83d	-0.14932342
57	0x3df2852a	0.11841805
58	0x3daf36ba	0.0855536
59	0xbd9587eb	-0.07301315
60	0xbd364be7	-0.04450598
61	0xbe6b3df3	-0.2297285
62	0xbd357bfb	-0.04430769
63	0xbe232cc4	-0.15935045
64	0x3da4576a	0.080244854
65	0x3ef9502f	0.48693988
66	0xbd8b70a3	-0.06808593
67	0xbcdb54c7	-0.026773823
68	0x3e5913ff	0.21199034
69	0xbe70670b	-0.23476808
70	0xbe3bb31e	-0.18330047
71	0xbe2b2eaa	-0.1671702
72	0xbe3206b6	-0.17385373
73	0xbea44157	-0.320811
74	0xbe72d03a	-0.23712245
75	0x3e183471	0.14863755
76	0x3e2a4954	0.16629535
77	0xbd9213d7	-0.071326904
78	0xbd2988e6	-0.041390322
79	0xbe0c1217	-0.13678776
80	0xbe4bc826	-0.1990057
81	0xbea4b734	-0.32171023
82	0xbeb9e677	-0.36308643
83	0xbdee6e8a	-0.116421774
84	0x3e03750a	0.12837616
85	0x3d1e0ba7	0.03858533
86	0xbe1732e3	-0.14765505
87	0xbc83d083	-0.016090637
88	0xbdadbc82	-0.08483221
89	0x3d87e9a8	0.06636363
90	0x3e2668a2	0.16250852
91	0x3df9225d	0.121647574
92	0x3e007cf5	0.12547667
93	0xbabe195d	-0.0014503408
94	0x3b1d1543	0.0023968972
95	0x3e3c8185	0.18408783
96	0xbe9501be	-0.29102892
97	0xbe51d4e2	-0.20491365
98	0xbc33c5ec	-0.010972481
99	0xbeafb477	-0.3431737
100	0xbebf50fc	-0.37366474
101	0xbe867877	-0.26263782
102	0xbe89a87f	-0.26886365
103	0xbe52bf8e	-0.20580885
104	0x3b34a18d	0.0027562112
105	0xbcb46035	-0.022018531
106	0xbe14eb2e	-0.14542839
107	0x3e2732b3	0.16327934
108	0x3e2bd126	0.16779003
109	0x3c8ab35c	0.016931228
110	0xbcfc9b71	-0.030835839
111	0xbd3748f4	-0.044747308
112	0xbd5de09d	-0.054169286
113	0x3d62b93b	0.05535243
114	0xbcd8e9b9	-0.026478635
115	0xbdd31b61	-0.103079565
116	0xbde5566d	-0.11198125
117	0x3e9c09cc	0.30476224
118	0x3d8db8a6	0.069199845
119	0xbd0ce2a9	-0.034395847
120	0x3bd0aa64	0.0063679684
121	0xbd87b95e	-0.06627153
122	0x3a20f813	0.00061404816
123	0xbe0a1fdd	-0.13488717
124	0xbea711a4	-0.32630646
125	0xbe694da2	-0.22783521
126	0xbe3c96a3	-0.18416838
127	0xbe395e6d	-0.18102427
128	0xbd82a4d4	-0.06379095
129	0xbe85e3ae	-0.26150268
130	0xbebb8456	-0.36624402
131	0xbe8a6e09	-0.27037075
132	0xbe2c2c1b	-0.168137
133	0xbe76b0bb	-0.24090855
134	0xbdfe42ea	-0.124151066
135	0xbdcd7f21	-0.100340135
136	0xbc91e298	-0.017808244
137	0x3dfbb966	0.12291221
138	0x3d2b15b5	0.04176875
139	0xbd091c61	-0.03347433
140	0x3d94b18a	0.072604254
141	0xbc52f99e	-0.012876896
142	0x3dc7fcab	0.097649895
143	0x3e1785c7	0.14797126
144	0x3daeeb78	0.08541006
145	0x3d93676a	0.07197459
146	0x3e56b35a	0.20966855
147	0x3b332bb9	0.0027339293
148	0xbdfed1e3	-0.124423765
149	0x3d0298d1	0.03188402
150	0xbee4be64	-0.44676507
151	0xbed2011f	-0.4101648
152	0xbe9f6a49	-0.31135777
153	0x3c738e1a	0.014865423
154	0x3cfea9dc	0.031086855
155	0xbd7f1767	-0.062278178
156	0x3dedbd7e	0.116084084
157	0x3bd5fe14	0.0065305326
158	0xbe3b805f	-0.18310688
159	0xbe5b65de	-0.21425578
160	0xbe10ed0b	-0.14152925
161	0xbe56e29f	-0.20984887
162	0xbe81b43b	-0.25332817
163	0xbd4f07b4	-0.050544456
164	0x3e31e3a4	0.17371994
165	0x3b527896	0.0032115332
166	0x3da7fc65	0.08202437
167	0x3e267cb5	0.1625851
168	0x3f00bfcb	0.5029265
169	0x3ef3e71e	0.47637266
170	0x3f3f093a	0.74623454
171	0x3e9ce303	0.30641946
172	0x3c6c625b	0.014427747
173	0xbe8396ae	-0.25700897
174	0x3e65919c	0.22418827
175	0x3ddaf340	0.106909275
176	0xbeea3c9a	-0.4574936
177	0x3f1f1a91	0.6214991
178	0x3e1d990d	0.15390415
179	0xbeb4313c	-0.35193813
180	0x3d0d023b	0.034425955
181	0xbe201f33	-0.15636902
182	0xbdb3b683	-0.08775046
183	0x3ea3ca4d	0.3199028
184	0x3dd803fc	0.10547635
185	0x3c8d6fc2	0.017265204
186	0x3eec3e0e	0.46141094
187	0x3e65f68e	0.22457334
188	0xbe3a7c1e	-0.1821141
189	0x3df6df62	0.12054326
190	0xbdd6000d	-0.104492284
191	0xbe3c60dd	-0.18396325
192	0xbde28e8e	-0.110623464
193	0xbea7baf9	-0.32759836
194	0xbe9000b2	-0.2812553
195	0xbef67112	-0.4813314
196	0xbea2b479	-0.31778315
197	0x3ccae5b9	0.024767743
198	0x3e38a415	0.18031342
199	0xbc44ca88	-0.012011178
200	0xbc0ab81d	-0.008466748
201	0x3d598999	0.05310974
202	0x3e370bc7	0.17875586
203	0xbe192502	-0.14955524
204	0x3de0df30	0.1098007
205	0x3dd7ee8c	0.10543546
206	0xbe904942	-0.2818089
207	0x3e532872	0.20620897
208	0x3d70de69	0.058805857
209	0xbe2d6849	-0.16934313
210	0xbdb3c9bd	-0.08778713
211	0x3c3b94e2	0.011449071
212	0xbe282efe	-0.16424176
213	0xbe3e0030	-0.18554759
214	0xbd629d61	-0.05532587
215	0x3e19bc02	0.15013126
216	0x3e10f683	0.14156537
217	0x3bfcfccf	0.007720567
218	0x3e49ca38	0.19706047
219	0xbd426701	-0.047461513
220	0x3d0e867a	0.034796216
221	0x3add5cb8	0.0016888594
222	0xbe4097c0	-0.18807888
223	0xbdfba25e	-0.122868285
224	0xbe7c83f4	-0.24659711
225	0x3ea19301	0.31557468
226	0x3e83e6ef	0.25762126
227	0xbe905305	-0.2818834
228	0x3d499e7d	0.04922341
229	0xbcbbb38f	-0.022912769
230	0xbef9320a	-0.4867099
231	0xbd08402b	-0.03326432
232	0xbe5ca79c	-0.21548313
233	0xbeea9ed9	-0.45824316
234	0x3dfa2789	0.12214572
235	0xbca266e1	-0.019824447
236	0xbe65dea9	-0.2244822
237	0xbe4a7ef3	-0.1977499
238	0xbd119597	-0.03554305
239	0xbe374748	-0.17898285
240	0xbe1db625	-0.15401514
241	0x3c864ce2	0.016394082
242	0x3e973305	0.29531112
243	0x3e85dee7	0.26146623
244	0x3e08a262	0.13343194
245	0x3e85b3a8	0.2611363
246	0x3d67b384	0.056567684
247	0x3de6bb57	0.11266201
248	0x3e42a7a9	0.1900927
249	0xbe812097	-0.25220177
250	0xbddd77fe	-0.10813902
251	0x3ecdf720	0.40227604
252	0xbdc7bb54	-0.09752527
253	0x38a96ef9	8.079218e-05
254	0xbe5f4977	-0.21805368
255	0xbe8cd902	-0.27509314

convblock2.2.weight f4 [24]
0	0x3f7b1c4a	0.9809004
1	0x3f940d1d	1.1566502
2	0x3f6832d3	0.9070255
3	0x3f9654ea	1.1744664
4	0x3f99dd73	1.2020706
5	0x3fa52a87	1.2903603
6	0x3f33c2aa	0.7021891
7	0x3f766b61	0.962576
8	0x3f98a6aa	1.1925862
9	0x3f989c7b	1.1922754
10	0x3fc6b021	1.55225
11	0x3f8f988a	1.1218426
12	0x3fb2ee90	1.3979053
13	0x3f92f1e9	1.1480075
14	0x3fa65789	1.2995464
15	0x3f44ea84	0.7692034
16	0x3fb705c9	1.429864
17	0x3fa1aa26	1.263005
18	0x3f64902d	0.89282495
19	0x3fb39e2d	1.4032646
20	0x3f8ebee2	1.1152003
21	0x3f52fb0a	0.82414305
22	0x3f5d294a	0.8639113
23	0x3f8cd21d	1.1001621

convblock2.2.bias f4 [24]
0	0xbe810d05	-0.25205246
1	0x3ee69a15	0.4503943
2	0xbdd4e74a	-0.103956774
3	0x3d89e0d2	0.06732334
4	0xbef3373a	-0.47503072
5	0xbe913e9e	-0.28368086
6	0x3ea2aec9	0.31773975
7	0xbe486136	-0.19568333
8	0x3f009294	0.5022366
9	0x3f02796b	0.5096652
10	0x3f800ffb	1.0004877
11	0xbedeaf0c	-0.43492925
12	0x3f31ed2c	0.6950252
13	0x3f0b82bd	0.54496366
14	0x3f32f1d7	0.6990027
15	0xbeaa97fb	-0.33319077
16	0x3e5a33b3	0.21308784
17	0x3e7d4ca7	0.24736272
18	0x3e9782df	0.29592034
19	0xbe283a4e	-0.16428491
20	0xbd130df8	-0.035901994
21	0xbd8a16c2	-0.06742622
22	0xbe684cf8	-0.22685611
23	0x3ef7f2ed	0.48427525

convblock2.2.running_mean f4 [24]
0	0x3f422bed	0.75848275
1	0x4017d34e	2.372272
2	0x3f822b86	1.0169532
3	0x4026b7c2	2.6049657
4	0x3fba19b4	1.4539094
5	0x402291e6	2.540155
6	0x3f95e1f2	1.1709578
7	0x3f132cf0	0.57490444
8	0x40380fd2	2.8759656
9	0x40215aad	2.5211594
10	0x404860cd	3.1309083
11	0x3fa04b5a	1.2522995
12	0x406136b9	3.518965
13	0x400b9fb9	2.1816237
14	0x4001c6ae	2.0277514
15	0x3e1e04fa	0.15431586
16	0x40245d8a	2.5682092
17	0x3ffb0ae1	1.9612695
18	0x400b9d76	2.1814857
19	0x3ff160a4	1.8857617
20	0x3fe7e222	1.8115885
21	0x3f4f1424	0.8089011
22	0x400a61da	2.1622224
23	0x40404dcf	3.004749

convblock2.2.running_var f4 [24]
0	0x40e1634c	7.043371
1	0x40d06a03	6.512941
2	0x40fd9aa9	7.9251294
3	0x41eebc4b	29.84194
4	0x4169179d	14.568265
5	0x41e15a09	28.168962
6	0x40160a8c	2.3443937
7	0x40876070	4.230522
8	0x40dd3bed	6.913565
9	0x40c2c164	6.0861073
10	0x410ea313	8.914813
11	0x40f83c0f	7.7573314
12	0x412f1a35	10.943898
13	0x40ae0224	5.4377613
14	0x40d24d29	6.571919
15	0x3f7d36a1	0.9891148
16	0x4205e34f	33.47198
17	0x4126b267	10.418555
18	0x40f808c3	7.7510695
19	0x41ac98ca	21.574604
20	0x41866d43	16.80335
21	0x408c00a3	4.3750777
22	0x413030f5	11.011952
23	0x40daec24	6.8413258

convblock3.0.weight f4 [10, 24, 1, 1]
0	0x3e31930e	0.17341253
1	0x3f5f1da7	0.8715462
2	0x3f17495d	0.5909632
3	0xbec7888d	-0.38971367
4	0xbdccb832	-0.0999607
5	0x3ec612e7	0.38686296
6	0xbbfd3702	-0.0077275047
7	0xbef25c36	-0.47335976
8	0x3ec61c08	0.3869326
9	0xbdd8320e	-0.10556422
10	0x3f882422	1.0636027
11	0xbe2b882f	-0.16751169
12	0x3f8188f1	1.0119916
13	0x3f184912	0.59486496
14	0x3f83066a	1.0236332
15	0xbd8980ef	-0.06714045
16	0xbceb271c	-0.028705172
17	0x3e7ea8aa	0.24869028
18	0xbe05301b	-0.13006632
19	0x3f03a208	0.51419115
20	0xbed9ed34	-0.42563784
21	0x3df2c12f	0.11853253
22	0xbca5b1fd	-0.020226473
23	0x3eef645d	0.4675626
24	0x3f08276f	0.5318517
25	0x3d87b8a5	0.06627015
26	0x3f51ab0b	0.81901616
27	0xbf0cf3a8	-0.5505929
28	0x3e4c9d4b	0.19981878
29	0xbf365996	-0.7123045
30	0xbef7b953	-0.4838358
31	0xbdd06ed2	-0.10177387
32	0xbeb3a2c0	-0.35085106
33	0xbf3d7ac3	-0.74015445
34	0xbf4e4402	-0.8057252
35	0x3f861723	1.0475811
36	0x3cc07fa6	0.023498368
37	0xbf2768c8	-0.6539426
38	0xbd23e82d	-0.040016342
39	0x3eb27872	0.34857517
40	0xbd22883a	-0.039680697
41	0xbf4d0763	-0.80089396
42	0xbf3b1fae	-0.73095214
43	0xbebf8380	-0.37405014
44	0xbe7c9cd5	-0.24669202
45	0x3f021d64	0.50826097
46	0x3ec564ca	0.38553458
47	0x3f50a1c9	0.81496865
48	0x3e8d6ff1	0.27624467
49	0xbf069a35	-0.5257905
50	0xbf0c50c0	-0.54810715
51	0xbdfd99e4	-0.12382868
52	0xbef79447	-0.48355314
53	0xbf85a2cc	-1.0440307
54	0xbc3dbdab	-0.011580865
55	0xbeb1735e	-0.3465833
56	0x3c2ebf7f	0.010665773
57	0x3dd548b0	0.10414255
58	0xbdb6a33b	-0.089178525
59	0x3fa245ce	1.2677553
60	0xbdae812c	-0.08520731
61	0x3f5d9500	0.8655548
62	0xbe53854e	-0.2065632
63	0x3f388995	0.72084934
64	0xbeb7ad49	-0.35874394
65	0x3e1706b7	0.14748655
66	0x3eff8760	0.4990797
67	0xbf2c4ed9	-0.6730781
68	0x3f8dfe04	1.1093144
69	0x3f76053b	0.9610173
70	0xbec5ea47	-0.38655302
71	0xbe3e22dc	-0.18567985
72	0xbe9b9f51	-0.30394986
73	0xbeca61bb	-0.39527687
74	0x3d8265d6	0.0636708
75	0x3f0c74a2	0.5486547
76	0x3d99f76c	0.07517895
77	0x3fb3e801	1.4055177
78	0xbe02a1ca	-0.1275703
79	0x3eaca42d	0.33719006
80	0xbe8f5021	-0.2799082
81	0xbf0a5fe0	-0.54052544
82	0xbf4273f1	-0.7595816
83	0x3f15ce86	0.58518255
84	0xbf58eb41	-0.8473397
85	0x3ea90c14	0.33017027
86	0xbf1c374b	-0.6102187
87	0x3e0504b6	0.12990078
88	0x3ef822e9	0.48464134
89	0xbef4829d	-0.477559
90	0xbefac746	-0.4898016
91	0x3f293219	0.6609207
92	0x3eee3c0a	0.4653018
93	0xbeba5871	-0.363956
94	0x3e2fc277	0.17164026
95	0xbf4a2a29	-0.7897058
96	0x3e0c63c3	0.13709931
97	0x3ea068a0	0.31329823
98	0xbe7ae966	-0.24503097
99	0xbee2ae9e	-0.44273847
100	0x3f87b776	1.0602863
101	0x3e3024fc	0.17201608
102	0xbf020b61	-0.5079861
103	0xbe975f55	-0.2956492
104	0xbe1d8cfd	-0.15385814
105	0xbe01cdbd	-0.12676139
106	0xbf796cbc	-0.9743154
107	0x3e2a86c6	0.16652974
108	0xbf213255	-0.62967426
109	0xbf0c960a	-0.5491644
110	0xbf3b9eb7	-0.73289055
111	0x3f576611	0.84140116
112	0xbf077c0c	-0.52923656
113	0x3e863024	0.26208603
114	0xbf404de7	-0.7511887
115	0xbf3caba8	-0.73699427
116	0xbed8cd6b	-0.4234422
117	0xbdcf3ac7	-0.10118633
118	0x3eac8f4b	0.33703074
119	0xbf05adb0	-0.5221815
120	0x3e6ca35d	0.23109193
121	0xbf4b81c0	-0.7949486
122	0xbdd965e5	-0.10615138
123	0x3fbde8aa	1.4836628
124	0xbe70825a	-0.23487225
125	0xbecb6653	-0.39726505
126	0x3eefc83b	0.4683245
127	0x3f170a5a	0.5900017
128	0xbf5b04f2	-0.8555442
129	0x3e8fc44f	0.2807946
130	0x3f84199b	1.0320314
131	0xbdaf7bbe	-0.08568524
132	0xbf0b7381	-0.5447312
133	0x3f063895	0.5243009
134	0x3d007563	0.03136195
135	0x3cacd9e0	0.021099985
136	0xbd633b7d	-0.055476654
137	0xbe9017c4	-0.28143132
138	0xbdc96731	-0.09834135
139	0x3f3bd5b6	0.7337297
140	0x3f243b4a	0.6415297
141	0xbdfe3694	-0.12412754
142	0xbf09e04f	-0.5385789
143	0x3e5cf0e6	0.2157627
144	0xbdb6da80	-0.08928394
145	0xbf155ad0	-0.58341694
146	0x3e481571	0.19539429
147	0xbe2ba12c	-0.16760701
148	0xbf3624da	-0.7114998
149	0x3e61ec43	0.22062783
150	0x3e9fb12f	0.31189868
151	0x3f475037	0.77856773
152	0xbe3a0846	-0.18167219
153	0x3c8ce070	0.017196864
154	0xbe3d7eeb	-0.18505447
155	0xbeb21e87	-0.34788916
156	0xbe9d191d	-0.30683222
157	0x3e55f617	0.20894657
158	0xbf19fd29	-0.60151917
159	0x3e2300f8	0.15918338
160	0xbe92a55f	-0.28641793
161	0x3fceaad3	1.6145881
162	0x3f51e337	0.8198733
163	0x3f0b9e54	0.54538465
164	0xbe846ab0	-0.25862646
165	0x3e3ab84f	0.1823437
166	0xbf164d97	-0.5871214
167	0xbf40bc0a	-0.75286925
168	0x3f737d5e	0.9511317
169	0x3f0bd95f	0.54628557
170	0x3b88a1fe	0.0041697016
171	0x3ec31a70	0.38106108
172	0x3f7e6706	0.9937595
173	0x3e7dfd75	0.24803717
174	0xbd77fca0	-0.060543656
175	0x3f42561e	0.75912654
176	0xbf0f04d3	-0.55866736
177	0xbf331c04	-0.69964623
178	0x3db7206f	0.08941733
179	0x3ee7b8e4	0.45258248
180	0xbf5039f0	-0.81338406
181	0xbe6e2a23	-0.23258261
182	0x3f81f11c	1.0151706
183	0xbd892cb3	-0.06697979
184	0xbe445ef8	-0.19176853
185	0xbe9c62b0	-0.30544043
186	0xbe2feb36	-0.1717957
187	0xbecfc534	-0.40580142
188	0xbf04b579	-0.51839405
189	0xbe6b54c9	-0.22981562
190	0xbeb5d4e7	-0.35513994
191	0x3ed94a42	0.42439467
192	0x3f5bd27a	0.85868037
193	0xbf443c2c	-0.76654315
194	0x3f3ac4a6	0.7295631
195	0x3e3ed699	0.1863655
196	0xbdb286e5	-0.08717135
197	0xbf1baf06	-0.6081394
198	0xbe256986	-0.16153535
199	0xbe5d2066	-0.2159439
200	0xbf21188a	-0.6292807
201	0xbef897e9	-0.48553398
202	0xbe9e17e2	-0.30877596
203	0xbda11a6e	-0.07866369
204	0x3f1ab7f8	0.60436964
205	0xbf073925	-0.5282157
206	0x3e64189d	0.22275014
207	0xbdaec406	-0.08533482
208	0xbeb69074	-0.35657084
209	0xbc6e4998	-0.014543913
210	0xbefe9df8	-0.49729896
211	0x3fa90f66	1.3207824
212	0x3df1c5c4	0.11805299
213	0x3f02b9a4	0.51064515
214	0x3f5b6f55	0.85716754
215	0xbd8a0183	-0.067385696
216	0xbe8fa262	-0.28053576
217	0x3f1725bf	0.5904197
218	0xbe3969d4	-0.18106776
219	0xbdb2bb24	-0.087271005
220	0x3da06e98	0.07833594
221	0x3e86e387	0.26345465
222	0xbec98d43	-0.39365587
223	0xbdb5c5d7	-0.088756256
224	0x3f88b52d	1.068029
225	0x3f7e13ae	0.9924878
226	0xbf066d99	-0.5251098
227	0x3eb34bcd	0.3501877
228	0xbecd4459	-0.40091208
229	0x3e97d5b4	0.2965523
230	0xbe73c334	-0.23804933
231	0xbdc89a7e	-0.09795092
232	0x3fe0d0f2	1.7563765
233	0x3e0af1bb	0.13568775
234	0xbcbd3db8	-0.023100719
235	0xbea92b3d	-0.330408
236	0xbe484474	-0.19557363
237	0x3e1ed2c3	0.15510087
238	0x3e1af164	0.15131146
239	0xbe36c507	-0.17848597

convblock4.0.weight f4 [14, 10, 3, 3]
0	0xbec6237e	-0.38698953
1	0x3e369f4f	0.17834209
2	0x3e500584	0.20314604
3	0xbec72eb1	-0.3890281
4	0xbeba3871	-0.36371186
5	0xbd9f3912	-0.07774557
6	0xbe62c9d2	-0.22147301
7	0xbe1cbd96	-0.15306696
8	0x3ea7b1ef	0.3275294
9	0x3e87b6c8	0.2650664
10	0x3ed1bde0	0.40965176
11	0x3e2d7a61	0.16941215
12	0xbef482e6	-0.47756118
13	0xbe3d7efc	-0.18505472
14	0xbd537501	-0.051625255
15	0xbe1b9040	-0.15191746
16	0xbe39be1d	-0.18138929
17	0xbe68a836	-0.22720417
18	0x3dcef5e7	0.10105496
19	0x3f1d8d99	0.61544186
20	0x3eb31a45	0.3498098
21	0xbf288626	-0.65829694
22	0xbeaee486	-0.34158725
23	0xbde81a40	-0.11333132
24	0xbf26b947	-0.6512646
25	0xbf0e8c2a	-0.55682623
26	0xbeebf87b	-0.46088013
27	0xbe34ba25	-0.17649134
28	0xbf1584f1	-0.5840598
29	0xbe3c5f57	-0.18395744
30	0x3e864c85	0.26230255
31	0xbcb648db	-0.022251537
32	0x3e853ff5	0.26025358
33	0x3e18605b	0.14880507
34	0x3ea39880	0.31952286
35	0xbdc96d04	-0.09835246
36	0x3f095c59	0.53656536
37	0x3f22e2df	0.6362743
38	0x3f36fde0	0.7148113
39	0x3d353ced	0.044247556
40	0x3e94c6ec	0.29058015
41	0x3ec58461	0.3857756
42	0xbe8e413d	-0.27784148
43	0x3e217f73	0.15771274
44	0x3dfd0d61	0.123560674
45	0xbeda2db5	-0.42612997
46	0xbee6f3a6	-0.45107764
47	0xbee8f6d2	-0.4550081
48	0xbe1774f6	-0.14790711
49	0xbe0594c4	-0.13045031
50	0xbe41b380	-0.1891613
51	0x3ee0c74a	0.43902045
52	0x3de6c325	0.112676896
53	0x3eb0bd81	0.3451958
54	0x3f0c8d17	0.54902786
55	0x3dd61391	0.10452951
56	0x3ebab679	0.3646734
57	0x3e84f45e	0.25967687
58	0x3e51f2f1	0.20502831
59	0x3f0e017b	0.5547101
60	0xbdcb01f5	-0.09912483
61	0x3e478354	0.19483691
62	0x3edfbc94	0.4369856
63	0xbe1f8f4e	-0.1558201
64	0xbb7cd13a	-0.0038576857
65	0xbe5c4be1	-0.2151332
66	0xbdd9d672	-0.10636605
67	0x3e112a7b	0.14176361
68	0x3d3c7fa0	0.04602015
69	0x3f30ce6e	0.69064987
70	0x3e4a4273	0.19751911
71	0x3eac199e	0.33613294
72	0x3f432805	0.7623294
73	0x3dfc096b	0.12306484
74	0xbd64be6c	-0.055845663
75	0x3e5e1c4b	0.2169048
76	0x3e26f062	0.16302636
77	0x3ccfdcdb	0.025373867
78	0x3ed3f91d	0.41400996
79	0x3e7acca4	0.24492127
80	0x3e82b9b5	0.25532308
81	0xbe54cd54	-0.20781451
82	0x3e373ad1	0.1789353
83	0x3f1378e2	0.5760633
84	0xbf1da928	-0.61586237
85	0xbf057a81	-0.5214005
86	0x3d94b4bf	0.07261037
87	0xbf924cf2	-1.1429732
88	0xbf26d168	-0.6516328
89	0xbec4719a	-0.3836792
90	0x3e95caeb	0.29256377
91	0x3e015161	0.126287
92	0x3f49d308	0.78837633
93	0xbd40daca	-0.047083654
94	0xbdce78be	-0.100816235
95	0xbd894642	-0.06702854
96	0xbf1a944e	-0.60382545
97	0xbd421a69	-0.047388468
98	0xbea5dbb8	-0.32394195
99	0xbe299bb0	-0.16563296
100	0x3dbe0aed	0.09279428
101	0xbe87500f	-0.26428267
102	0x3eaab2fb	0.33339676
103	0x3dc7579b	0.09733506
104	0xbec15754	-0.3776194
105	0x3e20102b	0.15631168
106	0x3dc5c3ce	0.096564874
107	0xbe13e92c	-0.14444417
108	0x3ecc830d	0.39943734
109	0x3d3ba2de	0.04580962
110	0xbe036b25	-0.12833841
111	0x3e2ec24d	0.17066307
112	0xbd14b206	-0.03630259
113	0x3e68eb71	0.22746064
114	0xbe4d6b71	-0.20060517
115	0x3d969fac	0.07354674
116	0x3f0d8c44	0.55292153
117	0xbf2ccfd2	-0.6750461
118	0xbed96909	-0.42462948
119	0xbf5f7e7d	-0.8730238
120	0x3e2e4731	0.17019345
121	0x3e0d108d	0.13775845
122	0xbd183de8	-0.037168413
123	0x3e9d406a	0.30713207
124	0x3dca41aa	0.09875806
125	0x3e0c2a53	0.1368802
126	0xbede4e5e	-0.43419164
127	0xbe8ab9c6	-0.2709486
128	0xbf4884bb	-0.7832753
129	0xbdb6f761	-0.089339025
130	0xbd9bdb80	-0.07610226
131	0xbeadacb6	-0.3392083
132	0x3f3fa2ef	0.7485799
133	0x3ec4655a	0.38358575
134	0x3dd2d4f2	0.10294522
135	0x3f212cdf	0.6295909
136	0xbb485037	-0.003056539
137	0xbe919d15	-0.28440157
138	0xbe61b842	-0.22042945
139	0xbe138e85	-0.14409836
140	0x3e50ff4a	0.20409885
141	0xbf545de7	-0.82955784
142	0xbea5e98b	-0.32404742
143	0x3e54d663	0.20784907
144	0x3e1785d0	0.14797139
145	0xbd63aca1	-0.055584554
146	0x3f0dada0	0.55343056
147	0xbd6f20df	-0.058380958
148	0x3e842f47	0.2581732
149	0x3ea7ed67	0.3279831
150	0xbe02dd7e	-0.12779805
151	0xbe85e819	-0.2615364
152	0xbe892d12	-0.26792198
153	0xbf257a7b	-0.64640015
154	0xbed50dfc	-0.41612232
155	0xbfad436a	-1.3536198
156	0xbe99eae0	-0.30062008
157	0xbe9748e0	-0.29547787
158	0xbf189b1f	-0.59611696
159	0x3c6ea901	0.014566661
160	0xbd8e3b31	-0.069448836
161	0xbf5a6f85	-0.85326415
162	0x3ec80d82	0.39072806
163	0x3e53e108	0.20691311
164	0x3f1fcfca	0.62426436
165	0x3e38f3a5	0.18061693
166	0x3d89830e	0.0671445
167	0x3c33b22b	0.0109677715
168	0xbde37c9f	-0.11107754
169	0xbbfdd865	-0.0077467435
170	0x3e013dcd	0.12621231
171	0xbde3cc8c	-0.111229986
172	0xbdad0358	-0.084479034
173	0xbe80cf6a	-0.25158244
174	0x3f2bc2c7	0.6709408
175	0xbd24064d	-0.04004507
176	0xbddc5660	-0.10758662
177	0x3e204423	0.15650992
178	0xbb1cd25a	-0.002392909
179	0x3ead1b4a	0.33809882
180	0x3e61fc3f	0.2206888
181	0xbed56971	-0.41682008
182	0xbf55b19e	-0.8347415
183	0x3ed15a8f	0.40889403
184	0xbf06ba67	-0.5262818
185	0xbf43a7e6	-0.7642807
186	0xbe80a2dc	-0.25124252
187	0xbedb149f	-0.4278917
188	0xbe7c39d6	-0.24631438
189	0x3e80d236	0.25160378
190	0x3cea6f8e	0.028617647
191	0xbde34d17	-0.11098688
192	0x3f10226d	0.5630253
193	0x3d1a57bc	0.037681326
194	0xbe2f6f1a	-0.17132226
195	0xbe97235a	-0.2951916
196	0xbf3c8d82	-0.73653424
197	0xbf422ff3	-0.75854415
198	0x3dd0003f	0.10156297
199	0xbcfeeb20	-0.031117976
200	0x3d1f8011	0.038940493
201	0x3dba05ed	0.090831615
202	0xbd9b8a85	-0.0759478
203	0x3e8f78dd	0.280219
204	0x3e7b952f	0.24568628
205	0x3f0548a5	0.5206397
206	0x3f697323	0.9119131
207	0xbf558af7	-0.8341517
208	0xbeefa3de	-0.46804708
209	0x3ed6b152	0.4193216
210	0xbd849cbf	-0.064752094
211	0x3de53cd8	0.11193246
212	0x3f10a6a6	0.56504285
213	0xbe326358	-0.17420709
214	0x3dad2b19	0.08455486
215	0x3ee31290	0.443501
216	0xbf4273df	-0.75958055
217	0xbe8e3f5b	-0.2778271
218	0x3ecc7efe	0.39940637
219	0xbe92ff9e	-0.28710645
220	0x3e2fa1a7	0.17151509
221	0x3f00119e	0.5002688
222	0x3e2fe91d	0.1717877
223	0x3daacaf0	0.083394885
224	0xbc1d01b7	-0.009582928
225	0x3e56cb98	0.20976102
226	0x3e070ad6	0.13187727
227	0xbeb9ae98	-0.36266017
228	0x3de0ba9a	0.109730914
229	0xbe0f0c5e	-0.13969561
230	0xbe5955cc	-0.21224135
231	0xbe9e4608	-0.30912805
232	0x3e2d4e90	0.169245
233	0x3f4c722e	0.79861724
234	0xbf2ff46c	-0.68732333
235	0xbe26a482	-0.16273692
236	0x3eb1b2f5	0.34706846
237	0xbf43b56f	-0.7644872
238	0xbeca3efb	-0.39501175
239	0xbd1b87aa	-0.037971176
240	0xbe587ca2	-0.21141294
241	0x3f228429	0.6348291
242	0x3f6af4a3	0.91779536
243	0xbdaf0048	-0.085449755
244	0xbebad82c	-0.3649305
245	0xbf0693a8	-0.52569056
246	0x3eb59fb8	0.35473418
247	0x3d0bd49b	0.034138303
248	0x3e117bc3	0.14207368
249	0xbd37fb92	-0.04491765
250	0xbf102585	-0.5630725
251	0xbeee78b3	-0.4657646
252	0x3ef27b0f	0.4735951
253	0xbd1b5bef	-0.03792947
254	0x3f0270d4	0.5095341
255	0x3eefd46e	0.46841758

convblock4.2.weight f4 [14]
0	0x3fb28ddf	1.3949546
1	0x3fbe8564	1.4884458
2	0x3fb28263	1.3946041
3	0x3fa9e628	1.3273363
4	0x3fe37ebf	1.7773055
5	0x3fe17f44	1.7616963
6	0x3fb2864f	1.3947238
7	0x3fb783eb	1.4337133
8	0x3fa3c568	1.2794619
9	0x3fcf9e58	1.6220198
10	0x3fe554b8	1.7916479
11	0x3fd90dd9	1.6957351
12	0x3fc819ef	1.5632914
13	0x3fd4dc57	1.6629742

convblock4.2.bias f4 [14]
0	0xbce47b07	-0.027890695
1	0x3ea6fbe3	0.3261405
2	0xbeb56283	-0.3542672
3	0xbd8999e3	-0.06718805
4	0xbd7234df	-0.059132453
5	0x3f37d1ae	0.7180432
6	0xbea7ee6b	-0.32799086
7	0xbeec8e75	-0.46202436
8	0xbd01f137	-0.03172418
9	0x3eba48a6	0.3638355
10	0x3de3be54	0.111202866
11	0x3e6a022f	0.22852395
12	0x3df17d63	0.11791494
13	0xbe881946	-0.26581782

convblock4.2.running_mean f4 [14]
0	0x40f6c5a4	7.711626
1	0x4159ffb6	13.624929
2	0x41116459	9.086999
3	0x408495c6	4.143283
4	0x40e1cce7	7.0562625
5	0x410a4cc6	8.6437435
6	0x419670d3	18.80509
7	0x40c6e283	6.2151504
8	0x414b27d7	12.697227
9	0x40ce6d16	6.450816
10	0x408368a9	4.106526
11	0x410de2de	8.8678875
12	0x40809b2c	4.018942
13	0x410cc172	8.797228

convblock4.2.running_var f4 [14]
0	0x4369cef3	233.8084
1	0x4392ff10	293.99268
2	0x43786047	248.37608
3	0x42fc8cb8	126.27484
4	0x4398844a	305.0335
5	0x434111c2	193.06937
6	0x4400c140	515.01953
7	0x4339aad8	185.66736
8	0x439c0615	312.04752
9	0x434143f5	193.26546
10	0x42da9429	109.289375
11	0x4373a3fb	243.64055
12	0x42e94fed	116.656105
13	0x4395eeb3	299.86484

convblock5.0.weight f4 [16, 14, 3, 3]
0	0xbf0655db	-0.52474755
1	0xbed6ab6a	-0.41927654
2	0xbeb6f064	-0.35730278
3	0xbf75384e	-0.9578904
4	0xbeb54a79	-0.3540838
5	0xbdd67583	-0.10471632
6	0xbf4bbd2c	-0.7958553
7	0xbd4dab8c	-0.050212428
8	0xbea30112	-0.31836754
9	0xbf743879	-0.9539867
10	0xbf0d0a44	-0.5509379
11	0xbf2d129e	-0.6760653
12	0xbe819a31	-0.2531295
13	0x3e28f128	0.16498244
14	0x3e937c2c	0.28805673
15	0xbe3cd667	-0.18441163
16	0x3c046186	0.008079892
17	0x3ed1e535	0.40995184
18	0xbe43ada6	-0.1910921
19	0xbe2812cf	-0.16413425
20	0xbeaead69	-0.34116676
21	0x3e970c21	0.2950144
22	0xbc90f156	-0.017693203
23	0xbd0302aa	-0.031984963
24	0xbe8806ae	-0.26567596
25	0x3b10e7a6	0.002211073
26	0x3e533661	0.20626213
27	0xbd0a79d5	-0.033807594
28	0xbe144264	-0.14478451
29	0x3ecc931c	0.39955986
30	0xbd3e0085	-0.046387214
31	0x3dc4fe0a	0.096187666
32	0xbd847c65	-0.06469039
33	0xbdeaae32	-0.11459006
34	0xbdedea89	-0.11617
35	0xbf1e6af7	-0.61881965
36	0x3de46606	0.11152272
37	0x3ef26b96	0.47347707
38	0x3f006304	0.50151086
39	0xbf197c23	-0.5995504
40	0xbe6bdec2	-0.23034194
41	0xbe9a8144	-0.30176747
42	0xbefe5232	-0.49672085
43	0xbe86f126	-0.26355857
44	0xbe5234b2	-0.20527914
45	0x3d743d3a	0.059628703
46	0x3d21b3bd	0.039478052
47	0xbe840d23	-0.25791273
48	0xbdad456b	-0.08460506
49	0xbd5a2c57	-0.053264942
50	0xbe55506f	-0.20831464
51	0xbeb4bb02	-0.35298926
52	0x3c3afb1a	0.011412406
53	0xbe324dbb	-0.17412464
54	0x3eaf9b92	0.34298378
55	0x3ee4c1ef	0.4467921
56	0x3f1bc7de	0.6085185
57	0xbd12f872	-0.035881467
58	0x3e8fc0f7	0.28076908
59	0xbda07fa9	-0.07836849
60	0xbebdb0cf	-0.37048957
61	0xbdd30e85	-0.10305504
62	0xbee5985e	-0.4484281
63	0x3f187cb0	0.5956526
64	0x3f1d1bc4	0.6137049
65	0xbda60430	-0.081062675
66	0x3d96de33	0.073666
67	0xbd037642	-0.0320952
68	0xbdbf679a	-0.09345932
69	0xbedef6e0	-0.43547726
70	0xbf572d34	-0.8405335
71	0xbea1dd55	-0.31614175
72	0x3d1c94db	0.038227897
73	0x3cead925	0.028667996
74	0x3f1c40b7	0.61036247
75	0xbe376250	-0.17908597
76	0xbe8c1ded	-0.27366582
77	0xbe9d4377	-0.30715534
78	0xbddb2d1c	-0.10701963
79	0xbe9b8ce1	-0.3038092
80	0xbf1b73b2	-0.6072341
81	0xbe93a165	-0.28834072
82	0x3dde5c42	0.108574405
83	0xbdca92c3	-0.09891274
84	0xbf2f9ef8	-0.6860194
85	0x3ef0312e	0.4691252
86	0x3e67bcc9	0.2263061
87	0xbf2cb3c0	-0.67461777
88	0x3dc03f2b	0.09387048
89	0xbe78a5f2	-0.24282053
90	0x3ece8331	0.40334466
91	0x3ddae0ad	0.10687385
92	0xbf31f136	-0.69508684
93	0x3dcb55af	0.09928452
94	0x3e612635	0.21987231
95	0xbdbfb755	-0.0936114
96	0xbe8cf950	-0.2753396
97	0x3e051909	0.12997831
98	0xbedb381d	-0.4281625
99	0xbdf45900	-0.11931038
100	0x3dc22a83	0.09480765
101	0x3f67ffdb	0.9062478
102	0xbe46d397	-0.19416653
103	0xbd404f0d	-0.04695039
104	0x3dd27fd4	0.102782875
105	0xbe50cfa1	-0.20391704
106	0xbe338d83	-0.17534451
107	0xbedee036	-0.43530434
108	0x3d5cfc4e	0.053951554
109	0x3e9778f1	0.29584458
110	0x3dcba2d2	0.09943165
111	0x3ea27820	0.31732273
112	0x3e3ec3a2	0.18629315
113	0xbe289bfc	-0.16465753
114	0xbd778e2d	-0.060438324
115	0xbde47a12	-0.111560956
116	0xbe1fc080	-0.15600777
117	0x3f0f0856	0.55872095
118	0xbe3684f8	-0.17824161
119	0x3ee7e10e	0.4528889
120	0x3cc51075	0.024055699
121	0xbf289816	-0.65857065
122	0xbd2a8ea5	-0.041639943
123	0xbdb1d76c	-0.086836666
124	0xbe32d027	-0.17462216
125	0x3e967338	0.2938478
126	0x3e2fa5a9	0.17153038
127	0xbde40e72	-0.11135568
128	0x3f069649	0.52573067
129	0xbe878d3b	-0.26474938
130	0xbeca5793	-0.3951994
131	0xbe0edd73	-0.13951664
132	0xbf1d7371	-0.61504275
133	0xbf0879be	-0.53310764
134	0xbf1a25b2	-0.6021377
135	0x3e53f90f	0.20700477
136	0x3e2f3de5	0.17113455
137	0xbf08bcc3	-0.5341303
138	0x3de619ba	0.11235376
139	0xbe3e0a9e	-0.18558738
140	0xbf337a90	-0.7010889
141	0xbe17749d	-0.14790578
142	0xbe034614	-0.12819701
143	0xbe52d675	-0.20589621
144	0x3efdab77	0.4954488
145	0x3da4377e	0.08018397
146	0x3eb94cf4	0.36191523
147	0x3ede8e63	0.43468007
148	0x3e71e622	0.23622945
149	0x3f03b492	0.51447403
150	0x3f18a33b	0.5962407
151	0x3e12e475	0.14344962
152	0x3ec85242	0.39125258
153	0xbe4f42c5	-0.20240314
154	0xbeac5763	-0.3366042
155	0xbf071e16	-0.5278028
156	0xbd377292	-0.044786997
157	0xbd0223a5	-0.031772275
158	0xbe61acdb	-0.22038595
159	0xbeb3011c	-0.34961784
160	0xbee98ffb	-0.4561766
161	0xbef8d3f0	-0.48599195
162	0x3d91b55f	0.07114672
163	0x3e8a8aa1	0.2705889
164	0x3ea38160	0.31934643
165	0x3ede257a	0.43387967
166	0x3e4da924	0.20084053
167	0x3e9d9833	0.3078018
168	0x3ebfc5da	0.37455636
169	0xbca2b48f	-0.019861488
170	0xbf1aa95d	-0.6041468
171	0x3e0d45b3	0.1379612
172	0x3e309320	0.17243624
173	0xbe3d43d9	-0.18482913
174	0x3e77becb	0.24193875
175	0x3e22818a	0.15869728
176	0x3d75c5c2	0.06000305
177	0x3e9c135b	0.30483517
178	0x3e75b0db	0.23993246
179	0x3e318b44	0.17338282
180	0xbe1d6288	-0.15369618
181	0x3e25c7da	0.16189519
182	0x3e8189f2	0.25300556
183	0x3e2821c6	0.16419134
184	0x3be9b8e6	0.0071326373
185	0xbd82d0f0	-0.06387508
186	0x3eb415b2	0.35172802
187	0x3dfda7f5	0.12385551
188	0xbed8e261	-0.42360213
189	0xbe164254	-0.1467374
190	0x3e901b4c	0.28145826
191	0x3effc133	0.49952087
192	0xbd6756e8	-0.056479365
193	0x3de6019f	0.11230778
194	0x3e816c56	0.25277966
195	0x3f1cdbb7	0.6127276
196	0x3e766c4b	0.24064748
197	0x3ef0f83c	0.47064388
198	0x3e7d0d1b	0.2471203
199	0x3d62e891	0.055397574
200	0xbe213a31	-0.15744855
201	0x3e3473c2	0.17622283
202	0xbe19b976	-0.15012154
203	0xbe93373d	-0.2875308
204	0x3e32b263	0.17450862
205	0x3db1e859	0.08686895
206	0xbda8d47c	-0.08243653
207	0xbc918164	-0.017761894
208	0xbe682c89	-0.22673239
209	0xbebb2d61	-0.3655806
210	0xbe89ec1b	-0.26937947
211	0xbea1ccb7	-0.31601498
212	0xbf2f96db	-0.6858956
213	0xbf7b7020	-0.98217964
214	0xbf458ae2	-0.77165043
215	0xbf6a5f98	-0.91552114
216	0xbd8b2a84	-0.067952186
217	0xbedf315b	-0.43592343
218	0xbf2e6294	-0.6811917
219	0x3e1a7ddb	0.15087073
220	0xbd9e30f8	-0.07724184
221	0xbe2b13be	-0.1670675
222	0x3e389064	0.1802383
223	0x3d6f6d13	0.05845363
224	0xbee8d46f	-0.45474574
225	0xbdf76029	-0.12078888
226	0xbdb0547f	-0.08609866
227	0x3d08ea30	0.033426464
228	0xbda1d35f	-0.07901644
229	0x3e16dedf	0.14733456
230	0x3de0c267	0.10974579
231	0xbeafbafb	-0.34322342
232	0x3d9b19ab	0.07573255
233	0x3e178dc9	0.1480018
234	0xbe3f8e01	-0.18706514
235	0x3db4ada5	0.088221826
236	0x3eb260ff	0.34839627
237	0xbe179bac	-0.14805478
238	0xbdb964a2	-0.09052397
239	0xbe6fe0c3	-0.23425584
240	0xbe972348	-0.29519105
241	0xbe4ff484	-0.20308119
242	0xbeaa7f5b	-0.3330029
243	0xbea37652	-0.3192621
244	0x3e004372	0.12525728
245	0x3f326a90	0.6969385
246	0x3e1718ba	0.14755526
247	0x3d46d06c	0.04853861
248	0x3dc4bf77	0.096068315
249	0xbdf35191	-0.11880792
250	0xbd27dc23	-0.040981423
251	0xbec781e8	-0.38966298
252	0xbeaaa9c7	-0.33332655
253	0xbee03be1	-0.43795684
254	0xbed74069	-0.4204133
255	0x3e0c06ae	0.13674423

convblock5.2.weight f4 [16]
0	0x3f9aeb8d	1.2103134
1	0x3f997fec	1.1992164
2	0x3fd4048b	1.6563886
3	0x3f980d0d	1.1878983
4	0x3fcaed8b	1.5853742
5	0x3fedd0e2	1.8579371
6	0x4006db97	2.1071527
7	0x3fbc2bf9	1.4700919
8	0x3fc5e2b8	1.5459814
9	0x3fdb94ac	1.7154746
10	0x3fc0a2f5	1.504973
11	0x3f894926	1.0725448
12	0x3faa033d	1.3282238
13	0x3fa87c9c	1.3163028
14	0x3fa6f1c5	1.3042532
15	0x3fc51dcf	1.5399722

convblock5.2.bias f4 [16]
0	0x3e2e16b2	0.17000845
1	0x3ddd0286	0.10791497
2	0x3f887a38	1.0662298
3	0xbeb3777c	-0.35052097
4	0x3f4433b2	0.7664138
5	0x3fa46c51	1.2845556
6	0x3f8239ac	1.017385
7	0x3b60ba82	0.0034290855
8	0x3f12b30e	0.57304466
9	0x3f571875	0.84021693
10	0x3e6b27ed	0.22964449
11	0x3ddbd9e5	0.107349195
12	0x3df1291b	0.11775418
13	0xbeb9b2ae	-0.36269134
14	0x3e1812e5	0.14850958
15	0xbe919e19	-0.2844093

convblock5.2.running_mean f4 [16]
0	0x401944a5	2.3948147
1	0x3ff9f989	1.9529277
2	0x4081add7	4.0524707
3	0x401bc968	2.4341679
4	0x407b9f1d	3.9315865
5	0x40b03c44	5.5073566
6	0x40a86337	5.262111
7	0x403f2c34	2.987073
8	0x4055cc09	3.3405783
9	0x403f7c2d	2.991954
10	0x4069958f	3.6497533
11	0x4031377e	2.769012
12	0x4010f3e1	2.2648852
13	0x40749b7a	3.8219895
14	0x40608727	3.508249
15	0x406ba296	3.6817985

convblock5.2.running_var f4 [16]
0	0x418db358	17.71257
1	0x413e5cd7	11.897666
2	0x41ca2ae3	25.27094
3	0x419a6935	19.30137
4	0x41c294f7	24.322737
5	0x423557af	45.33563
6	0x421ffbaf	39.995785
7	0x41de233b	27.767202
8	0x41ca7a8d	25.30984
9	0x418be6c0	17.48767
10	0x41f39a8d	30.450464
11	0x41be0288	23.751236
12	0x415ce546	13.805975
13	0x422601bd	41.501698
14	0x41b4e12e	22.609951
15	0x41f5ffc4	30.749886

convblock6.0.weight f4 [16, 16, 3, 3]
0	0xbea898c1	-0.32929042
1	0x3d477b25	0.048701424
2	0xbe0383c0	-0.12843227
3	0xbe887c8b	-0.2665752
4	0xbe94fc03	-0.2909852
5	0xbe03ce97	-0.12871777
6	0xbe0d12d2	-0.1377671
7	0xbeed0090	-0.46289492
8	0xbee4d8ed	-0.4469675
9	0xbe8a47ee	-0.27008003
10	0xbeaf58ab	-0.34247336
11	0xbee2a0bf	-0.44263265
12	0xbe7602d2	-0.24024513
13	0xbed4acaa	-0.41537982
14	0xbf1971a5	-0.5993903
15	0xbc2b0ab0	-0.01043956
16	0x3ea0dd61	0.314189
17	0x3e084c40	0.13310337
18	0xbda1a08d	-0.07891951
19	0xbd9c12c4	-0.07620767
20	0xbd9678be	-0.073472485
21	0xbd07d99a	-0.033166505
22	0x3d46d0b7	0.04853889
23	0x3e0035c4	0.1252051
24	0xbe2781f1	-0.16358162
25	0xbed77b53	-0.42086276
26	0xbe95163b	-0.29118523
27	0x3dd0811c	0.10180876
28	0x3c913b65	0.017728517
29	0xbe437319	-0.19086875
30	0x3dc92715	0.098219074
31	0x3e5a7be1	0.21336319
32	0x3ebaec50	0.36508417
33	0xbf243433	-0.6414215
34	0x3b9acd63	0.004724191
35	0x3eaa492c	0.3325895
36	0xbe762c42	-0.2404032
37	0x3be79d57	0.007068317
38	0xbe438ed4	-0.19097453
39	0xbf1ed6c8	-0.6204648
40	0xbd38e105	-0.04513647
41	0x3e87e0a4	0.26538575
42	0xbe2fcea2	-0.17168668
43	0xbd925aeb	-0.071462475
44	0x3f1aaa4a	0.6041609
45	0x3e3c6d0c	0.18400973
46	0x3d565e2a	0.052335896
47	0xbf19cf08	-0.6008153
48	0x3eae02b0	0.33986425
49	0xbea3f9b1	-0.32026437
50	0xbf2db803	-0.67858905
51	0x3e3b0c0c	0.18266314
52	0xbe297448	-0.16548264
53	0xbef9ac88	-0.48764443
54	0xbf18eaff	-0.59733576
55	0xbf019675	-0.50620204
56	0xbf1140a7	-0.56739277
57	0xbe371990	-0.17880845
58	0xbda5b2bf	-0.08090734
59	0xbe9a48e3	-0.30133733
60	0x3dfece9f	0.124417536
61	0x3e786a42	0.24259284
62	0xbe29d786	-0.16586122
63	0x3e7f17e5	0.24911459
64	0xbe080dc0	-0.13286495
65	0xbf11af13	-0.5690777
66	0x3ec4a3fa	0.38406354
67	0xbd925876	-0.07145779
68	0xbed8dc4c	-0.42355573
69	0x3e37932b	0.17927234
70	0xbe6c397d	-0.23068805
71	0xbeff79d3	-0.49897632
72	0x3ece964f	0.4034905
73	0xbc7902fb	-0.0151984645
74	0xbeb0c9cd	-0.34528962
75	0x3e59b995	0.212622
76	0xbc958b2d	-0.01825484
77	0xbe9a7f70	-0.30175352
78	0x3ed54d9c	0.41660774
79	0x3dd6279d	0.104567744
80	0x3c101aca	0.0087954495
81	0x3de3c0a1	0.111207254
82	0xbda4f9d2	-0.08055462
83	0xbee486d5	-0.4463412
84	0xbc9b4ed2	-0.018958483
85	0xbd522259	-0.051302288
86	0xbf0705a6	-0.52742994
87	0xbec0181a	-0.37518388
88	0xbe589640	-0.21151066
89	0xbe6e9b2a	-0.23301378
90	0x3e794cf4	0.24345762
91	0x3ee5fbd5	0.44918695
92	0x3f039202	0.51394665
93	0xbe9bd4f5	-0.3043591
94	0xbde7c1a2	-0.113162294
95	0x3b5c253f	0.0033591536
96	0x3de4a968	0.11165124
97	0xbdd7d99e	-0.10539554
98	0xbdd1ddf3	-0.102474116
99	0xbe5e0441	-0.2168131
100	0xbe8020e3	-0.2502509
101	0x3e75e5fe	0.24013516
102	0x3d8f05d5	0.06983534
103	0x3e18f745	0.14938076
104	0x3ebc2e1f	0.36753938
105	0x3f2383f3	0.63873214
106	0x3edd883d	0.43268004
107	0x3f18cc6b	0.5968692
108	0xbdec5c34	-0.11541024
109	0x3d2944c3	0.041325342
110	0x3ebbff8b	0.367184
111	0x3cb6a409	0.022295015
112	0x3d95079f	0.07276844
113	0x3ef9c9bc	0.48786724
114	0x3d335cf6	0.043789826
115	0x3c3aa19f	0.0113910725
116	0x3ebfec13	0.37484798
117	0x3e1665be	0.14687249
118	0xbe210b50	-0.15726972
119	0xbf5c3bb0	-0.86028576
120	0x3e06f907	0.13180934
121	0xbee211c1	-0.4415417
122	0xbefbff74	-0.49218333
123	0x3dbdcaee	0.092672214
124	0xbe32d5af	-0.17464326
125	0x3ea0707d	0.31335822
126	0xbcead9e3	-0.02866835
127	0xbee0d8ef	-0.43915507
128	0xbe873b65	-0.26412502
129	0x3e92d4ec	0.28678071
130	0xbe116117	-0.14197193
131	0xbcc4075d	-0.023929292
132	0x3f27ac76	0.6549753
133	0x3eb87be5	0.36032024
134	0x3e26d4b9	0.16292085
135	0x3db8ac00	0.090171814
136	0x3edeb2c0	0.4349575
137	0x3d45dbd2	0.04830534
138	0xbe1e1014	-0.15435821
139	0xbdf6922a	-0.12039597
140	0xbebe220a	-0.37135345
141	0xbe3e40fc	-0.18579477
142	0xbf0eade0	-0.5573406
143	0xbedc4e53	-0.43028507
144	0xbd176652	-0.036962815
145	0x3e4839a6	0.19553241
146	0x3ebc74f7	0.36807987
147	0xbe0e3934	-0.13889009
148	0x3cc5eb88	0.024160162
149	0x3dce9976	0.10087864
150	0xbdf11982	-0.11772443
151	0xbea04f1e	-0.31310362
152	0xbe3f9ed0	-0.18712926
153	0x3f0990ae	0.5373639
154	0x3e92a745	0.28643242
155	0xbe671a67	-0.22568665
156	0x3e0c946a	0.1372849
157	0xbe058a62	-0.1304107
158	0xbec68a19	-0.38777235
159	0x3df28b9f	0.11843037
160	0x3e839609	0.25700405
161	0x3f003d6c	0.5009372
162	0xbf807128	-1.0034533
163	0xbd7e4daf	-0.062085804
164	0xbeed510c	-0.46350896
165	0xbf4a264a	-0.78964674
166	0x3d6ed7d7	0.05831131
167	0xbe9fc481	-0.31204608
168	0xbf6d1ab5	-0.92618877
169	0x3e12c304	0.14332205
170	0x3e73a0ba	0.23791781
171	0xbeee93cb	-0.46597132
172	0xbe6ac609	-0.22927107
173	0xbeedf94a	-0.46479255
174	0x3edb09c4	0.42780888
175	0x3ec15be0	0.37765408
176	0x3e44a98c	0.19205302
177	0x3e9eea41	0.31038097
178	0x3c71abd6	0.014750442
179	0xbed64bfc	-0.41854846
180	0x3f055f17	0.5209822
181	0x3e5b0cfc	0.21391672
182	0xbdd60b05	-0.104513206
183	0x3e664e35	0.22490771
184	0xbe860887	-0.2617838
185	0xbf2bcf65	-0.67113334
186	0x3e9a2bf8	0.3011167
187	0x3e2b3f5e	0.16723391
188	0xbeb2bbd4	-0.34908926
189	0x3e23c481	0.15992929
190	0x3dabdd12	0.08391775
191	0x3de0a72b	0.10969385
192	0xbe738086	-0.23779497
193	0xbd71bb7c	-0.05901669
194	0xbe91f570	-0.28507566
195	0xbd970795	-0.07374493
196	0x3d86de8e	0.06585418
197	0xbecf5d52	-0.40500885
198	0xba6a1f0e	-0.0008931019
199	0xbf1386ff	-0.5762786
200	0xbf27d3fb	-0.6555783
201	0xbe91a5c0	-0.2844677
202	0xbdec3d92	-0.11535181
203	0xbe022da8	-0.12712729
204	0xbe9d7d9c	-0.30759895
205	0xbe59570b	-0.2122461
206	0xbf1df0f0	-0.61695766
207	0x3e8b3007	0.2718508
208	0xbe4e22b0	-0.2013042
209	0xbf3824df	-0.7193126
210	0x3dc61837	0.09672587
211	0x3d35b2ff	0.044360157
212	0xbf3a0f5a	-0.72679675
213	0x3e3a7113	0.18207197
214	0x3cc49afd	0.023999685
215	0xbf37a9fc	-0.7174375
216	0x3eeb5863	0.4596587
217	0x3dc75db6	0.09734671
218	0xbd2125c1	-0.039342646
219	0xbbf319fd	-0.0074188695
220	0xbd0b354e	-0.033986382
221	0xbec02758	-0.37530017
222	0xbdc1fd57	-0.09472149
223	0x3de0e113	0.109804295
224	0xbe833d6a	-0.25632793
225	0xbdf6caed	-0.12050424
226	0x3e8856a5	0.26628605
227	0xbd465054	-0.04841645
228	0xbda29b84	-0.079398185
229	0x3cfa72da	0.030572344
230	0x3e1eeaf0	0.15519309
231	0xbeea90d8	-0.45813632
232	0xbdc75283	-0.09732535
233	0x3e91c375	0.28469434
234	0x3f49ad7b	0.78780335
235	0xbd1fd911	-0.03902537
236	0xbec41e50	-0.38304377
237	0x3f078e18	0.5295119
238	0xbd91e834	-0.07124367
239	0xbe860b04	-0.2618028
240	0x3f717336	0.9431642
241	0x3e52a943	0.2057238
242	0xbdd01632	-0.101604834
243	0x3f1b3181	0.6062241
244	0x3ed35008	0.41271996
245	0xbdb48b43	-0.088156246
246	0x3ebd8fc8	0.3702376
247	0xbcd7d0c7	-0.02634467
248	0xbf0d155a	-0.55110705
249	0x3e96b939	0.2943819
250	0x3d5ec72b	0.05438916
251	0xbea26d09	-0.31723812
252	0x3ea42653	0.3206049
253	0xbeb00009	-0.34375027
254	0xbe3db57d	-0.18526264
255	0xbe7d06e9	-0.24709667

convblock6.2.weight f4 [16]
0	0x40343ee7	2.8163393
1	0x4055ddc8	3.3416615
2	0x405d08de	3.4536662
3	0x4054f420	3.3274002
4	0x4040b3a4	3.0109644
5	0x406bcd1e	3.6843944
6	0x403adb2e	2.9196277
7	0x40566eb1	3.350506
8	0x405bb333	3.4328125
9	0x40397556	2.8977866
10	0x3ff5cd00	1.9203186
11	0x40084377	2.1291177
12	0x40576661	3.3656237
13	0x402ea1c2	2.728623
14	0x403285b4	2.7894106
15	0x3fe7d747	1.8112572

convblock6.2.bias f4 [16]
0	0x3e9fd3ff	0.31216428
1	0x3caa7eab	0.020812353
2	0x3e970b2b	0.29500708
3	0x3f0ab623	0.5418417
4	0xbe1f125e	-0.1553435
5	0x3b92d234	0.0044806246
6	0x3e93123d	0.28724852
7	0xbdeae23a	-0.114689305
8	0x3f2431db	0.64138573
9	0x3d70bbd8	0.05877289
10	0xbea6f8c0	-0.32611656
11	0xbe5e7213	-0.21723203
12	0x3d7cd965	0.06173076
13	0x3ece7df1	0.4033046
14	0xbe533154	-0.20624286
15	0xbe985156	-0.29749554

convblock6.2.running_mean f4 [16]
0	0x3f9de129	1.2334338
1	0x3fdd0d8b	1.7269758
2	0x3feb59c5	1.838677
3	0x400c755b	2.1946628
4	0x3fc190de	1.5122335
5	0x3f8eab7d	1.1146084
6	0x3f4531f3	0.7702934
7	0x3fcd77b2	1.6052153
8	0x3fa39c1f	1.2782019
9	0x3f8b608c	1.0888839
10	0x4039a60f	2.9007604
11	0x3f8cc62a	1.0997975
12	0x3f660168	0.89845896
13	0x3feb2dfd	1.837341
14	0x3f35d027	0.7102074
15	0x4017a740	2.3695831

convblock6.2.running_var f4 [16]
0	0x41251d78	10.3196945
1	0x415f790c	13.967052
2	0x418da6dc	17.706474
3	0x41be3057	23.773603
4	0x415ea8db	13.9162245
5	0x413d076b	11.814311
6	0x40bfded1	5.9959493
7	0x415e7e38	13.905815
8	0x414ff118	12.996361
9	0x40f29c1b	7.581556
10	0x415cb897	13.795066
11	0x40acd5ec	5.4011135
12	0x40e0494b	7.008947
13	0x417d1507	15.817634
14	0x4097cbb6	4.743617
15	0x4128e65b	10.556239

convblock8.0.weight f4 [10, 16, 1, 1]
0	0xbf816f81	-1.0112153
1	0x40319962	2.7749867
2	0xbf70d939	-0.94081455
3	0x3f2fea3d	0.68716794
4	0xbede0b4c	-0.43367994
5	0xbf04e3cb	-0.51910084
6	0x3e88370d	0.266045
7	0xbf883d35	-1.0643679
8	0xbfae7769	-1.3630191
9	0xbf8a048e	-1.078264
10	0xbdf724cf	-0.120675676
11	0x3f1861c2	0.59524167
12	0x3f6907b6	0.9102739
13	0xbf2606fc	-0.6485441
14	0x3f9f14ab	1.2428182
15	0xbdc9c0ca	-0.09851225
16	0xbe1d720b	-0.15375535
17	0xbfae7485	-1.3629309
18	0xbf803265	-1.0015379
19	0xbfcdca1c	-1.6077304
20	0xbf6fd533	-0.9368469
21	0x3f031cf3	0.5121605
22	0xbdd872e9	-0.105687924
23	0x3f52f9e6	0.82412565
24	0xbf3228f5	-0.69593745
25	0x3f7dcfa9	0.9914499
26	0x3fc520db	1.5400652
27	0x3f5f7074	0.87280965
28	0xbf176639	-0.59140354
29	0xbf75cfce	-0.9602021
30	0x3f8116d4	1.0085092
31	0x3fb115b8	1.3834753
32	0x3fc0e69f	1.507038
33	0xbf372c36	-0.71551836
34	0x3f907194	1.1284661
35	0x3f016496	0.50544107
36	0xbec1298f	-0.3772702
37	0xbff8dc93	-1.9442314
38	0x3f2989b6	0.66225755
39	0xbf1950b8	-0.5988879
40	0xbe542d32	-0.20720366
41	0x3f89561a	1.0729401
42	0xbf8ec2c4	-1.1153188
43	0x3e07f4da	0.13276997
44	0xbf9401a4	-1.1563001
45	0xbf2f5d3e	-0.6850165
46	0x3f78a5eb	0.9712817
47	0x3ed21ef1	0.4103923
48	0xbf372e7c	-0.71555305
49	0xbf655733	-0.8958618
50	0x3fbedc9e	1.4911077
51	0xbf087109	-0.5329748
52	0xbf04e0af	-0.5190534
53	0x400a07ef	2.1567342
54	0x3dc85798	0.09782332
55	0xbf33fa17	-0.7030348
56	0xbee2ebcd	-0.44320527
57	0x3f55986a	0.8343569
58	0xbcfddf7e	-0.030990358
59	0xbf8645cc	-1.049005
60	0x3f915b1e	1.1355932
61	0xbeedc1e5	-0.46436992
62	0x3da9a90c	0.08284196
63	0xbf0690ef	-0.525649
64	0x3f4cc777	0.7999186
65	0x3f0b3bef	0.54388326
66	0xbf8b91eb	-1.0903906
67	0xbfcdd8a7	-1.6081742
68	0x40043aa5	2.0660794
69	0xbe1c3125	-0.15253122
70	0xbf463622	-0.7742635
71	0x3f8dfcf8	1.1092825
72	0x3fdb4373	1.7129959
73	0xbd44f352	-0.04808361
74	0x3b46acb5	0.0030315344
75	0xbf218545	-0.6309398
76	0xbfc45dfe	-1.5341184
77	0x3bd850f4	0.0066014472
78	0xbf4474bf	-0.7674064
79	0x3e43559b	0.19075625
80	0xbf4be138	-0.7964053
81	0xbf2d726d	-0.67752725
82	0xbfb78143	-1.4336323
83	0x3f29bdcc	0.6630523
84	0x3e1e0c9d	0.15434499
85	0x3fa56ec4	1.2924428
86	0xbf08718e	-0.5329827
87	0xbf277948	-0.65419436
88	0xbe82ccf7	-0.25547
89	0x3e0227cf	0.12710498
90	0xbf387949	-0.72060066
91	0xbf4f6a5c	-0.81021667
92	0x3f621a59	0.88321453
93	0x400b3dc9	2.175646
94	0x3f5b4ee1	0.85667235
95	0x3ea01593	0.3126646
96	0x3e13e0bb	0.14441197
97	0xbe4a605d	-0.19763322
98	0xbf13d65b	-0.57748955
99	0x3fa49260	1.285717
100	0x3fab26b6	1.3371189
101	0xbf801728	-1.0007067
102	0xbf37094a	-0.7149855
103	0xbf68d05c	-0.9094293
104	0xbf7d3eda	-0.9892403
105	0x3f1c9230	0.61160564
106	0x3f0331a0	0.51247597
107	0x3fa9f46e	1.3277719
108	0x3fc6df4a	1.5536892
109	0x3e9dd0f5	0.30823484
110	0xbf7fd025	-0.9992698
111	0xbc3e5b55	-0.011618455
112	0xbe0b1d12	-0.13585308
113	0xbe4b77f6	-0.1986998
114	0x3fec1938	1.8445196
115	0xbf697573	-0.9119484
116	0x3d97b81d	0.07408164
117	0xbf5f2ccf	-0.8717775
118	0xbec96704	-0.39336407
119	0x40102197	2.2520502
120	0xbf9cf227	-1.2261399
121	0xbfec46d1	-1.8459111
122	0x3d09ba1f	0.033624765
123	0x3d1bdb95	0.038051207
124	0xbf4b1547	-0.7932934
125	0x3e92b4ad	0.2865347
126	0xbe9e73f7	-0.3094785
127	0xbf1ed8d7	-0.6204962
128	0x3f8a48c7	1.080346
129	0x3ed160b5	0.40894094
130	0x3e12d852	0.14340332
131	0xbe1f6253	-0.15564851
132	0xbf3d39bd	-0.73916227
133	0x3e239233	0.1597374
134	0x400c5dbe	2.1932216
135	0xbf61e0ab	-0.8823344
136	0x3fa95c7f	1.3231353
137	0xbdc50715	-0.096204914
138	0x3edcedfd	0.4315032
139	0x3e97bd84	0.29636776
140	0x3f85240a	1.0401623
141	0x3f4f04e7	0.80866855
142	0xbfa5b8a3	-1.2946972
143	0xbf723518	-0.94612265
144	0xbf94d685	-1.1627966
145	0x3f469c35	0.77582103
146	0x3e10b093	0.14129858
147	0x3fbc2032	1.4697325
148	0xbf5bbbcc	-0.8583343
149	0x3f048f58	0.51781225
150	0xbf3e5596	-0.74349344
151	0x3f8fc909	1.1233226
152	0x4001323d	2.0186913
153	0xbea4896d	-0.32136098
154	0xbd895c49	-0.06707055
155	0xbe554b88	-0.20829594
156	0xbf6dcd95	-0.9289182
157	0xbf14b7e5	-0.580931
158	0xbf328504	-0.69734216
159	0x3e9180a6	0.28418463
