S6/Assets/models/model_l1.pth (torch_old, 45318 bytes, 27 tensors)

convblock1.0.weight f4 [16, 1, 3, 3]
-0.00011179555 -0.00014543679 -1.5822588e-05 -0.000119089935 4.856845e-05 4.6641442e-05 4.961115e-05 2.3572802e-05
-0.00012119914 0.0006501985 0.0007763001 -0.00023040216 0.0004410272 4.9569113e-05 5.8178925e-05 -0.000102560785
0.00020689367 -4.6405214e-05 0.27557603 -0.030922957 -0.53886956 0.2388157 -0.032527234 -0.2858778
0.1679423 -0.079830855 -0.4286857 -0.00015688692 -0.0002043317 9.593064e-05 -0.00014192522 -3.8502585e-05
4.8233138e-05 -0.00027280755 -9.167089e-05 0.00020509059 -0.43033755 -0.52623683 -0.05144645 0.27190736
-0.32989123 -0.43235603 0.27910137 0.0953445 -0.58543795 0.29241842 -0.1878309 -0.58491236
0.047210075 -0.7794796 -0.0340964 -0.7491515 0.013159751 0.16990471 -4.7733694e-05 7.80131e-05
9.235217e-05 5.552569e-05 -1.12095195e-05 8.432683e-05 5.22296e-05 -3.867088e-05 0.00022408439 0.00012044204
0.00019321292 0.00028038683 -2.7282955e-05 0.00013589807 2.6864236e-05 0.00024839916 0.00011979089 -3.0934927e-05
0.0002483689 -0.000100475794 -1.3378924e-05 3.2385644e-05 -0.0001273169 0.00015620905 2.0170208e-05 -0.00019644437
0.00013728342 0.023779 1.2099869 0.8564236 0.002329385 -0.017371032 0.019661335 -0.39638588
-0.6763554 -0.09254158 -0.29011142 -0.032708094 0.027285079 -0.031506617 0.5344244 0.06119579
-0.029749801 -0.054050256 -0.38044968 -0.6630022 -0.35971555 -0.6576579 0.043581657 0.021699665
0.04696174 0.11580075 0.21749751 0.2518081 -0.008521953 -0.0058138543 -0.0035723478 0.009228752
0.01705867 0.035462726 -0.008578877 0.015090394 0.05364805 0.017816836 0.2844699 0.5157823
-0.670847 0.022576371 0.07375642 -0.16229397 -0.41909856 -0.36818436 -5.4490538e-05 8.840123e-05
0.00012726091 9.891776e-06 5.1068455e-05 0.00012366736 8.120548e-05 -0.00010006947 -3.978379e-05 -0.51599115
-0.041614715 0.43670696 -0.4944644 -0.035634723 0.5443386 -0.2617822 -0.019325357 0.2799366
00000000: c773 eab8 6480 18b9 c0ba 84b7 ecbf f9b8
00000010: fab5 4b38 dea0 4338 9115 5038 35be c537
00000020: 4b2c feb8 1572 2a3a 9e80 4b3a 1c98 71b9
00000030: ab39 e739 6ee8 4f38 2505 7438 e715 d7b8
00000040: 99f1 5839 38a3 42b8 4d18 8d3e 2452 fdbc
00000050: 5bf3 09bf 1a8c 743e 473b 05bd 935e 92be
00000060: 11f9 2b3e 5c7e a3bd b17c dbbe 0382 24b9
00000070: e041 56b9 5f2e c938 c3d1 14b9 d67d 21b8
00000080: f04d 4a38 9c07 8fb9 6f3f c0b8 960d 5739
00000090: 3455 dcbe 75b7 06bf 83b9 52bd 7137 8b3e
000000a0: 81e7 a8be c55d ddbe 60e6 8e3e fa43 c33d
000000b0: 43df 15bf deb7 953e be56 40be d1bc 15bf
000000c0: 5a5f 413d fa8b 47bf aba8 0bbd 65c8 3fbf
000000d0: ff9b 573c 80fb 2d3e aa35 48b8 f79a a338
000000e0: 32ad c138 41e4 6838 8510 3cb7 9fd8 b038
000000f0: 1b11 5b38 8b32 22b8 32f8 6a39 d495 fc38
00000100: 3399 4a39 e200 9339 b3dd e4b7 dc7f 0e39
00000110: 825a e137 923b 8239 3f38 fb38 20c0 01b8
00000120: 8237 8239 88b6 d2b8 0b76 60b7 d2d5 0738
00000130: 5f80 05b9 0ccc 2339 3133 a937 a2fc 4db9
00000140: bdf3 0f39 2dcc c23c dae0 9a3f 943e 5b3f
00000150: 98a8 183b b24d 8ebc cf10 a13c 17f3 cabe
00000160: a125 2dbf 7186 bdbd 7c89 94be ecf8 05bd
00000170: f584 df3c 150d 01bd 0ad0 083f 70a8 7a3d
00000180: dbb5 f3bc cd63 5dbd 4dca c2be 83ba 29bf
00000190: a32c b8be 455c 28bf ae82 323d 7fc3 b13c
000001a0: f45a 403d f228 ed3d abb7 5e3e feec 803e
000001b0: a99f 0bbc 2582 bebb 0d1e 6abb 3134 173c
000001c0: a0be 8b3c 5d41 113d 6b8e 0cbc b33d 773c
000001d0: 0fbe 5b3d 9df4 913c 0aa6 913e 4f0a 043f
000001e0: a1bc 2bbf 15f2 b83c 9b0d 973d 6430 26be
000001f0: 1694 d6be a982 bcbe c58c 64b8 0d64 b938
00000200: 5771 0539 dbf4 2537 5632 5638 b4ac 0139
00000210: dc4c aa38 63dc d1b8 85dd 26b8 ff17 04bf
00000220: 3174 2abd 0e98 df3e 702a fdbe b7f5 11bd
00000230: c659 0b3f 5108 86be 3650 9ebc da53 8f3e

convblock1.2.weight f4 [16]
0.12705562 0.07817247 1.5473415 0.085422024 2.3734539 2.2358747 0.110897735 0.121766225
0.09083654 2.4795394 1.0402535 1.565555 0.5527355 1.7174226 0.11901479 1.945716
00000000: de1a 023e e318 a03d 490f c63f bef1 ae3d
00000010: abe6 1740 9218 0f40 5a1e e33d 9260 f93d
00000020: 8208 ba3d c6b0 1e40 0727 853f 1b64 c83f
00000030: 1380 0d3f 81d4 db3f 07be f33d 390d f93f

convblock1.2.bias f4 [16]
0.008015851 0.13062467 0.18665205 0.11893259 0.95951504 0.75837624 -0.081421345 -0.039196316
-0.1813531 -0.66257524 -0.49026835 0.17646961 0.31520477 -0.4746807 0.012603865 -0.70209706
00000000: ea54 033c 79c2 053e b721 3f3e ee92 f33d
00000010: c7a2 753f f224 423f 3cc0 a6bd 518c 20bd
00000020: a1b4 39be 889e 29bf 7404 fbbe 73b4 343e
00000030: 8562 a13e 5909 f3be 7180 4e3c a2bc 33bf

convblock1.2.running_mean f4 [16]
0.00013117671 0.0007443669 0.3180689 0.0004107709 0.60192084 0.5847567 0.00011595814 0.00016660569
0.0003355735 0.59115154 0.107656926 0.39013597 0.036101412 0.33646902 0.00012397228 0.31133482
00000000: 7b8c 0939 9e21 433a edd9 a23e bd5c d739
00000010: 7c17 1a3f 9db2 153f 8d2e f338 e0b2 2e39
00000020: eaef af39 b555 173f 3c7b dc3d e7bf c73e
00000030: 13df 133d ab45 ac3e 8efe 0139 4767 9f3e

convblock1.2.running_var f4 [16]
9.868945e-08 8.6086374e-07 0.1479885 6.480946e-07 0.15711282 0.13746549 3.856665e-08 6.9288404e-08
5.9282155e-07 2.0366995 0.08087462 0.17217192 0.0062721022 0.15333249 4.422632e-08 0.6779787
00000000: 19ef d333 1b16 6735 4c8a 173e b9f8 2d35
00000010: 2fe2 203e c1c3 0c3e 7ba4 2533 b4cb 9433
00000020: 6322 1f35 4959 0240 98a1 a53d d64d 303e
00000030: 3586 cd3b 3103 1d3e 5af3 3d33 0390 2d3f

convblock2.0.weight f4 [24, 16, 3, 3]
0.00014892877 7.6979166e-05 1.0629057e-05 -3.1200278e-05 -5.010279e-06 3.4997855e-05 -7.14663e-05 5.2645202e-05
-2.141132e-05 7.566527e-05 3.1150135e-05 7.683417e-05 5.1200128e-05 -9.314798e-05 -8.911396e-06 -0.0001085793
4.033795e-05 8.7465574e-05 0.00042589798 0.00025124146 1.3522044e-05 0.00051406625 0.00015854312 -7.399201e-05
0.00063180365 7.123308e-06 -0.00044139958 -3.1966803e-05 4.3769684e-05 1.9258212e-05 -7.3966796e-05 -2.5972002e-05
-1.6914957e-05 5.3315154e-05 -6.212825e-05 8.980403e-05 -0.0015090698 -0.0012010344 -0.0009848236 -0.0019249578
-0.0011225814 -0.0004651889 0.00059357256 -8.7110086e-05 -0.00013981805 -0.0015555529 -0.0005560404 0.00030648755
-0.0010565751 -8.939441e-06 0.0008590656 0.0010153606 0.0005668642 0.0016584633 -3.4745499e-06 -3.0862586e-05
-3.696943e-05 -7.612834e-05 -3.1127547e-05 -7.427229e-05 -4.14349e-05 8.910166e-05 -0.00010540446 -3.3031753e-05
-2.4418483e-05 -8.061249e-06 2.836473e-05 7.471021e-05 1.1247194e-05 -6.0741672e-06 3.2285643e-05 -9.0800466e-05
0.000103018756 2.7925738e-05 -1.654227e-05 -4.346918e-05 5.9951562e-06 -9.1834845e-05 8.479802e-06 -4.2560773e-06
-7.067573e-05 0.0028857358 0.001894205 0.0024165823 0.0021163258 -0.0002937111 -1.5081863e-05 3.3959343e-05
-0.00029072422 -0.00016470501 0.00045189436 2.0511845e-05 1.4409287e-05 -5.1145256e-05 -0.00033146603 7.042576e-05
-4.297095e-05 -7.2685194e-05 -3.1760924e-06 9.801368e-05 -3.094502e-05 -8.116724e-05 -0.00072885526 -0.0014207973
-0.0014072929 -0.0008265448 0.0002692897 0.0005191535 2.8786251e-05 -4.7260273e-05 6.63558e-05 -0.0001939766
5.5573837e-05 0.00015623172 -5.6503002e-05 -0.00018706053 -0.0002245838 0.0004711011 0.00014610741 -9.087918e-06
0.0013068303 -0.00017881773 -2.6828889e-06 -0.0009226111 1.5052378e-05 -5.4786084e-05 -0.000114798924 -6.677229e-05
-2.5620813e-05 9.0314395e-05 -3.763582e-05 -5.152307e-05 6.64297e-06 -7.9154175e-05 8.000946e-05 -0.000554675
-0.0006182158 9.715624e-05 -0.0003990537 -0.00011876892 -3.7088463e-05 -1.5039824e-05 -7.604909e-05 -0.00057528657
0.00012046776 -1.53563e-05 2.381394e-05 3.3216802e-05 4.28468e-05 2.3247138e-05 -2.0913969e-05 -1.988434e-05
4.9645914e-05 0.00030684943 0.0003228852 0.00047839768 0.00048322458 0.00038815537 0.00010646407 0.00014248076
0.00015034259 5.436594e-06 0.0034945854 -0.020006895 -0.0723161 -0.018122736 -0.13051105 -0.23522694
-0.0043318714 -0.08721173 -0.17330703 -1.1551223e-05 -0.000112178 -0.00018433556 0.00035943557 -6.6203014e-05
-9.4515824e-05 -0.00015652644 -6.6084605e-05 0.00049368764 -0.017069958 0.06941374 0.37741676 0.21683176
0.007004063 -0.023117308 -0.02364712 -0.016296068 -0.022927662 -0.3885379 0.032824855 0.027954781
-0.722365 -0.022209978 -0.028845638 -0.67726135 -0.6280123 -0.6842889 5.7951725e-05 0.00023381438
0.00019664198 9.479406e-05 0.00011596945 0.0001086698 0.0001660294 0.00019274556 0.00012455299 -6.51792e-05
4.0114865e-06 4.6945428e-05 5.3657284e-05 -2.6414256e-05 -4.838406e-05 8.336932e-05 -3.10945e-05 -4.339687e-05
0.0003202043 0.00017472071 0.00012204898 0.00017958126 -2.4666831e-05 -0.0001860619 8.343433e-05 0.00018242691
-0.00023792755 0.0009738274 -0.37868345 -0.6307253 0.3398375 -0.03541148 -0.3736776 0.18089569
0.18591557 0.053060923 0.014945098 -0.0399529 -0.10698447 -0.123641506 -0.0563341 -0.101689585
0.0065229787 0.004706793 0.06458463 -0.3866238 -0.08521498 0.041752115 -0.15184073 0.033643696
0.117265865 -0.016707897 -0.0027315915 -0.008802216 0.024278715 0.02407402 -0.0032698256 0.02369039
00000000: c329 1c39 e06f a138 7453 3237 0bdd 02b8
00000010: f81d a8b6 a9ca 1238 2de0 95b8 5bcf 5c38
00000020: 769c b3b7 7cae 9e38 34a7 0238 0822 a138
00000030: b8bf 5638 7158 c3b8 2882 15b7 11b5 e3b8
00000040: 8b30 2938 b96d b738 0f4b df39 0fb9 8339
00000050: bddc 6237 67c2 063a 983e 2639 282c 9bb8
00000060: a09f 253a c004 ef36 a66b e7b9 1814 06b8
00000070: 5795 3738 b28c a137 9f1e 9bb8 73de d9b7
00000080: 98e4 8db7 b69e 5f38 da4a 82b8 2c55 bc38
00000090: fbcb c5ba 076c 9dba 3215 81ba de4e fcba
000000a0: 9523 93ba 99e4 f3b9 fb99 1b3a dfae b6b8
000000b0: 1f9c 12b9 b2e3 cbba 3dc3 11ba 10b0 a039
000000c0: c77c 8aba 9bfa 15b7 eb32 613a d915 853a
000000d0: 9d99 143a cb60 d93a 502c 69b6 7372 01b8
000000e0: a00f 1bb8 17a7 9fb8 f38e 02b8 a2c2 9bb8
000000f0: 63ca 2db8 17dc ba38 970c ddb8 938b 0ab8
00000100: 4bd6 ccb7 cd3e 07b7 cbf0 ed37 bdad 9c38
00000110: 55b2 3c37 b3d0 cbb6 726a 0738 216c beb8
00000120: c60b d838 1142 ea37 41c4 8ab7 ad52 36b8
00000130: 002a c936 7597 c0b8 7944 0e37 6dcf 8eb6
00000140: be37 94b8 9d1e 3d3b f946 f83a 865f 1e3b
00000150: 0eb2 0a3b 3dfd 99b9 1c08 7db7 916f 0e38
00000160: 586c 98b9 aab4 2cb9 3cec ec39 da10 ac37
00000170: 6bbf 7137 cd84 56b8 9ec8 adb9 8bb1 9338
00000180: b53b 34b8 916e 98b8 da24 55b6 b28c cd38
00000190: f6ca 01b8 5538 aab8 a610 3fba 0c3a baba
000001a0: ea74 b8ba 7cac 58ba 742f 8d39 cd17 083a
000001b0: 017a f137 5539 46b8 8028 8b38 3266 4bb9
000001c0: f417 6938 22d2 2339 a3fd 6cb8 ae25 44b9
000001d0: 417e 6bb9 1ffe f639 6934 1939 5078 18b7
000001e0: f349 ab3a 0581 3bb9 ae0b 34b6 62db 71ba
000001f0: 7989 7c37 1cca 65b8 34c0 f0b8 1a08 8cb8
00000200: 47ec d6b7 2c67 bd38 27db 1db8 7a1a 58b8
00000210: aee6 de36 93ff a5b8 c0ca a738 9c67 11ba
00000220: c30f 22ba 5cc0 cb38 1538 d1b9 9413 f9b8
00000230: 6f8f 1bb8 8d53 7cb7 8b7c 9fb8 d4ce 16ba
00000240: a3a3 fc38 67d1 80b7 0cc4 c737 4552 0b38
00000250: 67b6 3338 d902 c337 6870 afb7 4ccd a6b7
00000260: e53a 5038 a2e0 a039 eb48 a939 73d1 fa39
00000270: 4e59 fd39 5581 cb39 7645 df38 e366 1539
00000280: 48a5 1d39 fd6b b636 6a05 653b 80e5 a3bc
00000290: 771a 94bd 2276 94bc b0a4 05be 55df 70be
000002a0: 5ff2 8dbb 109c b2bd 6677 31be 20cc 41b7
000002b0: 1b41 ebb8 334a 41b9 a072 bc39 79d6 8ab8
000002c0: cc36 c6b8 3f21 24b9 e796 8ab8 d16a 013a
000002d0: 4cd6 8bbc ca28 8e3d c53c c13e 2509 5e3e
000002e0: 5782 e53b 8260 bdbc 9bb7 c1bc 557f 85bc
000002f0: cbd2 bbbc 71ee c6be 5b73 063d 6d01 e53c
00000300: eaec 38bf b3f1 b5bc b04d ecbc 0061 2dbf
00000310: 6ac5 20bf 8f2d 2fbf 3111 7338 122c 7539
00000320: ae31 4e39 2ccc c638 a034 f338 a8e5 e338
00000330: 2d18 2e39 be1b 4a39 709a 0239 d1b0 88b8
00000340: 689a 8636 45e7 4438 120e 6138 2f94 ddb7
00000350: fdef 4ab8 90d6 ae38 776b 02b8 0905 36b8
00000360: 18e1 a739 3c35 3739 8cf4 ff38 fa4d 3c39
00000370: 9eeb ceb7 9c19 43b9 77f9 ae38 da49 3f39
00000380: 317c 79b9 7348 7f3a cce2 c1be 3777 21bf
00000390: 2eff ad3e a10b 11bd ac52 bfbe b83c 393e
000003a0: a760 3e3e 6956 593d 49dc 743c a7a5 23bd
000003b0: ac1a dbbd c237 fdbd 96be 66bd a142 d0bd
000003c0: b6be d53b 713b 9a3b f244 843d 8ef3 c5be
000003d0: 3185 aebd 4404 2b3d 237c 1bbe f9cd 093d
000003e0: 1629 f03d 00df 88bc 8004 33bb 2b37 10bc
000003f0: 28e4 c63c e136 c53c 924a 56bb 5912 c23c

convblock2.2.weight f4 [24]
0.124306805 1.7869009 1.5579132 0.10970644 0.09002849 1.7268596 0.19263385 1.8441299
0.2103674 0.10855737 0.10649522 0.118781045 0.10774431 1.8088928 0.13277327 2.0809216
2.0121076 1.1822366 0.106797464 0.10375721 0.07200807 2.1005478 0.10835917 2.0258276
00000000: 9194 fe3d 2bb9 e43f b369 c73f c5ad e03d
00000010: db60 b83d bc09 dd3f cf41 453e 730c ec3f
00000020: 8d6a 573e 5453 de3d 2a1a da3d 7a43 f33d
00000030: 0ca9 dc3d cd89 e73f b7f5 073e d22d 0540
00000040: 5fc6 0040 8753 973f a1b8 da3d a97e d43d
00000050: f878 933d 606f 0640 6aeb dd3d 29a7 0140

convblock2.2.bias f4 [24]
-0.030763421 0.010445488 0.2104106 0.032495808 -0.17267692 0.006536141 0.16459917 1.5045854
0.32832465 0.00696382 0.113909595 -0.02826389 0.26590657 1.6227369 0.15477778 1.4248904
0.098546654 -0.8815603 0.17419216 -0.0386771 -0.2812444 1.6236168 -0.24268883 0.37159213
00000000: 9203 fcbc 8d23 2b3c e075 573e 531a 053d
00000010: 38d2 30be 202d d63b af8c 283e 4196 c03f
00000020: 2b1a a83e c230 e43b 6f49 e93d ac89 e7bc
00000030: e824 883e d8b5 cf3f 117e 1e3e cf62 b63f
00000040: d4d2 c93d f0ad 61bf 6e5f 323e e16b 1ebd
00000050: 44ff 8fbe add2 cf3f 6c83 78be 5341 be3e

convblock2.2.running_mean f4 [24]
0.014005469 1.8080472 0.74554527 0.016341666 0.01682657 1.5128651 0.022564417 1.736039
0.034699183 0.042079784 0.009934935 0.0126639865 0.036050282 1.6840554 0.013054939 2.3304932
1.2141038 0.97723526 0.010935366 0.0068668365 0.0076131388 2.4053195 0.013384194 0.8281438
00000000: 3277 653c 176e e73f 0edc 3e3f f5de 853c
00000010: e0d7 893c 90a5 c13f 03d9 b83c 8736 de3f
00000020: bb20 0e3d da5b 2c3d 23c6 223c 9c7c 4f3c
00000030: 76a9 133d 218f d73f 62e4 553c cd26 1540
00000040: c167 9b3f 172c 7a3f 402a 333c 3303 e13b
00000050: a377 f93b c1f0 1940 6149 5b3c 3b01 543f

convblock2.2.running_var f4 [24]
0.00037737083 13.174452 2.8408425 0.0003321205 0.00023182295 10.20753 0.0016511503 2.0860293
0.0041145333 0.001380712 9.810361e-05 0.00025662626 0.004813418 1.8855277 0.00035475497 3.7179718
8.342358 4.971074 0.00043420293 0.00018548581 0.00030810057 4.466071 0.0004121564 5.2625074
00000000: dbd9 c539 8eca 5241 5dd0 3540 7520 ae39
00000010: 8015 7339 0b52 2341 696b d83a 8181 0540
00000020: 35d3 863b 02f9 b43a f9bc cd38 cb8b 8639
00000030: e0b9 9d3b f958 f13f 68fe b939 40f3 6d40
00000040: 4c7a 0541 0a13 9f40 bba5 e339 f87e 4239
00000050: 8f88 a139 0eea 8e40 b216 d839 7666 a840

convblock3.0.weight f4 [10, 24, 1, 1]
-0.00022963287 -9.45899e-05 -3.3388147e-05 -3.2247362e-06 -9.009172e-06 -3.137337e-05 -2.9084542e-05 0.0002051525
0.00012712173 0.00010699553 -6.215892e-05 -2.7057917e-05 1.1938334e-05 1.16763385e-05 5.7799434e-06 1.814186e-05
5.471191e-05 -3.230359e-06 -8.1231294e-05 -5.3582997e-05 0.00011197093 4.8457547e-05 -2.7492266e-05 1.289399e-05
-0.0015410054 0.14977354 -0.03362744 0.0017740536 0.0002982725 -0.15652907 -0.0009882429 -0.009387228
0.0036219542 0.00024530484 -0.00051145843 0.00029475542 0.002909882 -0.18347408 -0.00030623292 0.3982136
0.34730306 -0.13478161 -0.0017952118 -5.9995953e-05 0.0011099648 -0.16341236 0.0002359187 0.9402258
0.001716786 1.2951436 -0.0407635 0.0071834945 0.00096289354 0.02534745 0.0041181585 0.03936058
-0.0017615766 0.00057686627 -0.00094080827 -0.0001361301 -0.0028761313 -0.18286178 -0.0015276124 -0.0008142499
-0.24005239 0.07764775 -0.003429914 -0.0003625596 0.00209065 -0.08565773 0.0037040538 -0.10575812
-0.001631589 -0.013116607 -0.07164327 0.0005248531 0.00073585485 1.0721161 -0.0017746004 -0.10434381
-0.0020499649 -0.00081512105 -0.0016997434 0.0009635484 -0.0022061164 -0.043642268 -0.002437404 -0.4037688
-0.046094786 0.19242412 -0.006443555 -0.0018182311 0.0045435284 -0.078852795 0.00091106654 -0.26239297
-6.299471e-05 -5.8240632e-05 6.645719e-05 -5.7078123e-05 1.9534598e-05 7.928784e-05 -1.8544903e-06 -8.429936e-05
-2.6784805e-05 -4.479293e-05 -8.826559e-05 7.741645e-05 -9.630669e-08 8.110529e-06 -3.0704512e-06 -3.1977026e-05
-7.7150784e-05 5.1717085e-05 -3.72684e-05 -1.7323722e-05 -5.7560024e-05 0.00017223143 -7.536309e-05 -3.1769254e-05
-0.0043373005 0.12653416 0.28187206 0.0014223753 -0.0028089392 -0.0914459 0.009677003 -0.78305143
0.0055962605 -0.0001424141 0.0025553955 0.0007319082 0.0050842995 -0.59288937 0.005801183 -0.5120189
-0.24382935 0.55948883 -0.009562376 -0.005520376 -0.0026874929 0.037043028 -0.013085624 0.020317143
-9.530056e-06 -3.1998763e-05 -4.730336e-05 -9.574548e-05 7.528157e-05 -3.6047455e-05 -3.7135567e-05 -2.159981e-06
-0.0001420442 1.3650036e-05 -5.148075e-06 2.2828479e-05 -2.4682053e-05 6.595723e-05 -8.581142e-05 -6.197197e-05
-4.3736258e-05 2.2382144e-05 9.8217766e-05 -4.809687e-07 -2.0852995e-05 9.443171e-06 -5.295739e-05 -6.850991e-06
-0.00016208758 0.0004031873 0.47054058 -0.0008113573 -0.0022733358 0.036962382 0.007722245 0.03229848
0.005133536 0.00016478263 -0.00073292985 -0.0048948587 0.002988183 0.1179791 0.0013630086 0.10636485
-0.0617173 0.049278583 -4.6483416e-05 -0.0007504293 -0.00042763836 0.8825798 -0.0028893172 -0.14715438
3.6639663e-05 -0.10148744 -0.06773638 0.0010286664 0.0011867514 0.028721841 0.00061765494 -0.14819372
0.00090217165 0.00029192536 -0.00068644586 -1.3193613e-05 -0.0023040914 0.011978317 -0.001002892 0.0027464067
0.8549028 -0.047627367 -0.0009546584 -0.0009996443 0.0019575276 -0.45470506 -0.0015752412 -0.08899793
1.7812215e-05 -3.0303123e-05 6.215387e-05 2.538148e-05 -4.936503e-05 1.3516028e-05 4.6634036e-06 -4.189536e-05
-2.276227e-05 9.538922e-05 -4.690519e-05 -7.207492e-05 -2.7626982e-05 -9.87438e-05 3.8910486e-05 3.785594e-05
3.5702396e-05 -5.2067724e-05 -2.0160911e-05 -7.207464e-05 4.106906e-05 -5.1309155e-05 0.000121005425 7.482649e-07
00000000: 9bc9 70b9 915e c6b8 400a 0cb8 8c68 58b6
00000010: 1926 17b7 e696 03b8 94fa f3b7 341e 5739
00000020: fb4b 0539 ca62 e038 515b 82b8 6ffa e2b7
00000030: c14a 4837 7ee5 4337 56f1 c136 592f 9837
00000040: 777a 6538 25c9 58b6 b85a aab8 4ebe 60b8
00000050: efd1 ea38 e53e 4b38 319f e6b7 4453 5837
00000060: 90fb c9ba 3c5e 193e edbc 09bd 5c87 e83a
00000070: 7561 9c39 2849 20be ee87 81ba e3cc 19bc
00000080: 4f5e 6d3b 429c 8039 6513 06ba 6789 9a39
00000090: b8b3 3e3b a1e0 3bbe e38d a0b9 a7e2 cb3e
000000a0: b5d1 b13e 3104 0abe 504d ebba 2aa4 7bb8
000000b0: 3d7c 913a 9255 27be f260 7739 a3b2 703f
000000c0: c705 e13a 44c7 a53f a1f7 26bd 8563 eb3b
000000d0: b16a 7c3a 75a5 cf3c 9ef1 863b 8f38 213d
000000e0: b4e4 e6ba d738 173a 93a0 76ba 25be 0eb9
000000f0: 7a7d 3cbb 1e40 3bbe 2b3a c8ba 6373 55ba
00000100: 4bd0 75be c905 9f3d 68c8 60bb ed15 beb9
00000110: 4903 093b 526d afbd b6bf 723b b797 d8bd
00000120: 0bdb d5ba 0ae7 56bc b5b9 92bd 4c96 093a
00000130: 62e6 403a 1a3b 893f b599 e8ba 35b2 d5bd
00000140: b458 06bb d9ad 55ba edc9 deba a396 7c3a
00000150: 7e94 10bb 3cc2 32bd dabc 1fbb c9ba cebe
00000160: e3cd 3cbd d40a 453e 7524 d3bb b651 eeba
00000170: e1e1 943b 937d a1bd a4d4 6e3a 5f58 86be
00000180: 071c 84b8 6747 74b8 ef5e 8b38 2b67 6fb8
00000190: 3bde a337 5647 a638 cde7 f8b5 e0c9 b0b8
000001a0: eeaf e0b7 0be0 3bb8 3a1b b9b8 a45a a238
000001b0: 2ad1 ceb3 7512 0837 f30d 4eb6 121f 06b8
000001c0: 03cc a1b8 ccea 5838 a450 1cb8 6952 91b7
000001d0: 9b6c 71b8 0699 3439 400c 9eb8 fa3f 05b8
000001e0: ea1f 8ebb 2c92 013e 8951 903e ff6e ba3a
000001f0: 2e16 38bb fd47 bbbd 4b8c 1e3c 0f76 48bf
00000200: d660 b73b fe54 15b9 6c78 273b 87dd 3f3a
00000210: 329a a63b 99c7 17bf da17 be3b ac13 03bf
00000220: 67ae 79be a93a 0f3f 83ab 1cbc 45e4 b4bb
00000230: a620 30bb 6eba 173d 1665 56bc 2370 a63c
00000240: 47e3 1fb7 6936 06b8 9967 46b8 f7ca c8b8
00000250: 7ce0 9d38 a931 17b8 03c2 1bb8 31f4 10b6
00000260: b3f1 14b9 7502 6537 a1bd acb6 c97f bf37
00000270: 4e0c cfb7 8552 8a38 a8f5 b3b8 f3f6 81b8
00000280: 7371 37b8 4ac1 bb37 43fa cd38 eb1b 01b5
00000290: 77ed aeb7 1c6e 1e37 911e 5eb8 91e1 e5b6
000002a0: 0ef6 29b9 e262 d339 b2ea f03e 44b1 54ba
000002b0: 3ffc 14bb de65 173d e30a fd3b 694b 043d
000002c0: 3937 a83b 80c9 2c39 1722 40ba 0d65 a0bb
000002d0: 64d5 433b 079f f13d fba6 b23a d1d5 d93d
000002e0: 48cb 7cbd 57d8 493d 30f7 42b8 75b8 44ba
000002f0: a634 e0b9 c0f0 613f b35a 3dbb a3af 16be
00000300: 8aad 1938 a6d8 cfbd 5fb9 8abd 51d4 863a
00000310: c58c 9b3a 114a eb3c 1fea 213a 18c0 17be
00000320: b77f 6c3a 8f0d 9939 9af2 33ba 235a 5db7
00000330: 3d00 17bb b440 443c 7973 83ba 0ffd 333b
00000340: e9da 5a3f ea14 43bd 0a42 7aba 7f06 83ba
00000350: dd49 003b 1acf e8be 5378 ceba 8c44 b6bd
00000360: 716b 9537 7633 feb7 9b58 8238 50ea d437
00000370: 4c0d 4fb8 e6c2 6237 557a 9c36 cdb8 2fb8
00000380: 9af1 beb7 b30b c838 10bc 44b8 ee26 97b8
00000390: 7ec0 e7b7 ad14 cfb8 d133 2338 82c7 1e38
000003a0: 28bf 1538 4b63 5ab8 3a1f a9b7 c726 97b8
000003b0: 9141 2c38 c934 57b8 4bc4 fd38 5fdc 4835

convblock4.0.weight f4 [14, 10, 3, 3]
6.914524e-05 4.1576994e-05 -7.612234e-05 -7.975363e-05 8.955713e-05 -8.970657e-05 1.9444391e-05 -8.671719e-05
4.806476e-05 0.048982907 0.049912 0.015501341 0.21702118 0.02805812 0.014871281 0.18883325
0.0076095895 -0.10888044 -0.4459588 -0.06829253 0.0367333 -0.082184784 -0.03163914 -0.016281754
-0.0157946 0.13745739 -0.0076182364 -0.04556175 0.083914995 -0.0031070644 -0.011032304 -0.01721323
0.012072418 0.022991275 0.015529304 0.9765882 3.2666114e-05 6.8881876e-05 -2.1962273e-05 3.9369068e-05
-0.00014299667 2.058652e-05 -6.810191e-05 -4.7636127e-05 -0.000110146306 0.029052345 0.07347337 1.82985
-0.030447088 -0.01050412 -0.0044976086 -0.018421363 -0.0133492695 -0.0075181047 4.1816736e-05 1.2158719e-05
7.644804e-05 -6.3272523e-06 1.775366e-05 1.1796486e-05 -6.4225525e-05 9.595483e-06 2.5056845e-05 0.083211794
0.02145263 -0.041218627 0.043842394 0.027034076 0.04344391 -0.004946906 0.022801742 0.08157164
-0.006739059 0.021385487 0.016356105 -0.008443367 0.028604267 -0.3356993 -0.009907366 0.028682277
-0.033145424 -6.330846e-05 5.6544588e-05 -0.00011240872 -3.0380165e-06 -8.87818e-05 -6.7520914e-06 -2.1158852e-05
-2.3463916e-05 2.4022676e-05 -9.2747585e-05 0.00014048594 4.0097937e-05 -3.0693504e-05 4.625035e-05 -5.412289e-05
-1.3451508e-05 5.9580325e-05 -6.6332505e-05 -0.55931133 -0.29471466 -0.011146182 -0.2821463 0.017028503
0.056002084 -0.12632322 0.02898606 0.29918462 0.022337275 0.06322467 0.6187561 -0.37260872
0.0027996849 0.07052429 0.28364882 0.007165762 0.025491921 0.53280854 0.05230217 0.05518421
-0.040615562 -0.028796133 -0.038368475 -0.079674646 -0.03726321 -0.055331547 -0.0001230721 9.137104e-05
5.393708e-05 -1.6595046e-05 0.00022692117 -1.0076345e-05 -6.96306e-05 3.7636062e-05 8.082544e-07 0.047379617
0.43582365 0.010449084 0.02396669 0.026172245 0.024304211 -0.006698538 0.0046853777 0.011857839
3.5661702e-05 2.8117349e-05 2.7306807e-05 6.5773534e-06 -9.9214856e-05 -4.9650553e-05 -5.2459796e-05 -8.86606e-05
-9.299169e-05 0.0033497417 -0.014354174 0.0021522893 -0.320909 0.019061757 0.021081055 -0.019415263
0.07514534 0.074538276 -0.015279366 -0.025671069 -0.0078146085 0.19616677 -0.03687456 0.015032742
0.43941474 -0.089647025 -0.007196548 -5.1633986e-05 2.298991e-05 -7.9883815e-05 -2.6801254e-05 4.3425266e-06
-5.800594e-05 0.00010125432 2.4230756e-05 7.495599e-05 4.9598754e-07 -3.1354404e-05 4.293966e-05 -4.836988e-05
-4.6450783e-05 2.1190792e-05 -1.9911475e-05 9.874458e-06 0.00013475801 0.00020877083 0.00015813964 -0.00050092157
-0.00054944097 -0.0006726093 -0.00045999073 0.00033053444 -0.00025511053 -0.0003400326 -0.002301414 -0.0011090781
2.0640346e-06 -0.0005631215 -0.0004716513 -0.0003754389 -0.00063902704 -0.00058215583 -0.0005703038 -0.00058663427
0.0006927012 0.000870938 -0.00026083022 0.00019284718 -0.00015709811 0.0011839966 0.00053418864 -0.0007705202
-6.536902e-05 4.9669407e-06 -2.6803713e-05 -6.058399e-05 6.0023005e-05 4.156415e-05 1.7673277e-07 9.9596444e-05
4.028637e-06 -0.0011975673 -0.001002128 0.0005287899 -0.0006426707 -0.00033871643 3.7286787e-05 -0.00026926314
-0.00038641505 0.00024030494 3.3567347e-05 6.283171e-05 1.1432794e-05 0.00010057687 5.665971e-06 2.0689478e-05
-1.5927892e-05 4.9710357e-05 4.898326e-05 -0.000286722 -0.00022268553 -0.0007769079 0.0005706547 -0.0006293183
0.00020961308 0.0007071521 0.0006677233 0.00020338397 -0.0007774764 0.00019195834 0.00011332993 -0.0011483404
00000000: 1102 9138 f562 2e38 dfa3 9fb8 6741 a7b8
00000010: 9ed0 bb38 d920 bcb8 831c a337 f0db b5b8
00000020: 2599 4938 4da2 483d 8670 4c3d 56f9 7d3c
00000030: cd3a 5e3e 24da e53c aca6 733c 815d 413e
00000040: dd59 f93b b5fc debd b654 e4be f4dc 8bbd
00000050: a875 163d 7f50 a8bd 0b98 01bd 5061 85bc
00000060: ad63 81bc a1c1 0c3e 66a2 f9bb f59e 3abd
00000070: a0db ab3d e49f 4bbb d6c0 34bc c202 8dbc
00000080: 64cb 453c 3358 bc3c 9f6e 7e3c af01 7a3f
00000090: f902 0938 ad74 9038 9f3b b8b7 3720 2538
000000a0: 60f1 15b9 37b1 ac37 efd1 8eb8 e7cc 47b8
000000b0: 59fe e6b8 2fff ed3c 3579 963d 8638 ea3f
000000c0: 2c6c f9bc 7919 2cbc ad60 93bb 66e8 96bc
000000d0: e5b6 5abc 6f5a f6bb 6164 2f38 4dfd 4b37
000000e0: bb52 a038 af4e d4b6 b2ed 9437 86e9 4537
000000f0: d1b0 86b8 49fc 2037 2a31 d237 f26a aa3d
00000100: 6dbd af3c ddd4 28bd 1594 333d 9176 dd3c
00000110: 3ef2 313d a819 a2bb b8ca ba3c 080f a73d
00000120: 53d3 dcbb 9e30 af3c 3dfd 853c 0c56 0abc
00000130: 7f53 ea3c c7e0 abbe 8152 22bc 18f7 ea3c
00000140: 7fc3 07bd 78c4 84b8 4a2a 6d38 f9bc ebb8
00000150: bae0 4bb6 5e30 bab8 0690 e2b6 4a7e b1b7
00000160: 60d4 c4b7 4e84 c937 7b81 c2b8 684f 1339
00000170: d52e 2838 e6bc 00b8 effc 4138 0302 63b8
00000180: c9ad 61b7 e3e5 7938 fe1b 8bb8 072f 0fbf
00000190: d7e4 96be 7a9e 36bc 7b75 90be 5c7f 8b3c
000001a0: 7162 653d e05a 01be 2c74 ed3c ba2e 993e
000001b0: a9fc b63c f07b 813d cd66 1e3f 92c6 bebe
000001c0: eb7a 373b 0a6f 903d 6b3a 913e c5ce ea3b
000001d0: 6fd4 d03c 2466 083f cd3a 563d d708 623d
000001e0: 815c 26bd dee5 ebbc 4328 1dbd 762c a3bd
000001f0: 4fa1 18bd 55a3 62bd ea0c 01b9 749e bf38
00000200: 803a 6238 9735 8bb7 b0f1 6d39 920d 29b7
00000210: a506 92b8 6adb 1d38 d2f6 5835 2111 423d
00000220: 4724 df3e a332 2b3c cb55 c43c 2d67 d63c
00000230: a019 c73c 697f dbbb cc87 993b 6247 423c
00000240: 7693 1538 8cdd eb37 ec10 e537 09b3 dc36
00000250: 9211 d0b8 e03f 50b8 4708 5cb8 4cef b9b8
00000260: 8904 c3b8 5787 5b3b c52d 6bbc 6c0d 0d3b
00000270: 2f4e a4be 6727 9c3c 2db2 ac3c c20c 9fbc
00000280: cde5 993d 86a7 983d 4e56 7abc 224c d2bc
00000290: d808 00bc f1df 483e c709 17bd e44b 763c
000002a0: f8fa e03e dc98 b7bd 05d1 ebbb 9291 58b8
000002b0: 75da c037 4c87 a7b8 41d3 e0b7 05b6 9136
000002c0: 674b 73b8 8058 d438 2743 cb37 b131 9d38
000002d0: 0124 0535 8982 03b8 1c1a 3438 c3e0 4ab8
000002e0: 26d4 42b8 e1c2 b137 9107 a7b7 79aa 2537
000002f0: d44d 0d39 7ee9 5a39 49d2 2539 4750 03ba
00000300: 5c08 10ba 0c52 30ba e92a f1b9 954b ad39
00000310: 5bc0 85b9 6746 b2b9 52d3 16bb 7c5e 91ba
00000320: d883 0a36 729e 13ba f747 f7b9 8ed6 c4b9
00000330: 6184 27ba d19b 18ba 7180 15ba 5cc8 19ba
00000340: 6496 353a a94f 643a 0ac0 88b9 0537 4a39
00000350: b4ba 24b9 5530 9b3a cb08 0c3a bcfc 49ba
00000360: ba16 89b8 b2a9 a636 89d8 e0b7 901b 7eb8
00000370: 36c1 7b38 2b55 2e38 efc3 3d34 6fde d038
00000380: ba2d 8736 b1f7 9cba d659 83ba 7d9e 0a3a
00000390: e778 28ba c095 b1b9 6264 1c38 e32b 8db9
000003a0: c097 cab9 5efa 7b39 aaca 0c38 84c4 8338
000003b0: 7acf 3f37 ccec d238 521e be36 518e ad37
000003c0: e39c 85b7 1780 5038 6073 4d38 2d53 96b9
000003d0: b180 69b9 68a9 4bba fd97 153a d6f8 24ba
000003e0: 95cb 5b39 2d60 393a 270a 2f3a 7843 5539
000003f0: 8fcf 4bba 6d48 4939 8bab ed38 e983 96ba

convblock4.2.weight f4 [14]
1.7488726 1.5229619 0.100269586 1.264794 1.7144235 2.329851 1.6699061 1.5944796
1.6127039 1.8289504 2.85423 0.11030067 1.3738859 1.6868762
00000000: 0fdb df3f 6af0 c23f 245a cd3d c5e4 a13f
00000010: 3b72 db3f 471c 1540 7cbf d53f e817 cc3f
00000020: 156d ce3f 0c1b ea3f b4ab 3640 51e5 e13d
00000030: 7edb af3f 8feb d73f

convblock4.2.bias f4 [14]
-0.52441925 -1.209063 0.08348425 0.44231275 -1.1012037 0.2944604 0.18750626 -0.91564554
-0.27680907 -0.7478598 1.5350962 0.006215319 0.50755614 -0.49830884
00000000: 5740 06bf 94c2 9abf caf9 aa3d d176 e23e
00000010: 3ef4 8cbf 83c3 963e a401 403e bf67 6abf
00000020: ebb9 8dbe bd73 3fbf 087e c43f e0a9 cb3b
00000030: 33ef 013f 5622 ffbe

convblock4.2.running_mean f4 [14]
2.447814 1.59531 0.016509825 1.3810644 1.7348596 2.5788057 1.2850214 1.6348822
1.8884917 2.0025263 2.0196953 0.022968963 1.0641932 3.806162
00000000: fca8 1c40 1e33 cc3f 9d3f 873c b8c6 b03f
00000010: e10f de3f 270b 2540 957b a43f d243 d13f
00000020: 19ba f13f 6429 0040 b042 0140 6829 bc3c
00000030: 7c37 883f 2998 7340

convblock4.2.running_var f4 [14]
16.41421 9.652792 0.0005571167 7.127779 14.238642 11.119489 6.6168933 9.156797
10.077645 12.85107 9.3668165 0.0015087952 4.808326 28.975307
00000000: 4d50 8341 d671 1a41 780b 123a c416 e440
00000010: 7ad1 6341 6de9 3141 97bd d340 3e82 1241
00000020: 093e 2141 fc9d 4d41 7bde 1541 c4c2 c53a
00000030: cedd 9940 6ecd e741

convblock5.0.weight f4 [16, 14, 3, 3]
-0.011308149 0.024106443 0.05770106 -0.04867189 -0.11855686 -0.01668198 0.02101575 0.0069451528
0.0017333853 -0.012945499 -0.034989472 -0.010881162 -0.037677497 -0.052924998 -0.03203777 -0.032692865
-0.011525824 -0.0012764209 0.00018448521 -0.00036746234 -0.00063777115 -8.130671e-05 -0.0007092799 9.4583804e-05
-0.0003535481 -0.00043907049 -0.00028381302 -0.008763968 -0.05832039 -0.13171653 -0.003925686 -0.05930747
-0.10767258 -0.009281935 -0.034315992 -0.04561873 0.004356416 0.49418935 0.054752942 -0.04245186
0.010944087 -0.0015703397 -0.010821409 -0.15518662 -0.24877197 0.003632935 -0.009853385 -0.012091813
0.02580971 0.005817573 -0.005961281 0.036500096 0.009488495 -0.010975173 -0.037644435 -0.102213174
0.01935612 -0.07231437 -0.04756276 -0.003251738 -0.051148526 -0.029563323 -0.013040143 0.011058268
0.010525839 -0.013008196 -0.0102055 0.0055810083 -0.017878834 -0.0056218146 -0.016641483 0.015567647
-0.040028095 -0.007932912 0.036663633 -0.017429918 -0.012539131 -0.009499013 -0.053592782 -0.0003303001
-0.0034913223 -0.002070982 -0.011565139 -0.022080023 -0.002676654 0.012772945 0.021073112 0.008820778
0.23351558 0.22649461 -0.029210849 -0.015618633 0.018076492 0.0018374695 0.0066829706 0.08413483
-0.012565055 -0.00029115297 0.055709716 -0.00024045004 7.7555866e-05 -0.00015859904 1.3537641e-05 -8.11345e-05
5.3700464e-06 -0.00012677297 -0.00015706725 0.00017494084 -0.029553385 -0.00907451 0.007743912 -0.011448493
-0.020392785 -0.016176004 0.30002144 -0.010548505 -0.031052984 -0.03234349 -0.013546068 -0.002838132
-0.014922733 -0.07381047 -0.1267613 0.6052734 0.0030723307 -0.04614955 -0.16220732 -0.05531653
0.034235783 -0.029540941 0.013198333 0.035971895 -0.03330883 0.00895076 0.040115803 0.1885117
0.021272834 -0.0007978734 0.034716316 -0.011047827 -0.056015078 -0.0024917328 -0.016172664 -0.014909017
-0.00054962 -0.0003643232 7.375267e-05 -0.00011488491 0.0004526163 -0.00020747643 0.00019259089 0.00046660283
0.00068741024 -0.020500204 -0.019562365 -0.014363739 -0.02299696 -0.020211836 -0.25668165 -0.011459612
-0.02111242 -0.20346302 0.032883696 -0.0020156635 0.033876102 0.008815232 -0.026888516 -0.018920496
0.0024409816 -0.014084789 -0.0016117607 -0.07648665 -0.009521136 -0.031091638 -0.038728375 -0.0069095376
-0.008063956 -0.014661226 -0.0055338065 -0.015149505 0.31698376 0.07759726 -0.006973913 0.009638774
-0.004049643 -0.03887642 0.0028727695 0.004478289 -0.031092333 0.018414121 -0.0006161879 -0.015059509
0.013874524 -0.010099474 -0.01642235 0.007321132 -0.0023579139 -0.014359132 0.07669935 0.21421753
0.5875899 0.017097741 -0.016414367 -0.010604837 -0.008255075 -0.08022447 -0.07841702 -0.06989943
-0.020352086 0.035250723 -0.042748865 0.021452207 0.20414904 -0.0437858 0.020746173 0.12319835
-0.025899678 -0.034507398 -0.08225148 0.000861234 -0.013253646 -0.028866505 -0.00519721 -0.022767141
-0.072074145 0.00021361712 0.00025343074 0.00015876151 -0.0009773803 6.43993e-05 0.00034362654 -2.593612e-05
-0.00026380483 0.0001157101 -0.018220175 -0.029486325 -0.012879702 -0.070338406 -0.027582504 -0.03420713
0.0077446336 0.007931401 -0.0084293485 -0.012966117 0.005372333 0.023378173 0.002611308 0.015357986
0.018505784 0.08659406 0.09386269 0.021261344 0.020846926 -0.00021604478 0.030764204 0.038964815
00000000: d145 39bc e07a c53c f257 6c3d 2d5c 47bd
00000010: f0cd f2bd a6a8 88bc 3929 ac3c 2a94 e33b
00000020: c232 e33a 5c19 54bc 1f51 0fbd e746 32bc
00000030: b853 1abd e2c7 58bd 093a 03bd f4e8 05bd
00000040: cfd6 3cbc 944d a7ba 5f72 4139 f6a7 c0b9
00000050: 1930 27ba 3583 aab8 f8ee 39ba 4b5b c638
00000060: 6c5c b9b9 0b33 e6b9 bdcc 94b9 bf96 0fbc
00000070: 5ce1 6ebd b3e0 06be 0aa3 80bb 64ec 72bd
00000080: 7183 dcbd 4213 18bc ed8e 0cbd b5da 3abd
00000090: 44c0 8e3b 6306 fd3e 9f44 603d 00e2 2dbd
000000a0: d44e 333c dbd3 cdba 474c 31bc 3ee9 1ebe
000000b0: 14be 7ebe 8916 6e3b 1870 21bc bd1c 46bc
000000c0: e36e d33c 57a1 be3b d956 c3bb 2081 153d
000000d0: a275 1b3c 36d1 33bc 0d31 1abd 2455 d1bd
000000e0: ba90 9e3c 8e19 94bd 2bd1 42bd 1c1b 55bb
000000f0: 1e81 51bd c82e f2bc 53a6 55bc bd2d 353c
00000100: 9274 2c3c 5420 55bc f834 27bc e4e0 b63b
00000110: a276 92bc 3337 b8bb b853 88bc 720f 7f3c
00000120: 80f4 23bd 0bf9 01bc 9b2c 163d 30c9 8ebc
00000130: ed70 4dbc c0a1 1bbc 1b84 5bbd 212c adb9
00000140: abce 64bb 50b9 07bb b57b 3dbc 2ae1 b4bc
00000150: cd6a 2fbb 9d45 513c 85a1 ac3c 0685 103c
00000160: b51e 6f3e 34ee 673e 974b efbc 4be5 7fbc
00000170: 2715 943c 3fd7 f03a d2fc da3b e24e ac3d
00000180: a9dd 4dbc e4a5 98b9 df2f 643d 5121 7cb9
00000190: 7da5 a238 9b4d 26b9 ba1f 6337 c126 aab8
000001a0: 5930 b436 5cee 04b9 6bb2 24b9 5370 3739
000001b0: f119 f2bc 41ad 14bc a4c0 fd3b 7692 3bbc
000001c0: c50e a7bc 8a83 84bc 699c 993e a3d3 2cbc
000001d0: d462 febc 9b7a 04bd 54f0 5dbc f4ff 39bb
000001e0: 7b7e 74bc f229 97bd b7cd 01be 33f3 1a3f
000001f0: 2859 493b 4f07 3dbd ad19 26be 9693 62bd
00000200: d23a 0c3d d8ff f1bc d23d 583c 4457 133d
00000210: d76e 08bd 35a6 123c 7850 243d 3609 413e
00000220: 5e44 ae3c 6128 51ba b232 0e3d f201 35bc
00000230: 1170 65bd 574c 23bb 897c 84bc f344 74bc
00000240: 6014 10ba a202 bfb9 aaab 9a38 5eee f0b8
00000250: 224d ed39 088e 59b9 39f2 4939 5fa2 f439
00000260: 5233 343a 0bf0 a7bc 4141 a0bc e355 6bbc
00000270: 1f64 bcbc 4b93 a5bc c76b 83be 19c1 3bbc
00000280: f4f3 acbc 9c58 50be 0eb1 063d 3919 04bb
00000290: abc1 0a3d c36d 103c 4e45 dcbc 28ff 9abc
000002a0: e0f8 1f3b e3c3 66bc b741 d3ba 08a5 9cbd
000002b0: 8afe 1bbc e4b3 febc a5a1 1ebd 6769 e2bb
000002c0: af1e 04bc a435 70bc ef54 b5bb a135 78bc
000002d0: b24b a23e 50eb 9e3d 6c85 e4bb f3eb 1d3c
000002e0: deb2 84bb e23c 1fbd 1345 3c3b 9cbe 923b
000002f0: 59b5 febc 36d9 963c ac87 21ba 29bc 76bc
00000300: f951 633c 4478 25bc 2a88 86bc 1be6 ef3b
00000310: 3b87 1abb 9142 6bbc 8c14 9d3d d75b 5b3e
00000320: 4b6c 163f 9010 8c3c 6c77 86bc e9bf 2dbc
00000330: 4b40 07bc ba4c a4bd 1a99 a0bd 6f27 8fbd
00000340: 6bb9 a6bc 1063 103d 6f19 2fbd 8abc af3c
00000350: 720c 513e bd58 33bd e1f3 a93c 6b4f fc3d
00000360: 902b d4bc a157 0dbd 7773 a8bd 6fc4 613a
00000370: d225 59bc 7379 ecbc 5b4d aabb 2882 babc
00000380: 9c9b 93bd 69fe 5f39 e6de 8439 3879 2639
00000390: 711b 80ba 1c0e 8738 c628 b439 6591 d9b7
000003a0: 494f 8ab9 63a9 f238 7a42 95bc 4e8d f1bc
000003b0: 6305 53bc 950d 90bd b4f4 e1bc c71c 0cbd
000003c0: b2c6 fd3b b5f2 013c 401b 0abc d66f 54bc
000003d0: 650a b03b 9583 bf3c 7a22 2b3b 10a0 7b3c
000003e0: 7199 973c 3a58 b13d 153b c03d 452c ae3c
000003f0: 2cc7 aa3c 148a 62b9 3605 fc3c 9299 1f3d

convblock5.2.weight f4 [16]
1.3242997 1.3416846 1.7313749 1.2375118 3.897508 1.49397 1.2636307 1.3437241
1.3197482 1.6619674 0.118867 1.1165415 1.7027996 2.1149955 1.4046587 2.3550928
00000000: a782 a93f 52bc ab3f b19d dd3f c966 9e3f
00000010: c570 7940 693a bf3f a7be a13f 27ff ab3f
00000020: 82ed a83f 59bb d43f 8b70 f33d d5ea 8e3f
00000030: 56f5 d93f 165c 0740 dbcb b33f d7b9 1640

convblock5.2.bias f4 [16]
-0.042633615 0.16867386 -0.15406753 -0.5585228 2.7491643 -0.4994075 -0.27698857 -0.41323733
-0.23806946 -0.54793006 -0.057266444 -0.23204307 -0.48398504 1.0977031 -0.4833722 0.9959898
00000000: 96a0 2ebd d7b8 2c3e e1c3 1dbe 5afb 0ebf
00000010: 4ff2 2f40 57b2 ffbe 72d1 8dbe d893 d3be
00000020: 7bc8 73be 2545 0cbf 3890 6abd b39c 6dbe
00000030: e3cc f7be 8981 8c3f 907c f7be 30f9 7e3f

convblock5.2.running_mean f4 [16]
0.72871035 0.5676261 2.6227496 0.62935907 1.8107873 1.9332321 0.2951031 0.23635885
0.50810283 2.834648 0.0128481295 0.49372977 1.4718804 1.5501372 1.7113405 0.5336337
00000000: c38c 3a3f f24f 113f 21db 2740 ad1d 213f
00000010: e1c7 e73f 2674 f73f c117 973e 0e08 723e
00000020: 0713 023f df6a 3540 f680 523c 26ca fc3e
00000030: 9466 bc3f e56a c63f 350d db3f 389c 083f

convblock5.2.running_var f4 [16]
2.0351603 1.9083444 7.535953 2.15974 6.99001 5.8279777 0.81412655 0.84187055
1.5270598 11.216543 0.0003485007 1.7443118 7.7567577 3.95387 7.4704385 1.9700996
00000000: 1140 0240 a144 f43f 8726 f140 2e39 0a40
00000010: 29ae df40 cb7e ba40 996a 503f d484 573f
00000020: b276 c33f f676 3341 f9b6 b639 9c45 df3f
00000030: 5c37 f840 350c 7d40 d50d ef40 392c fc3f

convblock6.0.weight f4 [16, 16, 3, 3]
0.014222726 0.10194719 0.07595428 0.0041577076 0.069813594 0.067441076 0.043205436 0.010011963
0.026660778 -0.004844921 -0.0023882764 -0.1983779 0.0007519653 0.0011729378 0.005501421 0.0384119
0.009259377 0.0062752645 -0.06527771 0.04159806 0.025027825 0.02782721 0.052257817 0.057143178
0.00093761494 0.0116837835 0.023413891 0.00046692544 0.0036472154 -0.0058576535 0.007720418 -0.018534504
-0.03085316 -0.0048169065 0.0040212646 0.0042662336 -0.053037457 0.00506998 -0.35582986 -0.03743291
0.01860842 -0.03622456 -0.12694612 -0.11940104 0.019094374 0.0064450623 -0.013864718 -0.2008566
0.026633304 0.030504499 0.022367043 0.03407181 0.14315085 0.46590254 -0.029452022 -0.04572748
-0.14817315 -0.028770171 -0.023169052 -0.004329558 -0.035752937 -0.025913607 -0.007437422 0.017663268
0.02739521 0.018141087 0.052248936 0.003955955 0.0012761785 0.014328301 0.016949356 0.0056047137
0.00026738553 0.003154669 0.010270991 0.11536496 0.067604825 0.061927598 0.14730044 0.040887743
0.1963766 -0.1312263 -0.078566454 -0.03554216 -0.05957835 -0.043662556 -0.024547268 -0.0064058076
-0.025916995 -0.07367531 -0.00076032523 -1.3586314e-05 -0.00024236873 -4.4951306e-05 -0.0004391715 0.00021840163
-0.00071110745 -0.00034607042 -0.00064529205 -0.015104822 -0.010758824 0.003140019 -0.018876752 -0.004861113
0.0032734885 -0.0060244063 0.002290116 0.0651352 0.09645718 0.0078062224 0.028246626 0.034572523
0.014885426 0.0004895096 0.14656585 0.017834356 -0.018092543 0.09983677 0.040716212 0.054035634
-0.010559333 -0.008341483 -0.016789263 -0.1748673 -0.023633664 -0.017913327 0.9427241 0.116790995
0.019201694 0.1331707 0.0019151712 0.018998126 0.00708449 -0.0123058045 0.024034765 -0.061686542
-0.22207046 -0.18141724 -0.05486438 -0.06465019 -0.080428176 0.001278832 -0.0016228799 0.0022494204
-0.010575641 -0.011440614 -0.015880628 -0.019603822 -0.05548914 -0.043205913 -0.02629533 -0.05197439
-0.04336412 -0.008660484 -0.009191208 -0.013212387 -0.0066296877 -0.009783352 -0.013239137 -0.00064290815
-0.018386506 -0.022419363 -0.007850326 -0.011022424 0.00039109596 0.05520579 -0.01359348 -0.005955295
0.0054319603 -0.0074077514 0.00242272 -0.0030409684 -0.00036720617 -0.0057907654 -0.0073188925 3.3663175e-05
-0.0023585465 0.011727947 0.01384997 0.006424441 -0.06371564 -0.04549746 -0.060616482 -0.017494885
-0.03317631 -0.04879296 -0.03929638 -0.058074668 -0.28898242 0.015844133 0.006462055 0.005064203
0.03585406 0.024010792 0.01975357 0.035301015 0.022492928 0.011999542 -0.008792948 -0.009087391
-0.008516444 -0.007565188 -0.009769658 -0.005896902 0.00424137 0.0003260098 -0.0031511667 -0.004151357
0.007303098 0.016870156 0.0016236097 0.0027329572 0.0016385701 0.0064479625 0.007314652 0.009541811
0.010821957 0.22814952 0.16589527 0.0055948943 -0.002719407 0.014069022 -0.009136074 0.0012026497
0.008652609 0.022459278 -0.0061061555 -0.004455013 -0.006989799 -0.016977116 -0.019003114 -0.00923796
-0.004255099 -0.0008641742 -6.707431e-05 -0.00034905627 0.00025724206 -5.468482e-06 0.0008672734 0.00088458543
0.0018869825 0.00043208507 0.00096712733 -0.0011075138 -0.005529582 -0.009033575 -0.006747856 -0.0005472614
0.00091061 -0.0098664025 -0.004876438 0.019634522 -0.00271422 0.019235868 0.028139237 -0.055579517
00000000: 7006 693c b0c9 d03d eb8d 9b3d 613d 883b
00000010: 6efa 8e3d 8c1e 8a3d 2ff8 303d 3709 243c
00000020: b467 da3c 25c2 9ebb a184 1cbb 9423 4bbe
00000030: 891f 453a 43bd 993a 4445 b43b cc55 1d3d
00000040: a4b4 173c bca0 cd3b 52b0 85bd ba62 2a3d
00000050: 2707 cd3c e4f5 e33c 4b0c 563d f70e 6a3d
00000060: 46ca 753a 576d 3f3c 7dce bf3c accd f439
00000070: 1f06 6f3b 8ff1 bfbb 8ffb fc3b acd5 97bc
00000080: c4bf fcbc 24d7 9dbb d0c4 833b c3cb 8b3b
00000090: ce3d 59bd 1322 a63b 552f b6be 4053 19bd
000000a0: af70 983c 3460 14bd 2afe 01be 8888 f4bd
000000b0: ce6b 9c3c 1a31 d33b d828 63bc 5aad 4dbe
000000c0: 162e da3c 92e4 f93c 173b b73c e28e 0b3d
000000d0: 2396 123e c78a ee3e 5e45 f1bc bd4c 3bbd
000000e0: b4ba 17be 6caf ebbc 06cd bdbc f7de 8dbb
000000f0: ac71 12bd c648 d4bc 9eb5 f3bb 8fb2 903c
00000100: eb6b e03c 9e9c 943c fb02 563d f5a0 813b
00000110: 7245 a73a 40c1 6a3c 60d9 8a3c bfa7 b73b
00000120: e12f 8c39 90be 4e3b a947 283c 7744 ec3d
00000130: 6674 8a3d cba7 7d3d edd5 163e e879 273d
00000140: f316 493e 3060 06be 73e7 a0bd a894 11bd
00000150: 6e08 74bd 82d7 32bd 5a17 c9bc cfe7 d1bb
00000160: e14f d4bc 15e3 96bd 9050 47ba c6f0 63b7
00000170: 5c24 7eb9 198a 3cb8 9a40 e6b9 be02 6539
00000180: 9d69 3aba c970 b5b9 d128 29ba 377a 77bc
00000190: c745 30bc c7c8 4d3b 6ba3 9abc f949 9fbb
000001a0: 0688 563b 6268 c5bb c515 163b 9b65 853d
000001b0: 588b c53d 57cb ff3b 7865 e73c eb9b 0d3d
000001c0: 00e2 733c 6f52 003a 5c15 163e 5b19 923c
000001d0: d036 94bc 3877 cc3d 0bc6 263d 7854 5d3d
000001e0: 0d01 2dbc b7aa 08bc a389 89bc 6a10 33be
000001f0: 639b c1bc f8be 92bc 5e56 713f 1e30 ef3d
00000200: df4c 9d3c e65d 083e 7b06 fb3a f5a1 9b3c
00000210: 0225 e83b 499e 49bc 8ee4 c43c 07ab 7cbd
00000220: 7066 63be 71c5 39be 79b9 60bd 5267 84bd
00000230: 87b7 a4bd 7b9e a73a d0b6 d4ba 036b 133b
00000240: 7445 2dbc 6a71 3bbc 1718 82bc 3298 a0bc
00000250: 9548 63bd aff8 30bd 4e69 d7bc 19e3 54bd
00000260: 939e 31bd b4e4 0dbc b896 16bc c578 58bc
00000270: da3d d9bb 5a4a 20bc f7e8 58bc d688 28ba
00000280: 4c9f 96bc d0a8 b7bc a79e 00bc 6697 34bc
00000290: 030c cd39 771f 623d 30b7 5ebc a324 c3bb
000002a0: 96fe b13b b9bc f2bb 7fc6 1e3b fc4a 47bb
000002b0: 9485 c0b9 76c0 bdbb 52d3 efbb 8f31 0d38
000002c0: d891 1abb 9326 403c fcea 623c 1e84 d23b
000002d0: 587d 82bd 8b5b 3abd fd48 78bd 6f51 8fbc
000002e0: e2e3 07bd 20db 47bd 3ef5 20bd b4df 6dbd
000002f0: 81f5 93be 8ecb 813c a5bf d33b 9df1 a53b
00000300: b5db 123d 48b2 c43c 3dd2 a13c cc97 103d
00000310: 1743 b83c ba99 443c 4c10 10bc 48e3 14bc
00000320: 8e88 0bbc 66e5 f7bb ea10 20bc cd3a c1bb
00000330: 31fb 8a3b 4bec aa39 ce83 4ebb 1b08 88bb
00000340: d44e ef3b 4833 8a3c 4dcf d43a 6a1b 333b
00000350: 4ac5 d63a 6e49 d33b c0af ef3b 4255 1c3c
00000360: 944e 313c 07a0 693e 73e0 293e 6055 b73b
00000370: 1438 32bb c181 663c 79af 15bc 3aa2 9d3a
00000380: acc3 0d3c 85fc b73c 2516 c8bb 5cfb 91bb
00000390: af0a e5bb 9813 8bbc 6bac 9bbc d05a 17bc
000003a0: 5c6e 8bbb c089 62ba 3faa 8cb8 8a01 b7b9
000003b0: 72de 8639 e77d b7b6 bc59 633a 86e3 673a
000003c0: a054 f73a 7a89 e239 d186 7d3a ff29 91ba
000003d0: 7f31 b5bb 8f01 14bc 1e1d ddbb 1776 0fba
000003e0: 01b6 6e3a b1a6 21bc 87ca 9fbb 94d8 a03c
000003f0: 0ee1 31bb 8a94 9d3c 4284 e63c 59a7 63bd

convblock6.2.weight f4 [16]
5.377781 4.377489 6.7327037 7.152728 5.4882035 6.9889674 4.2211385 3.9472115
6.247675 7.2762675 1.4126556 5.7538757 5.1630025 6.247675 6.095256 5.012325
00000000: c816 ac40 6414 8c40 4f72 d740 26e3 e440
00000010: 5d9f af40 9fa5 df40 9113 8740 1d9f 7c40
00000020: f4ec c740 2fd7 e840 e6d1 b43f c01f b840
00000030: 5137 a540 f4ec c740 560c c340 f764 a040

convblock6.2.bias f4 [16]
0.0052632093 0.46886495 0.48472938 0.6537902 0.14370966 1.110288 -0.020736042 -0.68831915
0.27991772 0.9781929 0.019351715 -0.19206123 0.5815287 0.46599764 0.8625173 -0.24556996
00000000: 0077 ac3b 110f f03e 732e f83e cb5e 273f
00000010: a028 133e eb1d 8e3f a2de a9bc af35 30bf
00000020: 6051 8f3e da6a 7a3f 7d87 9e3c b3ab 44be
00000030: 11df 143f 3e97 ee3e efcd 5c3f b176 7bbe

convblock6.2.running_mean f4 [16]
0.6038052 0.5564211 0.23514561 0.5875075 0.51936775 1.2142206 0.47972432 0.52856386
0.6841178 0.66984195 0.14583525 0.59795755 0.44954035 0.48449212 0.37715304 0.5164901
00000000: fa92 1a3f 9d71 0e3f 03ca 703e e466 163f
00000010: 49f5 043f 956b 9b3f 6d9e f53e f64f 073f
00000020: 5822 2f3f c37a 2b3f d655 153e bf13 193f
00000030: 272a e63e 5a0f f83e 341a c13e b238 043f

convblock6.2.running_var f4 [16]
2.5212574 1.688812 0.9078078 2.855162 2.3391647 6.483536 1.1271119 1.1004002
2.9163349 3.9723344 0.036758814 3.2341592 2.035688 1.6507558 2.2350693 1.9316486
00000000: 485c 2140 fe2a d83f 1866 683f f9ba 3640
00000010: e0b4 1540 2079 cf40 3445 903f ead9 8c3f
00000020: 3ba5 3a40 ba3a 7e40 6990 163d 77fc 4e40
00000030: b648 0240 f74b d33f 600b 0f40 4340 f73f

convblock8.0.weight f4 [10, 16, 1, 1]
-0.0035801495 0.020877235 -0.3226642 -0.046687987 -0.06209837 0.48836306 -0.07264245 0.11697438
-0.021530222 -0.5545862 -0.0077469307 -0.016376322 0.022945127 0.02816632 -0.082791805 1.5730517
-0.013715559 -0.4667385 -0.0040673576 -0.024965728 0.2318657 -0.69162923 -0.033490285 0.75186217
-0.15485789 -0.03884812 -0.0076021464 -0.009722121 -0.3443124 -0.11658735 -0.07203893 -0.119701594
0.011647864 -0.044024825 0.38390225 -0.57733774 1.2276015 -0.11761307 0.028059876 -0.4135198
0.2515948 0.046454687 0.0027502156 -0.10779512 -0.08434678 0.2950296 0.6018171 -0.11929659
-0.07047145 -0.011035742 1.0239428 1.1572027 -0.008605117 -0.122678846 0.06822115 -0.21366437
-0.0012626225 -0.18755744 -0.007153941 0.076964304 -0.06555985 0.021482952 -0.03994963 -7.153384e-05
1.1099812 0.042224932 -0.2387125 -0.015109227 -0.036835812 -0.45912635 -0.00955155 0.007780688
0.7532848 1.0781614 0.0035267796 -0.06670117 -0.0053040544 -0.80276114 0.010842172 -0.043391585
-0.055787854 0.06239454 -0.6105317 0.8927411 0.023302335 -0.015236697 0.28857097 -0.17638598
-0.32388565 0.23364313 0.011729522 0.6353973 0.8509657 -0.047890827 -0.15225765 -0.025796752
0.49334207 -0.52798295 -0.3426294 0.03948255 0.037536006 0.25101683 -0.40102023 -0.03125784
-0.14936222 -0.3594744 0.0037387013 1.4750124 -0.00035450447 -0.30238855 0.20382164 0.20301807
0.09195985 0.46272886 0.46996918 -0.20783322 0.02758134 -0.7244639 0.046792526 0.0041039493
1.0606303 -0.0489656 0.0052334405 0.051105537 0.0071012997 0.43771243 0.0069796275 -0.26984447
-0.006230765 0.06591915 0.072520666 0.4389248 0.011735521 0.25772104 -0.5921955 0.07140901
-0.14851578 0.6771353 0.006661555 0.07310825 0.28441906 0.023549912 1.3771709 0.20825857
-0.16763242 -0.008830715 -0.04708074 0.0639017 -0.32621354 0.6717258 -0.020014154 0.019452259
0.80778795 1.2971565 0.01593228 -0.003440082 0.045460172 0.100263745 -0.30894345 -0.07100307
00000000: f1a0 6abb bc06 ab3c 3e34 a5be e73b 3fbd
00000010: dc5a 7ebd b90a fa3e 91c5 94bd 4490 ef3d
00000020: 2660 b0bc 5cf9 0dbf f7d9 fdbb a327 86bc
00000030: 6bf7 bb3c 0ebd e63c c08e a9bd c259 c93f
00000040: 39b7 60bc 59f8 eebe 7847 85bb ed84 ccbc
00000050: 346e 6d3e 9d0e 31bf 1c2d 09bd 0a7a 403f
00000060: 1193 1ebe 351f 1fbd 6d1b f9bb 8849 1fbc
00000070: b749 b0be 59c5 eebd 2689 93bd 1c26 f5bd
00000080: afd6 3e3c 6053 34bd d68e c43e 68cc 13bf
00000090: 0c22 9d3f 1fdf f0bd d3dd e53c deb8 d3be
000000a0: 09d1 803e 4547 3e3d f63c 343b b0c3 dcbd
000000b0: 01be acbd 1f0e 973e af10 1a3f c551 f4bd
000000c0: 5653 90bd 42cf 34bc 8f10 833f 381f 943f
000000d0: 7afc 0cbc 0c3f fbbd 88b7 8b3d d5ca 5abe
000000e0: 957e a5ba 0f0f 40be 9b6b eabb 769f 9d3d
000000f0: 3e44 86bd 04fd af3c 39a2 23bd 7004 96b8
00000100: dd13 8e3f 0df4 2c3d 0d71 74be b18c 77bc
00000110: 26e1 16bd 9c12 ebbe 1b7e 1cbc 24f5 fe3b
00000120: 46d7 403f 3101 8a3f 8b21 673b 9f9a 88bd
00000130: a2cd adbb c181 4dbf 5ea3 313c 60bb 31bd
00000140: ce81 64bd 6b91 7f3d ce4b 1cbf ae8a 643f
00000150: 8ae4 be3c 57a3 79bc 93bf 933e 879e 34be
00000160: 57d4 a5be 2540 6f3e 2e2d 403c 66a9 223f
00000170: e3d8 593f 2c29 44bd 6ee9 1bbe b653 d3bc
00000180: 5597 fc3e e429 07bf 1f6d afbe 74b8 213d
00000190: 5bbf 193d 4785 803e 8652 cdbe 3908 00bd
000001a0: 69f2 18be 070d b8be 0005 753b 35cd bc3f
000001b0: c9dc b9b9 acd2 9abe 9fb6 503e f8e3 4f3e
000001c0: 7255 bc3d ccea ec3e cd9f f03e 3bd2 54be
000001d0: 43f2 e13c 7776 39bf 85a9 3f3d 6c7a 863b
000001e0: bcc2 873f 2790 48bd 487d ab3b 0a54 513d
000001f0: 05b2 e83b d81b e03e 5cb5 e43b 0e29 8abe
00000200: 722b ccbb 9f00 873d b785 943d c0ba e03e
00000210: 5846 403c 03f4 833e 209a 17bf e33e 923d
00000220: 8514 18be bd58 2d3f 2c49 da3b c7b9 953d
00000230: 609f 913e bfeb c03c 2347 b03f bc41 553e
00000240: d5a7 2bbe b4ae 10bc bcd7 40bd e5de 823d
00000250: 7605 a7be 39f6 2b3f b9f4 a3bc 585a 9f3c
00000260: 31cb 4e3f 3909 a63f 6a84 823c 0073 61bb
00000270: 7234 3a3d 1457 cd3d d62d 9ebe 0f6a 91bd
