S6/Assets/models/model_l1_l2.pth (torch_old, 45318 bytes, 27 tensors)

convblock1.0.weight f4 [16, 1, 3, 3]
000000 2a 29 8d 3e 0e 0e a7 bd 4d 04 c0 be fb 1d 91 3e
       0.27570468 -0.081569776 -0.3750328 0.28343186
000010 b3 35 33 be 97 1a a8 be 58 45 97 3e f8 95 38 be
       -0.17500953 -0.32832786 0.29545093 -0.18025959
000020 8d aa 8c be e8 3a 75 be e1 b0 46 3e b8 83 10 3e
       -0.2747387 -0.23948252 0.19403411 0.14112747
000030 3b 5f b0 be 35 61 f5 3c e3 14 a0 3e 1f 18 f6 be
       -0.34447655 0.029953578 0.31265935 -0.48065278
000040 7f d6 5d be 84 b7 e9 3c 58 75 a6 be a4 89 38 be
       -0.21663855 0.02852989 -0.325114 -0.18021256
000050 d1 d5 e0 3e 60 0e 10 3d b8 8c 03 be 1c 7c d4 3e
       0.4391313 0.03516996 -0.12846649 0.41500938
000060 29 86 9a be b4 68 c3 bd 94 71 7c 3e bc 63 03 3e
       -0.3018048 -0.09541455 0.24652702 0.12831014
000070 02 40 de bd 7d 88 eb bc 42 7a 08 3c 21 dc b8 3e
       -0.10852052 -0.028751606 0.00832993 0.36105445
000080 b3 38 c7 be eb c5 8c 3e dd 07 a0 3e 7b 1c e0 be
       -0.38910446 0.2749475 0.31256 -0.4377173
000090 f3 4a b3 bd 7a d6 ae 3e 71 47 1a 3e 24 db 44 be
       -0.0875453 0.34148008 0.15066315 -0.1922422
0000a0 68 8e 43 bd 22 e5 8d 3e c4 23 ce be 0b 29 18 be
       -0.04774323 0.27713877 -0.40261662 -0.14859407
0000b0 46 fc c2 be f6 cd 48 b8 cd c8 20 be bd 17 3f bf
       -0.38083094 -4.7875532e-05 -0.157016 -0.74645597
0000c0 a4 65 4a 3e fb 8e f5 3e 10 ae ba 3e 96 af 12 be
       0.19765335 0.47960648 0.36460924 -0.14324793
0000d0 c6 3a c9 bc 15 df fb 3c 67 7f 14 be f4 8c dd 3d
       -0.024564158 0.030746022 -0.14501725 0.108179
0000e0 1e 58 48 3e 08 41 94 3e f1 0e ed 3e 2a 12 e3 3d
       0.19564864 0.28955865 0.46300462 0.11087449
0000f0 37 d1 67 be 8b 6c 04 bf fe 7c a0 be 01 a7 b3 bd
       -0.22638403 -0.51728123 -0.3134536 -0.08772088
000100 92 b7 22 3e e2 ce 84 3e 83 36 c8 3d b0 52 36 3e
       0.15890339 0.2593909 0.09776022 0.1780498
000110 1b 8d a9 3e 3b d5 14 3d a9 01 a7 3c e4 86 01 bf
       0.33115467 0.036336165 0.020386534 -0.5059645
000120 55 98 79 be 6b 19 7c bd 30 b4 78 be 76 1f c5 bd
       -0.24374516 -0.061547678 -0.24287486 -0.09625141
000130 fb e2 21 be 22 0d ac bc b4 95 d9 bc af ba f0 3d
       -0.15809242 -0.021002356 -0.026560642 0.11754357
000140 d2 62 b3 3e c2 21 b0 3e b2 79 93 3d ef 10 97 be
       0.3503633 0.34400755 0.07200946 -0.29505107
000150 af f8 0b 3e 64 d5 53 3e 04 ba 5a 3e 90 f4 b9 3b
       0.13669084 0.20686871 0.21360022 0.005674906
000160 89 78 34 bd 90 91 7b 3d b4 66 a5 bd 70 79 6b be
       -0.044060264 0.061418116 -0.0807623 -0.22995543
000170 82 18 a5 be 1d 2e 47 be fc 5a dd bd 05 91 35 3e
       -0.3224526 -0.19451185 -0.108083695 0.17731102
000180 82 5f c5 be bd f8 fd 3d 49 f5 35 3d ab 3a ab be
       -0.3854943 0.12400959 0.044423375 -0.33443198
000190 a7 fc 99 be 57 af 72 3d 23 b2 d9 be e2 96 e9 3e
       -0.3007557 0.05924925 -0.4251872 0.45622927
0001a0 74 ff 37 bc f0 4a 74 3e 2b f0 67 3e 7c 3b 5e bc
       -0.011230338 0.23856711 0.2265021 -0.013563987
0001b0 b6 bb 03 bf ea 4d a3 be d8 18 0c be 1f da 3f 3e
       -0.514583 -0.3189538 -0.13681352 0.1873555
0001c0 82 2c 84 3b f5 93 c9 be 5c 53 3c 3d c8 db c0 3e
       0.004033626 -0.39370695 0.045977935 0.3766768
0001d0 97 cc 46 be b8 e3 32 3e 9f ab 86 3e 45 19 bd bd
       -0.19413982 0.1746968 0.26302812 -0.092333354
0001e0 cd 0f 61 3e b0 ac 48 be 2e 04 e9 be a7 e7 84 be
       0.21978684 -0.19597125 -0.45511 -0.25957987
0001f0 f8 9a ef be 91 f1 b0 3d e0 d7 0d be 52 9c 92 bd
       -0.4679792 0.08639825 -0.13851881 -0.07158722
000200 22 f1 4a be 50 b2 dd bd a2 3e 2d be c8 19 d3 3c
       -0.19818547 -0.10825026 -0.16918424 0.02576913
000210 78 8a ed bd a2 86 0c 3d f8 29 cd be cc 3f b8 be
       -0.115986764 0.034308083 -0.40071082 -0.35986173
000220 48 44 9c bc 23 91 59 be f0 51 d7 bd d9 e1 41 be
       -0.019075528 -0.21246772 -0.10513675 -0.1893381
000230 ac 23 61 3e 3a 40 08 bd ca 21 79 3e 79 c0 e0 3e
       0.21986264 -0.033264376 0.24329296 0.43896845

convblock1.2.weight f4 [16]
000000 a9 6b 97 3f 3a 6c 72 3f 08 d5 7a 3f 18 6c 8c 3f
       1.182973 0.9469639 0.9798131 1.0970488
000010 0e 1b 6e 3f 42 07 80 3f 6d 05 83 3f c4 3e 6e 3f
       0.9301003 1.0002215 1.0236031 0.9306452
000020 4f d1 5c 3f eb 43 4d 3f 5c 6d 75 3f b6 83 89 3f
       0.8625688 0.8018176 0.95869994 1.074332
000030 9c 94 78 3f 34 9b 84 3f 69 9e 65 3f 60 96 77 3f
       0.9710176 1.0359864 0.8969484 0.9671383

convblock1.2.bias f4 [16]
000000 6b 37 6d 3e 1f e3 3d 3e 31 45 4e 3d 07 d0 17 3e
       0.23165672 0.18543671 0.050358955 0.1482545
000010 a2 1f b5 3d 7d 65 07 bc f4 74 3e 3d 95 17 bc 3d
       0.08843924 -0.008263943 0.046498254 0.091841854
000020 b3 de 05 3d d3 41 24 bd ad e3 e0 ba 48 fb 22 3e
       0.032683086 -0.040101837 -0.0017157696 0.15916169
000030 6a 1e 39 be 1e ff c4 3d 7e 7c 26 bd ed 4d 09 3e
       -0.18078008 0.09618972 -0.04064607 0.13408633

convblock1.2.running_mean f4 [16]
000000 72 bf 91 3e f4 88 85 3e db 38 4d 3e 76 d6 2c 3e
       0.28466374 0.2608105 0.2004122 0.16878685
000010 e9 4a 62 3e 64 ee ec 3d e1 53 13 3e 66 ac 71 3e
       0.22098888 0.11568907 0.14387466 0.23600921
000020 69 25 3c 3e 2a f7 87 3e af fd 9d 3e de 0b 22 3e
       0.18373646 0.2655576 0.30857608 0.1582484
000030 ff ad a0 3e a7 8b 94 3e 6f a1 a8 3e 7b 83 3a 3e
       0.31382748 0.29012796 0.32935664 0.18214218

convblock1.2.running_var f4 [16]
000000 b7 8c 23 3e 73 3e c2 3d 88 c6 98 3e f8 be 5e 3e
       0.15971647 0.094845675 0.29838967 0.21752536
000010 25 f6 a2 3d eb 59 10 3e dc c4 3b 3e 29 65 a2 3e
       0.079571046 0.14096801 0.18336815 0.31717804
000020 2d 6a 7e 3d 18 75 a7 3e d2 d1 23 3d 40 41 1e 3e
       0.062112976 0.32706523 0.039995022 0.15454578
000030 5f 62 66 3d f0 76 99 3d 19 c5 44 3d bb 86 76 3e
       0.056246158 0.07493389 0.04803953 0.24074833

convblock2.0.weight f4 [24, 16, 3, 3]
000000 04 d0 d7 3d 24 6d 96 bc cd de b9 3d 98 61 9a 3d
       0.10537723 -0.01836259 0.09075699 0.07538146
000010 bc d4 b0 3d ce a2 86 3d ba 6b a1 3d 29 99 0b 3e
       0.08634326 0.06574021 0.07881875 0.13632645
000020 06 e9 8c 3d 2d 9f f5 3d e3 0c 5e ba fb fe bf bd
       0.06880383 0.11993251 -0.0008470548 -0.093748055
000030 b1 04 3b 3c 39 f5 80 bb 38 41 24 bd db d3 7a bb
       0.011414693 -0.003935483 -0.04010126 -0.0038273248
000040 52 a0 6f 3e b2 bb b0 bd 62 69 a1 bd a8 26 28 bd
       0.23401001 -0.0862955 -0.07881428 -0.04105249
000050 a0 e9 f5 bd ed c9 b6 3d 85 43 e7 bc 52 bf da bd
       -0.12007451 0.08925233 -0.028230438 -0.10681023
000060 bd be c7 3d 45 27 59 3c 5d a3 c7 bd ce 6c a5 3d
       0.09753177 0.0132539915 -0.09747956 0.080773935
000070 a5 f7 ab 3b a4 59 01 3c 6b 3a b9 3c cd 14 86 3d
       0.0052480274 0.007894907 0.022610864 0.06546936
000080 7e 85 69 3d 09 62 a0 3d 2d 84 6e 3d 78 ba 77 3d
       0.057012074 0.07831199 0.05823152 0.060480565
000090 cb db 2a 3c 31 74 9b 3c 8f 7f 27 3c 3c 66 36 3d
       0.010428379 0.018976303 0.010223283 0.044531092
0000a0 0f e7 3b bd 7d b0 15 bd 4f 23 de bc 7f 3d 01 bd
       -0.04587465 -0.036545265 -0.027116446 -0.031552788
0000b0 e6 5a 8e bc 85 27 44 3d 2d 75 6d 3d 24 f5 eb 3d
       -0.017377328 0.04788925 0.057973076 0.11521366
0000c0 f4 f0 44 bc a2 22 ae 3d 43 d3 b4 3d 74 cb 1f 3d
       -0.012020338 0.085026994 0.088293575 0.039012387
0000d0 5b cf a7 3c 32 81 4b 3c 1a 96 ab bd 46 de b9 bd
       0.020484617 0.012420939 -0.08378239 -0.090755984
0000e0 20 f6 b5 bc 71 1b 88 bd a3 c8 94 bd 69 bc 18 3b
       -0.022212088 -0.06645859 -0.07264831 0.002330566
0000f0 46 92 e5 bc 63 e5 db bd c1 dd 96 bd 1b 71 ad bc
       -0.02802385 -0.107371114 -0.07366515 -0.021172097
000100 f9 b1 21 bd 83 81 84 bd 45 b5 c8 bc 85 2f 36 bb
       -0.03947637 -0.06470015 -0.024500499 -0.002779932
000110 bd 56 b4 bd 08 20 3e bb 3a a9 b7 bb b6 fb c7 bd
       -0.088056065 -0.0029010791 -0.00560489 -0.09764807
000120 d5 76 65 bd ec cd 0b 3d 86 14 36 3d e4 97 a5 bd
       -0.05602153 0.03413193 0.044453166 -0.080856115
000130 ee b7 52 3d b4 05 88 3c a5 f7 fa bb aa b7 d2 bc
       0.05144494 0.016604282 -0.007658916 -0.025722343
000140 eb 6c 3f bd db 36 e0 3d ad 10 20 3d 98 87 23 bd
       -0.04673473 0.10947963 0.039078403 -0.039924234
000150 ed be e7 3c 3d f6 8c 3c 6e 7f 13 bd d9 1b 57 3d
       0.028289283 0.01720726 -0.0360102 0.052516792
000160 48 44 43 3d 1e 17 3d 3d 09 bd 83 bd 88 9a 81 3b
       0.04767254 0.046164624 -0.0643254 0.003955189
000170 bd 79 98 3d e0 99 14 be af 7e 06 3d e8 4a 9d bb
       0.07445095 -0.14511824 0.03283566 -0.0048001893
000180 45 8e da bd 8b 34 88 3d 58 f5 71 bc 44 bc 8f be
       -0.10671667 0.06650647 -0.014767967 -0.28073323
000190 e6 ff d2 bc ea 52 63 bc 8e f8 e4 bd fc f5 ac bd
       -0.025756788 -0.013874749 -0.111802205 -0.08445355
0001a0 5c b1 39 bc ba 38 98 3c a8 e2 13 bc 17 d9 94 bd
       -0.01133379 0.018581737 -0.009026207 -0.07267969
0001b0 08 82 d4 3d d0 1c 5f bc 22 60 50 3e 15 1b 40 3b
       0.10376364 -0.013617709 0.20349172 0.0029313017
0001c0 ad 9b b2 3b 4a 47 ce 3d 6f 01 cf bd 8d b9 3f bd
       0.005450687 0.10072191 -0.10107695 -0.046807814
0001d0 2e 80 03 3d 49 4c 07 be ad 06 40 bd 4e 88 f9 bb
       0.032104664 -0.13212694 -0.046881367 -0.0076151257
0001e0 20 4e 15 be 2f 84 00 bd 7e e8 0d 3d c3 6d 00 be
       -0.14580584 -0.03137606 0.03464555 -0.12541871
0001f0 5c 42 54 bd f1 5d 89 3c 9b c6 ca bd 9b 4e bb bc
       -0.051821098 0.016768428 -0.09901162 -0.02286463
000200 51 a5 79 3b 32 e4 e9 bc 77 ec 08 bd ab 73 24 bc
       0.003809292 -0.028551195 -0.033428635 -0.010037343
000210 1d 54 94 bd 12 e1 c4 ba 8c de 65 3c bd 03 34 bd
       -0.07242606 -0.001502069 0.01403011 -0.043948878
000220 4b 7b 86 bc 8c 7d 8f bd 43 ac bd bd 53 19 01 3a
       -0.016416213 -0.07006368 -0.09261372 0.0004924733
000230 5e ac 37 bd 05 ef cc bc e4 62 62 bd c5 b5 52 bd
       -0.044842117 -0.025016317 -0.05527009 -0.05144288
000240 4f e9 6f bd af dc 8f 3d 11 21 c3 3b 05 0a 57 bd
       -0.05857211 0.07024514 0.0059548696 -0.05249979
000250 38 51 17 3d 81 08 85 3d 71 ac 88 bd 4b e4 ae 3c
       0.03694269 0.064957626 -0.066735156 0.021349093
000260 6d 45 46 bd a2 7e c4 3d 39 25 ae ba b2 b8 65 bb
       -0.048406053 0.09594466 -0.001328624 -0.0035052714
000270 14 af 0f 3e 5f c6 70 bd 0e 65 09 bd 8c 6d 08 3d
       0.14031631 -0.05878293 -0.03354364 0.033307597
000280 d4 b4 53 bd 76 29 12 3d 9c 72 5b ba d3 a1 d9 3c
       -0.051686123 0.03568407 -0.0008371265 0.026566422
000290 f0 eb 85 bd 38 82 7c 3d 64 0c 81 3c db ce c0 ba
       -0.06539142 0.061647624 0.015752979 -0.0014710085
0002a0 7b d4 be bc 3f 4f ca bc 71 a4 a7 bc 90 c2 a1 3b
       -0.023294678 -0.02469599 -0.020464154 0.0049365237
0002b0 ff 4d a5 3d c5 7b 9c bd 38 46 c9 bd 6c 85 ec 3b
       0.08071517 -0.07640795 -0.09827846 0.0072180536
0002c0 05 2d 44 bd 2a 01 84 bd d9 f3 ea bd d0 59 36 be
       -0.047894496 -0.064455345 -0.114722915 -0.17807698
0002d0 04 93 a6 3d e8 e9 fc bd 43 cd e1 ba 9e 9b 6d 3d
       0.0813351 -0.123493016 -0.001722731 0.058009736
0002e0 e9 21 96 bc cf 2d 29 3d b8 24 24 3e 13 89 7c 3d
       -0.018326716 0.041303452 0.16029632 0.06165416
0002f0 1f ea 7c 3d ec 81 a0 3c af a6 f5 3c b7 59 2e 3e
       0.061746713 0.019593202 0.029986707 0.17026411
000300 cd 67 a6 bc 49 fa 9d bb 56 77 95 3d ef af 01 be
       -0.020313168 -0.004821096 0.07298152 -0.1266477
000310 67 b3 34 bd 3c 36 68 3c f9 77 bc bd 32 2b f1 bc
       -0.044116404 0.014173087 -0.092025705 -0.029439542
000320 77 04 17 bb 7e 3b 37 bd 69 2a 17 bc 32 bb 02 bd
       -0.0023043433 -0.04473447 -0.00922642 -0.031916805
000330 64 c1 77 3c 55 39 2b bc f5 1a be 3d 4e a1 e7 bd
       0.0151217915 -0.010450681 0.092824854 -0.11310063
000340 a7 ff cc bd fa 21 e4 bc 72 31 ab bb 69 cc 0a bd
       -0.10009699 -0.027848233 -0.0052244 -0.033886347
000350 e7 06 1f bd f9 73 21 bd ac a2 64 bc c5 b9 41 3a
       -0.038824942 -0.03941724 -0.0139548 0.00073900475
000360 5f 38 8c 3c f5 16 af 3d ea 63 b0 3d b0 87 34 bd
       0.017116724 0.085493006 0.08612807 -0.044074714
000370 ab 39 5b bc f6 9c 23 3e 8e e6 97 bd 3d 73 b4 bd
       -0.013380448 0.15977845 -0.07417022 -0.088110425
000380 3a 29 8e bd fd 00 1c be 1d 1a 51 bc 40 4d 8a bb
       -0.06941457 -0.15234752 -0.012762574 -0.0042206347
000390 ac 25 b0 bd 39 0e 20 bd 0b ac b8 bd b1 62 9a bd
       -0.08600935 -0.039076064 -0.090171896 -0.07538355
0003a0 fb 06 db bb 99 ff 84 bd 0e 2f c6 3d 7e b5 08 3d
       -0.0066841817 -0.06494064 0.09676944 0.03337621
0003b0 e4 61 19 3c bd d2 a6 3c d5 84 5f 3c ee fd b8 3d
       0.009361718 0.02036416 0.0136425095 0.09032808
0003c0 5d ee 60 ba 3a 28 c4 3c a5 0c 49 3c 6d e0 82 bd
       -0.0008580441 0.023944963 0.012271081 -0.06390462
0003d0 0e 1e af 3d 0d 14 b0 3d 74 80 b9 bd 42 7c c6 bc
       0.08550654 0.085975744 -0.090577036 -0.024229173
0003e0 ed 81 16 3b 4a 0b 59 be c0 4f 1a be a3 f6 0a be
       0.0022965625 -0.21195713 -0.15069485 -0.13570647
0003f0 0f 4e 83 3c c2 6d 31 3a 0a e0 8d bd e9 02 fd 3c
       0.016028432 0.00067683693 -0.06927498 0.030885177

convblock2.2.weight f4 [24]
000000 fd f1 89 3f 9b f6 7a 3f 28 72 7c 3f ff cd 75 3f
       1.0776974 0.9803254 0.9861169 0.9601745
000010 bf 74 85 3f 76 31 75 3f 5e 78 89 3f 35 c3 65 3f
       1.0426253 0.95778596 1.0739858 0.8975099
000020 68 75 71 3f 76 ec 6b 3f de 4a 5d 3f 24 04 85 3f
       0.9431977 0.92157686 0.86442363 1.0391889
000030 d2 4c 85 3f 90 84 68 3f 3f 7a 7b 3f 91 f5 82 3f
       1.0414069 0.90827274 0.9823341 1.0231191
000040 b0 68 6e 3f 3c c0 6c 3f ca 1e 80 3f 8a 3a 81 3f
       0.9312849 0.92480826 1.0009396 1.009599
000050 7f a5 80 3f ad 8e 7f 3f 91 45 6f 3f 8e f0 68 3f
       1.0050505 0.9982708 0.93465525 0.9099206

convblock2.2.bias f4 [24]
000000 23 d8 d7 3d ec 0f e8 3d fe d1 ad bd 8e fe 30 be
       0.10539272 0.11331162 -0.084873185 -0.17284605
000010 6c 49 c4 3d db 08 f9 3d 00 32 cd 3d 31 9d 4b be
       0.095843166 0.12159892 0.10019302 -0.19884183
000020 dc de f4 3d 18 2c 45 bd 70 1d e4 bd 0c e9 ff bd
       0.119565696 -0.048137754 -0.11138427 -0.12495622
000030 73 9e 72 3c 79 20 4d be 6a 1d b3 3d 86 b2 a9 3e
       0.014808285 -0.20031919 0.08745845 0.33144015
000040 85 2a 40 3e de 0a 33 be 50 7b c0 bc e7 29 5b 3d
       0.1876622 -0.17484614 -0.0234963 0.053506758
000050 40 ac 0f 3e 67 29 c3 3d f1 42 06 be 82 f7 53 3e
       0.14030552 0.09529381 -0.13111474 0.20699885

convblock2.2.running_mean f4 [24]
000000 b0 3f ed 3e e3 bd 09 3f e3 84 c1 3e b8 94 00 3f
       0.46337652 0.5380537 0.37796697 0.50226927
000010 3e 36 15 3f b9 e8 0c 3f 17 41 7f 3e ad 43 06 3f
       0.5828589 0.55042607 0.24927174 0.52447015
000020 22 08 00 3f 93 b7 b9 3e 28 18 e3 3e 07 97 b1 3e
       0.5001241 0.3627287 0.44354367 0.34685537
000030 55 75 39 3f 06 b1 93 3e 42 6c f4 3e 5d ad ff 3e
       0.7244466 0.28845996 0.47738844 0.49936953
000040 5c 66 ec 3e fe f7 ce 3e 3e 68 ca 3e e6 56 91 3e
       0.46171844 0.40423578 0.39532655 0.2838661
000050 51 a2 d0 3e 64 4e e1 3e 04 d4 ce 3e dc 7f 00 3f
       0.40748838 0.4400512 0.4039613 0.501951

convblock2.2.running_var f4 [24]
000000 38 42 b0 3f c5 74 89 3e 4e 3e 5c 3f af 3e ad 3f
       1.3770208 0.268469 0.8603257 1.3534755
000010 4f 3a bf 3e ac 47 27 3f 1f 7a 19 3f e6 b6 92 3f
       0.37349173 0.6534374 0.59951967 1.1462066
000020 04 20 e7 3e 30 6a 77 3f 25 b4 3c 3f f5 ff ac 3f
       0.45141613 0.96646404 0.7371238 1.3515612
000030 ef ad ee 3f 97 0f b7 3e db 53 b2 3e b7 54 dd 3e
       1.864683 0.35754082 0.34829602 0.43228695
000040 47 98 d8 3e 7c 08 46 3f d2 25 7f 3f 42 d9 5f 3f
       0.42303678 0.77356696 0.99667084 0.87440884
000050 54 74 ab 3e 83 f7 19 3f 79 26 8b 3f 9e e4 12 3f
       0.3348719 0.601433 1.0871116 0.5738009

convblock3.0.weight f4 [10, 24, 1, 1]
000000 04 a7 c4 3d cc ba 75 be a4 46 e0 bc da bd ab 3e
       0.09602168 -0.23997039 -0.027377434 0.33543283
000010 49 91 7f be 68 33 42 3e 57 5d 31 be 19 e9 14 3e
       -0.24957766 0.18964922 -0.17320763 0.14542045
000020 51 8d 2e 3d 71 e3 b3 3d 6b 8e 62 3e 79 d2 75 be
       0.04261524 0.087836154 0.2212464 -0.2400607
000030 7d 75 b8 3e fb 74 2c 3e 59 27 74 be ec b0 8a be
       0.36027136 0.168415 -0.23843135 -0.27088106
000040 c9 31 cd bd 46 ee 11 bd 0b bb 91 bd 09 34 73 be
       -0.100192614 -0.035627626 -0.07115754 -0.23750319
000050 81 18 99 be 01 c4 0c be 3d 72 ed bc 9e 73 5a be
       -0.29901507 -0.13746645 -0.028985137 -0.21333167
000060 90 60 c6 bd 9c ad 83 bc 91 0a b6 3e cd 06 fc ba
       -0.096863866 -0.016073994 0.35554937 -0.0019228101
000070 13 76 2a be f2 8e 14 be 4e a3 94 bd c5 c4 df bd
       -0.16646604 -0.14507654 -0.072577104 -0.10926203
000080 63 0f 85 be 7f 3e a0 be 43 68 62 be ee b0 e8 bc
       -0.25988302 -0.3129768 -0.22110085 -0.02840468
000090 2e f9 fe bd b3 90 87 bd 0f c8 68 3e a2 28 04 3d
       -0.12449871 -0.06619396 0.22732566 0.032265313
0000a0 84 23 c3 3d 52 c0 45 3d 9b 27 a7 bd 21 73 e3 3d
       0.095282584 0.048279114 -0.08161851 0.111059435
0000b0 26 ee 68 3e e3 d5 66 be c5 90 ef bd f9 d9 ca 3d
       0.22747096 -0.22542529 -0.116975345 0.09904856
0000c0 ba 69 07 be 73 c0 0e be a8 d2 b8 bd a4 a4 5e 3e
       -0.13223925 -0.13940601 -0.090245545 0.21742493
0000d0 83 7c 2a be af 33 11 be 6c c2 8c be e1 48 ac ba
       -0.1664906 -0.14179872 -0.27492082 -0.0013144278
0000e0 af 7c 76 be a0 6e 15 be 6e 84 4d be 9b a1 cb 3e
       -0.24071 -0.14592981 -0.20070049 0.39771733
0000f0 c9 f5 1e be 13 33 d2 bd 52 8a 2b bc 85 35 81 be
       -0.15523447 -0.10263648 -0.01046999 -0.25236145
000100 64 b3 f3 bc 49 91 1b 3e f7 1f d5 3c f1 d4 56 3e
       -0.029748626 0.1519214 0.026016219 0.20979668
000110 42 f3 1b be ed eb 59 3d 31 1f 5d 3e 29 58 49 be
       -0.15229514 0.053203512 0.2159393 -0.19662537
000120 f5 72 72 be b5 a9 6e 3e c1 33 81 3d 14 59 ac bc
       -0.23676665 0.23306926 0.063086994 -0.02103857
000130 ff 4e b1 3e 81 19 4f 3e 9a 78 f5 3e 6b e9 8a bd
       0.34630582 0.20224573 0.47943574 -0.06782802
000140 86 1a 02 3e 4f 43 b2 bd bb 20 68 be 87 ba b1 3c
       0.1270543 -0.08704244 -0.22668736 0.021695388
000150 5c 05 a6 bd 82 4b 07 be 71 d7 a9 3e 31 04 de 3d
       -0.08106491 -0.13212398 0.3317218 0.10840643
000160 af 5b 3d bd fa fe 33 bd f7 38 90 be 2e 14 22 be
       -0.046230014 -0.043944336 -0.2816846 -0.1582801
000170 57 16 94 3d 29 03 bf bc a0 d6 c5 3d e7 ca 49 be
       0.072308235 -0.023316937 0.09660077 -0.19706307
000180 21 b4 9e 3d 31 2d 39 3e a3 ac 58 3e dc e0 bd bc
       0.077492006 0.18083645 0.21159606 -0.02317851
000190 47 0e 95 be 50 33 8c bd 68 ba 5b 3c 0b 4b 9c 3e
       -0.29112455 -0.068457246 0.013411142 0.30526003
0001a0 b0 9d 8d 3e e8 98 2f 3e 87 05 2c 3e 1a e3 ab bd
       0.2765937 0.17148173 0.16798984 -0.083929256
0001b0 69 00 ee 3e c0 9a 89 3d f0 2b a5 bd f6 eb 51 3e
       0.46484688 0.06718969 -0.08065021 0.20500168
0001c0 cb e3 e8 bd 4d 50 14 3e 55 58 39 3e ae 8d cd bd
       -0.11371573 0.14483757 0.18100102 -0.10036789
0001d0 74 07 9e 3e 30 74 4a be 2b 59 17 3d e4 1d 00 be
       0.3086506 -0.19770885 0.03695027 -0.12511402
0001e0 76 42 07 3f ae 72 7e be 44 90 90 bb 52 61 5b bc
       0.52835786 -0.24848434 -0.004411729 -0.013389902
0001f0 a4 75 68 bd 4b 2d e0 3b 9d 44 49 3d 0c 5f 74 bd
       -0.056752816 0.006841337 0.0491377 -0.059660956
000200 d6 8b 56 3d de e0 28 be 65 99 96 bd b5 d5 69 be
       0.05237945 -0.1649203 -0.073534764 -0.22835429
000210 8f 92 ca 3b 17 4e c8 3b d2 0d 99 3b 1d c1 c3 3e
       0.006182022 0.0061128247 0.004670837 0.3823327
000220 38 52 49 3d ad bb cd bb 68 f1 dd bc 1c 2e f0 bd
       0.049150676 -0.006278476 -0.02709265 -0.11727545
000230 12 47 a0 3d 71 9b 94 3e 33 10 f5 3b 12 fd c8 ba
       0.078260556 0.29024842 0.0074787377 -0.001533421
000240 42 8d 75 3e bc 71 08 be 96 35 58 be 19 f8 a1 be
       0.23979667 -0.13324636 -0.21114191 -0.31634596
000250 6b da ff 3d bf 2a 7d be 78 5a 74 3e 14 7b 1a 3e
       0.12492832 -0.24723338 0.23862636 0.15086013
000260 90 b0 56 bd 33 58 aa 3e f6 13 a5 3d 37 b2 db 3e
       -0.052414477 0.33270416 0.08060448 0.42909405
000270 04 19 2b be c1 83 8d bb ab 24 0b be 79 9a 5c 3e
       -0.16708761 -0.004318685 -0.13588206 0.21543302
000280 5f 3e 98 be e3 d8 a4 3e 53 8d 82 3d c5 0f ca 3e
       -0.29735085 0.3219672 0.06374612 0.39465156
000290 26 0e c5 bd 8a 50 de bc f7 2f 7a be 77 da 6d 3c
       -0.09621839 -0.027138013 -0.2443236 0.014517418
0002a0 e7 67 89 be 8c a6 2a be 5b 73 94 3e 51 6c 5b 3d
       -0.26837084 -0.16665095 0.2899426 0.053570095
0002b0 9f ae b5 3d 58 8e 80 be 3e 22 52 3e 02 a0 c5 3d
       0.08871197 -0.251086 0.20520875 0.0964966
0002c0 5b 7a 16 be b7 9c 35 be 3c 82 9d bd b9 e4 34 3d
       -0.14695112 -0.17735563 -0.07690856 0.04416344
0002d0 a0 c4 ea bd 23 a3 b1 3e 85 40 18 3d dd 40 60 be
       -0.114632845 0.34694776 0.037170906 -0.21899743
0002e0 5d 50 a2 be c5 0d be 3e b9 d6 39 be 44 44 30 be
       -0.31701937 0.3711988 -0.18148316 -0.17213541
0002f0 e1 bb 09 bd f0 a6 7f 3d e7 29 b4 3e 9c f6 64 be
       -0.03362644 0.062415063 0.3518822 -0.22359699
000300 92 dc 38 be cc 7c 14 be e6 90 ae 3e 27 4b 32 3e
       -0.18052891 -0.14500731 0.34094924 0.17411481
000310 48 88 44 be 22 81 ec 3d 73 34 1b 3e b1 78 3a be
       -0.19192612 0.11548068 0.15156727 -0.18210103
000320 87 1b d4 bd 83 f1 c2 3e f3 b9 85 3e 5a 13 75 3b
       -0.10356813 0.38074884 0.2611843 0.0037395568
000330 fa 9f f4 bc ba 0d b0 3b 70 98 1a 3e b8 f6 31 be
       -0.029861439 0.00537273 0.15097213 -0.17379272
000340 14 df 96 3d 67 3f fa bc 76 cf 1f 3c 9b 80 e4 3d
       0.073667675 -0.03054781 0.009754052 0.11157342
000350 31 61 f0 bd 3b 6f 07 3f 2d db 81 3e c6 1b 12 3e
       -0.11737288 0.529041 0.2536253 0.14268407
000360 cc 8d 36 bb 44 c1 06 bd d0 ca f3 3d ac e7 c1 3d
       -0.0027855514 -0.032899156 0.11903918 0.09468016
000370 98 b3 09 be 94 58 2c be 51 bf 6e 3e df 25 38 3e
       -0.13447416 -0.16830665 0.23315169 0.17983197
000380 07 6c fd bd 82 cf 37 3d 9b 75 3d bd fc 2e 61 3e
       -0.1237412 0.04487563 -0.046254735 0.2199058
000390 cb 1d ce bc 4a 69 a4 bd 11 3c 4a 3e bf b3 2b bd
       -0.02516069 -0.08027895 0.19749476 -0.041919466
0003a0 12 0e 25 3e 19 9d 48 3e 9c cd e6 3e 5f f7 5c 3e
       0.16118649 0.19591178 0.45078743 0.2157874
0003b0 4a f4 78 3e ba ee ee 3c 2e 74 d9 3d 45 f8 53 3e
       0.24311939 0.029166568 0.10617863 0.20700176

convblock4.0.weight f4 [14, 10, 3, 3]
000000 9e 2f dd bd 0a 59 8b bd 99 3d 07 bd a7 47 4a bd
       -0.10800098 -0.06804092 -0.03301773 -0.04938474
000010 d5 68 40 3d 0e 13 94 3d c9 ad 0e 3e 72 dd 33 bb
       0.046974976 0.07230197 0.13933481 -0.0027445224
000020 9a d6 87 3c 60 5d b4 bd a2 d7 98 bd 38 c9 80 bd
       0.016581822 -0.08806872 -0.07463004 -0.062883794
000030 01 23 b8 bd 6e 91 80 bc 6b ed fb bd 2c 0f a7 be
       -0.089910515 -0.015694346 -0.12301143 -0.32628763
000040 7e b4 8c be 3f 5f 72 be 2e e8 73 be 54 a5 f9 bd
       -0.27481455 -0.23669146 -0.23819038 -0.12189737
000050 59 41 90 bd 9f 14 32 be e7 1f 32 bd af c6 a4 bd
       -0.07043714 -0.17390679 -0.043487456 -0.080457084
000060 36 60 4e bc 1c 41 94 bd 55 0b ed bd 32 27 63 3e
       -0.012596181 -0.07238981 -0.11574427 0.2218292
000070 93 0c 5e 3e 32 94 2b 3e 4e 96 dc bc 1a 2f bb 3d
       0.21684484 0.16755751 -0.02692714 0.09139843
000080 1e 24 fb bc 0c 00 e4 bb 1d 7e 60 3d df e6 e1 3c
       -0.03065687 -0.0069580134 0.05480777 0.027575908
000090 0e 71 15 3d d5 c2 89 3d 77 eb 1f be 54 76 f9 3d
       0.03648477 0.067266144 -0.15617166 0.121807724
0000a0 b2 8a 07 bd 0c b2 63 3d e6 96 39 3e 70 58 0e 3d
       -0.033091255 0.05558972 0.1812397 0.03475231
0000b0 8f 6d 46 3e b4 7e 36 3e 3a 16 8f 3d 10 52 dd 3c
       0.19377731 0.17821771 0.06986661 0.02701667
0000c0 3f 50 34 ba 36 1c 5f bd 76 ee 19 be 0d 14 21 3e
       -0.00068784127 -0.054470263 -0.15032372 0.15730305
0000d0 12 90 c5 bd 39 bd d1 3c b9 da c9 3d a6 fe 0a 3d
       -0.0964662 0.025602924 0.09856171 0.033934258
0000e0 0c 34 d4 3d 51 fd 62 3d 6f aa cb bd cd f8 2f bd
       0.1036149 0.055417363 -0.09944617 -0.042961884
0000f0 7e 27 44 3c 3c 2e 2a 3d fb d2 21 3d 61 1c 8f bd
       0.011972306 0.041548 0.039507847 -0.06987835
000100 aa 06 e7 3b 6a c4 ef bd 57 99 32 3c 4e 0d 0f 3e
       0.007050355 -0.11707385 0.010900817 0.13969919
000110 88 0e 29 bc 33 14 a8 3c ed bc ab bd 3a a1 10 bd
       -0.010318406 0.020517444 -0.08385644 -0.035310008
000120 20 14 ff bd 35 38 f1 3c eb be 7e bd 14 b9 a4 bd
       -0.124550104 0.029445747 -0.062193792 -0.08043113
000130 e0 2d 81 3d d9 5e 3c 3d 0b 67 cf bd 51 be 0a bc
       0.06307578 0.04598889 -0.10127076 -0.0084682265
000140 5f a7 22 bd 9f c9 22 be f2 b4 a1 bd 88 09 56 be
       -0.0397104 -0.15897225 -0.07895841 -0.20902073
000150 ec 44 04 bc 5c 9d de bc 30 76 ba bc 91 ff 04 be
       -0.008073073 -0.027174644 -0.022761434 -0.12988116
000160 e7 c8 34 bc 48 16 34 bc 56 76 44 be b5 32 cb bd
       -0.011034227 -0.01099164 -0.19185767 -0.09921781
000170 8f 24 a7 ba ef a0 0e be ba d0 b6 bc aa 8b 91 3d
       -0.0012751984 -0.13928579 -0.022316325 0.07106717
000180 48 5a 1c 3e a0 63 31 3e ce 36 99 3e d3 8b a4 3d
       0.15268815 0.1732316 0.29924625 0.08034482
000190 23 6d 83 3d 28 19 91 3d 08 0d de bd 6f 48 3c bc
       0.064173006 0.07084876 -0.10842329 -0.011491879
0001a0 30 7d da bc ac ed ae bc 3a 9c fc bd 5b a7 f9 bd
       -0.026671022 -0.021353565 -0.12334485 -0.12190124
0001b0 7c 16 48 3d bf 07 1b 3e 13 16 03 3e 22 50 08 3e
       0.048849568 0.15139674 0.1280139 0.13311818
0001c0 31 ec e8 3d 8e 36 e8 3d dd 63 a7 3d 2b 25 1d bc
       0.11373175 0.113385305 0.08173344 -0.009591381
0001d0 7c d4 0f 3b 46 c0 30 3e 5a 03 a8 3d c8 37 bf 3d
       0.002194672 0.17260846 0.08203764 0.09336811
0001e0 dd 03 3e 3e c2 78 11 3d db 68 4c bd 65 5a 0d 3d
       0.18556161 0.035515554 -0.049904685 0.034510035
0001f0 b0 d9 78 bd 4c fe 22 be d3 4d ea bc d3 d1 ef bb
       -0.060754478 -0.15917319 -0.028601563 -0.007318714
000200 d6 5e 25 3e 07 b9 2b bc 4f be a0 bc 5c d7 8b 3e
       0.16149458 -0.010481126 -0.019621996 0.27312744
000210 62 85 1d 3e 61 fc bb 3d a1 34 1c 3e 33 51 d1 3c
       0.15382913 0.09178997 0.15254451 0.025551414
000220 72 33 01 bd 7b 76 11 3e 5b 25 3d 3c a4 fb 5b bd
       -0.031543203 0.14205353 0.011544551 -0.05370678
000230 3b dd d2 3d f2 9c f4 3a c8 c2 bb bc 3b f0 83 3d
       0.102961026 0.0018662496 -0.022920027 0.06442305
000240 77 7d b7 3d 8e 67 58 bb 0a 8b 81 3d d4 8d 06 3e
       0.089594774 -0.0033020708 0.06325348 0.1314004
000250 8b 2f 28 ba ef 06 fc bc 2d 27 94 3c dc 93 a6 3a
       -0.0006415776 -0.030765025 0.018085087 0.001270886
000260 fb c2 7d bd 83 01 9c 3d 2d 07 27 3e ac 57 41 3e
       -0.061953526 0.07617476 0.16311331 0.188811
000270 69 06 7b 3e 28 a5 4d 3e 64 83 86 3d a8 b1 05 3e
       0.24514164 0.20082533 0.065680295 0.13056052
000280 2e c9 e9 3d 8e a6 a9 3d 4c 0e 0c be 1d 24 c1 bc
       0.11415325 0.08283721 -0.13677329 -0.02357679
000290 19 7c a1 3c b3 93 7e be 5d fa c2 bb c0 02 92 bd
       0.019712495 -0.2486103 -0.005950256 -0.07129431
0002a0 76 90 25 3d 91 21 de 3c 06 b6 10 3d c4 7e c8 3d
       0.04042097 0.027115615 0.03532984 0.097898036
0002b0 cc 9b ef 3d f2 9c b4 3d c8 8d e6 bc c1 08 d8 bd
       0.11699638 0.088189974 -0.028143778 -0.10548545
0002c0 ac 02 17 3c 71 e1 2a 3e cb a9 2c 3c 85 da 82 bd
       0.009216946 0.16687562 0.010538529 -0.063893355
0002d0 0f 73 fc bd 06 34 3d bd a6 3c 43 3e ba 44 b4 3e
       -0.12326633 -0.04619219 0.19066104 0.35208684
0002e0 66 93 f5 3d 84 83 7d 3c c0 56 96 3e 73 b9 01 3e
       0.11991005 0.01547325 0.2936306 0.126684
0002f0 ae 35 a7 bd ef 5b fc bd a9 7d 32 bc 5c ac f7 3b
       -0.081645355 -0.123222224 -0.0108942175 0.0075583886
000300 c2 74 fb 3c 21 93 96 3c dc d0 b2 3d 1f 3f 5f be
       0.030695323 0.018380703 0.08731243 -0.21801423
000310 13 95 f3 bd 34 eb ee 3d c9 9b 27 3e 2e 3d 1b 3e
       -0.11893668 0.11665955 0.16368021 0.15160057
000320 13 7e 0d 3d f8 7e d9 3d 6c 0d 97 3d f7 02 e6 3c
       0.034544062 0.106199205 0.07375607 0.028077586
000330 46 6b 36 bd 0d 9a c1 bd 7e 21 77 be 89 c8 20 3e
       -0.044535898 -0.09453211 -0.2413387 0.15701498
000340 06 cb cb bc 8e a3 bf bd 9c cc 8b be 73 10 11 be
       -0.024877083 -0.093573675 -0.27304542 -0.14166431
000350 33 ee 0a be 71 c5 e3 bd 93 a0 4a 3d bb 0d a4 3d
       -0.13567428 -0.11121643 0.04946954 0.080104314
000360 c6 3e d7 bd 1f 26 13 be f6 08 83 3d e9 bd 32 bc
       -0.1051002 -0.14370011 0.063981935 -0.010909536
000370 a4 16 0a bc 27 1e a7 3d 4e d5 90 3d 30 6a 8e 3d
       -0.0084282495 0.08160048 0.07071935 0.069538474
000380 89 12 0e 3d 85 29 a5 bd 67 cb 20 be ac 3a 8d bd
       0.034685645 -0.0806456 -0.15702592 -0.068959564
000390 d5 ef 04 3d 96 16 a5 3c 57 2e a8 bd 77 06 83 3d
       0.032455284 0.020152371 -0.082119636 0.063977174
0003a0 44 7a 9b 3c 0f 27 d4 3d 51 b2 dc bd d9 f6 b0 bc
       0.0189792 0.10359012 -0.10776199 -0.021602081
0003b0 e6 4d 97 be c6 00 52 be ec 47 44 bc 16 b2 5b bd
       -0.2955162 -0.20508108 -0.011980038 -0.053636633
0003c0 09 42 a3 3c 72 47 76 3d 25 6b 70 bd f5 2e 21 be
       0.019928949 0.06012673 -0.05869593 -0.15740569
0003d0 56 30 9d 3b 41 3f b3 bc 0b f3 b9 bd 6f f2 2b 3d
       0.004797022 -0.021880748 -0.0907956 0.04197925
0003e0 2d 9f bc bd 54 bb 56 be 66 5c 86 3d 6d fc 96 ba
       -0.09210048 -0.20969898 0.06560592 -0.001151932
0003f0 a1 c5 fc 3c d9 f6 56 3e 9b 83 ad 3e d9 f8 8b bd
       0.030855956 0.20992602 0.3388947 -0.06834573

convblock4.2.weight f4 [14]
000000 98 f8 62 3f 5e 51 5e 3f 4b c5 5a 3f 25 8e 81 3f
       0.88660574 0.86842906 0.85457295 1.0121504
000010 da 4b 70 3f 87 bc 86 3f c6 79 8c 3f 0f 86 84 3f
       0.9386574 1.0526284 1.0974662 1.0353411
000020 d7 82 5d 3f c5 40 7f 3f 07 e8 90 3f 00 f2 79 3f
       0.8652777 0.99708205 1.1320809 0.9763489
000030 13 ac 8a 3f 87 ce 6d 3f
       1.0833763 0.9289326

convblock4.2.bias f4 [14]
000000 71 b4 87 3e 09 bd 35 be 69 db 9a bd ba ba 3f 3d
       0.26504853 -0.17747892 -0.075613804 0.046808936
000010 95 f5 f8 3c 59 23 cb 3d b8 3f f5 3d c8 e6 89 3e
       0.03039054 0.099188514 0.11975044 0.26933885
000020 2e 37 ca bd 70 e0 99 3e f4 02 a9 3e f9 7e 60 3e
       -0.09873806 0.30054045 0.33010066 0.21923436
000030 f0 d1 5c 3e 37 6e 38 bb
       0.2156446 -0.0028141865

convblock4.2.running_mean f4 [14]
000000 da dc 55 3f 04 68 f7 3f 8c ff 17 3f b0 50 41 3f
       0.8354012 1.9328618 0.5937431 0.75513744
000010 15 f4 4c 3f 0e d0 a8 3f b1 33 88 3f 1b 91 5a 3f
       0.8005994 1.3188493 1.0640775 0.85377663
000020 b5 1c 00 3f 2f f3 83 3f 39 ed 65 3f 39 45 85 3f
       0.50043803 1.0308589 0.898151 1.041175
000030 cc 52 3f 3f a1 a1 42 3f
       0.74735713 0.76027876

convblock4.2.running_var f4 [14]
000000 56 00 96 3f 5a 43 96 40 5a 5d 9a 3f 33 c0 2d 40
       1.1718853 4.6957216 1.2059739 2.714856
000010 5c 15 15 40 50 28 2d 40 5c cc 49 40 1b c3 e0 3f
       2.3294287 2.7055855 3.153098 1.7559541
000020 58 d8 a0 3f 8c 37 75 40 d4 af f6 3f 29 29 e8 3f
       1.2566023 3.8315153 1.9272408 1.8137561
000030 a1 be ea 3f e2 f1 15 40
       1.8339425 2.3428884

convblock5.0.weight f4 [16, 14, 3, 3]
000000 98 47 66 bd e6 0d 54 bc fa 9b 0b 3d ac 2c e7 bd
       -0.05622062 -0.012942767 0.034084298 -0.11287817
000010 0f 11 d1 bb 6b 20 fc ba be 2e 64 be 70 31 f7 bc
       -0.0063802074 -0.0019235736 -0.22283456 -0.03017494
000020 57 af f6 bd d3 db f6 3a 6d 9d 8b bd e6 e0 00 bd
       -0.12045162 0.0018833823 -0.06817136 -0.03146448
000030 77 34 03 3c 96 3d b8 3d 72 d5 be bd b4 5d 57 bc
       0.008008114 0.089961216 -0.09318055 -0.013144899
000040 cd 3b ad 3c df ac a6 be 30 d9 ce 3c fb b7 e4 3c
       0.02114668 -0.32553765 0.025250047 0.02791976
000050 e4 bf 5b 3e e9 bd 73 3a 2a f3 e1 bd 22 77 7b bd
       0.21459919 0.0009298013 -0.11032708 -0.06139291
000060 0c fc 39 3e 85 6e c1 3c f3 87 18 3e f4 bc c2 bc
       0.18162555 0.02361227 0.1489561 -0.02377174
000070 1e 51 62 bd c0 07 b5 3c 82 92 1a be df bc 96 3b
       -0.05525314 0.022098422 -0.15094951 0.004600152
000080 e4 5d 29 3d 77 12 c4 be 39 eb 3e be 10 49 16 be
       0.041349307 -0.38295338 -0.18644418 -0.14676309
000090 35 f8 32 3c cc fe 3d 3d e1 77 a9 3c f6 ad fc b9
       0.010923435 0.04638557 0.020687046 -0.00048194797
0000a0 14 a6 10 3d e7 15 8c bb e0 b9 bb 3d 9e 07 c8 3d
       0.035314634 -0.004275072 0.09166312 0.09767078
0000b0 c9 b7 d2 3c f4 1f 97 3d 31 06 8e bc 92 b8 55 3d
       0.025722401 0.073791414 -0.017336937 0.052177973
0000c0 77 c8 93 bd 21 7d 04 be 35 15 b2 bb f6 ed a4 be
       -0.0721597 -0.12938358 -0.005434657 -0.322128
0000d0 69 0d 51 bd 07 cb 0f 3f b7 19 95 bc 80 18 70 b9
       -0.05103818 0.5616917 -0.018200738 -0.0002289731
0000e0 4e 6f b9 bd 2d bd 46 bd 80 9a 27 bb e9 03 ff bc
       -0.09054433 -0.048520256 -0.0025574267 -0.031129794
0000f0 54 38 af be de 5a a6 be 99 0a e3 be e2 e7 13 bc
       -0.34222662 -0.324912 -0.44344023 -0.009027453
000100 e4 41 a4 bd d6 84 1e be ad 62 0f 3e a8 8b 74 3d
       -0.0802038 -0.1548036 0.14002486 0.0597035
000110 23 34 07 bc c2 f7 ae 3d ad f0 96 bd 6e 9a 1f 3e
       -0.008252176 0.0854335 -0.07370124 0.15586254
000120 94 9f 92 bd c1 5a b8 3d 42 e8 12 3e a9 54 2b bd
       -0.07159343 0.09001685 0.14346412 -0.041828785
000130 70 8e ef bb ee 13 24 3c 91 25 80 3d e8 ee 05 3c
       -0.007310681 0.010014517 0.06257165 0.0081746355
000140 c0 ea 2b bb f9 39 2c 3d f4 1d 87 bd 42 88 41 be
       -0.0026232451 0.042047475 -0.0659751 -0.18899634
000150 bc c3 14 3e 91 91 68 bc 1d 7d 68 bd a7 be 16 3e
       0.14527792 -0.014194862 -0.056759942 0.14721166
000160 de 2d 72 3d f4 35 77 be f3 b0 77 bb 61 5f f9 bb
       0.059125774 -0.24141675 -0.003779468 -0.007610247
000170 a8 46 07 bd 2a 46 22 3a 04 2c 6f bc df 1c c6 bd
       -0.033026367 0.0006190265 -0.0145978965 -0.096734755
000180 91 fb 84 3c e5 53 86 3d a2 54 42 3d 07 a3 20 be
       0.016233237 0.0655897 0.047443993 -0.1568719
000190 d4 1d 45 be fc 3a e1 bd 50 ef 93 3d 14 87 30 be
       -0.1924966 -0.109975785 0.072233796 -0.17239028
0001a0 81 80 03 be 3d 13 f9 bd 4b e8 1a be c9 d5 e0 3d
       -0.12841989 -0.121618725 -0.15127675 0.10978276
0001b0 f2 29 a3 3d 67 3d 93 3c ba 11 1c bc 20 01 29 bc
       0.07966985 0.017973615 -0.009525711 -0.01031521
0001c0 bc 9f 10 bd e6 52 53 bd 5f 31 a2 3c 29 4d b0 bd
       -0.035308585 -0.05159273 0.019798933 -0.08608467
0001d0 18 ae 9c be 15 cf 4e bd f0 17 98 3b 94 72 b8 bd
       -0.30601573 -0.050490458 0.0046415254 -0.09006229
0001e0 0e 86 2b bd 89 9b 2f bc 52 8e 19 be fd 9f 46 bc
       -0.04187589 -0.010718235 -0.14995697 -0.012123105
0001f0 3e 3a cd bd 9d 5a 31 be f5 12 16 be fc a2 a1 bd
       -0.100208744 -0.17319722 -0.14655669 -0.07892415
000200 37 aa af ba d1 7a d4 bd 3e 4e de bc 4b bc ff 3c
       -0.0013402168 -0.10374988 -0.027136918 0.031217715
000210 98 05 0e 3d 4e 81 8c 3d d3 1e 10 3e 99 62 99 3d
       0.034673303 0.068606004 0.14074259 0.07489509
000220 3d 41 b2 3b e7 d9 1c 3e 41 44 fa bd 89 87 c1 bd
       0.005439906 0.15317498 -0.1222005 -0.094496794
000230 5a e7 d5 bb 38 2f 83 bd b9 73 b3 bb 54 bf 15 3d
       -0.0065278234 -0.06405491 -0.0054764417 0.036559418
000240 db da 06 3e 20 92 c8 3d 7f 76 be 3d 22 24 2d 3e
       0.13169424 0.09793496 0.09299945 0.16908315
000250 b9 64 db 3c af b7 2f be 60 ad 04 3e 16 82 56 bc
       0.026781427 -0.17159913 0.12956762 -0.013092538
000260 73 50 06 be d0 61 1d be d3 26 ea bd 45 35 67 be
       -0.13116626 -0.15369344 -0.114331864 -0.22578914
000270 6a 38 3d be cf cb 04 be 52 9b 71 be 9d c3 2c 3d
       -0.18478552 -0.12968372 -0.23594406 0.04217874
000280 bf c2 ac 3d 38 77 dc 3c 13 81 26 3e cd fc 55 3d
       0.08435582 0.026912317 0.16260175 0.052243043
000290 52 86 23 3e 41 6f af 3d e6 46 3f 3d cd 42 01 3d
       0.15969208 0.08566142 0.046698473 0.031557847
0002a0 c7 09 55 bd 5c b3 2f be 6c 4c 1c be 86 11 1f bc
       -0.052011278 -0.17158264 -0.15263528 -0.009708768
0002b0 7e ee b2 3b 25 b5 ab bd a7 a6 1a bd f6 9f 68 3c
       0.0054605594 -0.0838416 -0.03775659 0.014198294
0002c0 a1 cd c6 bd 07 6d 93 3c bd 88 5d 3d 8f ab 86 be
       -0.09707189 0.017996324 0.054085482 -0.26302764
0002d0 5e 0b 60 3c 2f d6 8d bd 92 6a 07 be 51 06 23 bd
       0.013674585 -0.06925618 -0.13224247 -0.039800946
0002e0 44 af 7a bc bb 10 29 3d 28 9a 4e 3c ce 59 d6 bb
       -0.015300576 0.04127572 0.012609996 -0.0065414673
0002f0 8c ec 8c 3d 72 0c de bd fc 5d 82 bd 7b cb 33 3d
       0.06881055 -0.108422175 -0.06365582 0.043895226
000300 ee 8b 91 3c 44 1a 86 3d 9b cd 6a 3d 5a 3a a9 3d
       0.017766919 0.065479785 0.057324987 0.08263083
000310 7a 55 2b 3d da 5d 25 3e 22 c9 6f bd d2 f4 ce 3c
       0.041829564 0.16149083 -0.058541425 0.025263224
000320 e5 57 5e 3d 5d db 6d 3c ea 70 20 3d a4 11 36 3d
       0.05428304 0.014517632 0.039170183 0.044450417
000330 2e 5f 60 3d bd 43 11 3e a0 d1 80 3d 97 dd 93 bc
       0.05477827 0.14185996 0.06289983 -0.018049998
000340 6b ea 19 3b dd a9 82 3e 6f 83 ed bd ac be e2 bc
       0.0023485671 0.2552022 -0.115973346 -0.02767881
000350 b5 b7 1e 3e a8 0b 1a be 80 73 31 bd b1 2d 8c 3e
       0.15499766 -0.15043509 -0.04332304 0.2737861
000360 8b 01 e5 bd 7b 34 b7 bd c5 9c b2 3d 53 2a 45 be
       -0.11181935 -0.08945557 0.08721308 -0.19254427
000370 98 5f 9f bd 11 c6 e5 bd 7e 9f 0d be c0 6d 8d bd
       -0.07781905 -0.11219419 -0.13830373 -0.06905699
000380 1a 4d 08 bc 86 c2 01 be f6 88 e1 bd fc 0a bd bd
       -0.008319164 -0.12671861 -0.11012451 -0.09230611
000390 31 0e b5 bd 37 c6 6c bc 50 ef 6b bd a6 82 4c bd
       -0.088405974 -0.014451555 -0.057601273 -0.049929284
0003a0 5f cf 0c 3d a8 9d f4 bd f2 2c ff bd b5 57 98 bd
       0.034377452 -0.11944133 -0.124597445 -0.07438604
0003b0 54 89 fb bd 0c c8 58 bd ff 8d 6a ba a3 4b 2b bd
       -0.12282053 -0.052925155 -0.00089475507 -0.04182018
0003c0 51 85 a8 bd ea 01 2a 3d 9d 92 a0 3d 56 7a 96 3c
       -0.08228553 0.04150573 0.07840464 0.018368881
0003d0 8b a6 86 3c b7 17 37 3d 78 38 3e 3d f8 32 dd bd
       0.016436836 0.04470035 0.04644057 -0.10800737
0003e0 8d 70 6d be bf 30 f4 3d 4c ff 0e 3d a2 3f 4b be
       -0.23187466 0.1192336 0.03491144 -0.19848493
0003f0 3d ab 84 bd 5e e6 86 bb 25 98 b7 3d 77 0b 5a 3d
       -0.064779736 -0.0041168174 0.08964566 0.05323359

convblock5.2.weight f4 [16]
000000 54 57 66 3f 0b 2c 56 3f 07 bb 5a 3f df 6a 60 3f
       0.89977 0.83660954 0.8544163 0.8766307
000010 45 13 89 3f 6b 0e 60 3f 69 43 6b 3f c9 52 7e 3f
       1.0709006 0.87522 0.91899735 0.9934507
000020 34 4d 57 3f b2 2d 50 3f 0a b8 ac 3f 59 7a 59 3f
       0.8410218 0.81319726 1.3493664 0.8495231
000030 5d b7 68 3f 6c 1f 6e 3f a8 48 5d 3f 3e 48 93 3f
       0.9090479 0.93016696 0.8643899 1.1506422

convblock5.2.bias f4 [16]
000000 cb 7c ff 3d da 1f e6 3c 59 7d 5a bd 35 f4 cb 3e
       0.12474974 0.02809136 -0.053342197 0.39834753
000010 f5 ad 7f 3e ea 79 21 bd ae 4c b9 bd 6b 85 09 3f
       0.24968703 -0.039422907 -0.090478286 0.53719205
000020 dc 65 cb 3e c8 3b 59 3e b1 cd 32 3f 01 80 f0 bb
       0.3972615 0.21214211 0.6984511 -0.007339478
000030 51 df cc 3e bc a9 3d 3e e6 00 86 bd f5 6f b7 3e
       0.40014127 0.1852178 -0.0654314 0.35827604

convblock5.2.running_mean f4 [16]
000000 5c fb 06 3f 6e 16 1b 3f dc 04 00 3f 68 f8 10 3f
       0.52727294 0.605811 0.50007415 0.5662904
000010 be ea 10 3f 88 e3 02 3f a3 dc 5d 3f 0a 3b 0b 3f
       0.5660819 0.51128435 0.8666479 0.5438696
000020 7f e2 00 3f d4 11 b2 3e 0d 88 91 3f dc 3d 40 3f
       0.50345606 0.34779227 1.1369644 0.7509439
000030 57 0d 0d 3f 88 99 65 3f c8 08 00 3f 29 cf 26 3f
       0.5509848 0.89687395 0.500134 0.6515985

convblock5.2.running_var f4 [16]
000000 03 f8 32 3f c6 10 81 3f f5 c5 5b 3f 66 e4 21 3f
       0.69909686 1.0083244 0.85848933 0.63239133
000010 e2 45 88 3f 26 3b 89 3f a0 44 b8 3f 9b 73 32 3f
       1.0646327 1.0721176 1.4395943 0.6970765
000020 fc cd 0e 3f d3 a2 0f 3f ee 8f 0f 40 e7 5a 9f 3f
       0.5578306 0.56107825 2.2431598 1.2449616
000030 e1 c1 1d 3f 31 73 94 3f 21 6f 7c 3f 98 90 be 3f
       0.6162396 1.1597654 0.9860707 1.4887877

convblock6.0.weight f4 [16, 16, 3, 3]
000000 e0 1e 20 3e 3e 7e d8 3d b8 f3 2f bd 9b 13 be 3d
       0.15636778 0.10570954 -0.042957038 0.09281083
000010 8a 04 dd 3d ea 18 47 bd 15 7e e2 3c a9 bc 34 3c
       0.107918814 -0.048607744 0.027648011 0.011031308
000020 ef 38 cc bd e2 b2 9c bc 92 d8 2b bd 11 07 a2 3d
       -0.09971797 -0.019128267 -0.041954584 0.07911504
000030 30 4a c4 3d d7 db 03 bd 72 2b 8a bd f4 48 15 3e
       0.09584463 -0.032192077 -0.06746568 0.1457861
000040 c9 23 4a 3d 4d 8e f6 39 af fa 8d bc d4 4c bb bb
       0.049350534 0.000470268 -0.01733145 -0.0057159457
000050 6b 06 67 3c 24 de 08 bd 92 db 0b bc f5 f6 a7 3b
       0.014100651 -0.033414975 -0.008536236 0.005125875
000060 a0 85 a4 3d 4a ee 32 3d 64 47 29 bd 67 ab 36 3e
       0.080332994 0.04368428 -0.04132785 0.17838822
000070 98 59 ab bc 9c c2 5c be d7 f8 03 3e ec 63 16 3b
       -0.020916745 -0.21558613 0.12887894 0.0022947742
000080 38 00 1d be cf 1c 7e 3d 42 87 14 3c 57 50 fb bd
       -0.15332115 0.062039193 0.009065451 -0.12271183
000090 75 02 3e bc a5 9c 42 bd b5 51 42 bd 95 b2 d9 3c
       -0.0115972655 -0.04751267 -0.047441203 0.026574412
0000a0 cd 41 ae bc d0 67 74 bc 84 f6 07 3d c5 56 b4 bb
       -0.02127161 -0.014917329 0.03319408 -0.005503508
0000b0 58 14 f9 bb 70 77 59 bd 60 39 f3 3c 26 d1 ac bd
       -0.007601302 -0.05309242 0.029690444 -0.084383294
0000c0 db 24 90 bc 52 1a 25 bc c7 f9 c2 bd 1c 3b 1f 3e
       -0.017595699 -0.010077076 -0.095202975 0.15549892
0000d0 71 49 c2 3d 8b fc 2d 3e 30 7e 79 bd 4b de 6e bd
       0.09486664 0.16990869 -0.060911357 -0.058317464
0000e0 09 1b 19 be ce 11 16 3d ab a7 c4 3c 47 3f aa 3c
       -0.1495172 0.036638074 0.024005732 0.020782126
0000f0 7d b1 c4 bd 76 59 c2 bd 4d 69 e1 bc a2 47 62 bd
       -0.09604166 -0.094897196 -0.027516032 -0.055244096
000100 75 f8 ba bd ee 36 48 bd 61 8c 5b bd dc ae cd bc
       -0.09129421 -0.04888051 -0.053600673 -0.025107794
000110 86 2a 3a bd c8 07 56 bd 2e a5 7b 3b 49 0a eb bc
       -0.04545071 -0.052253515 0.0038398015 -0.028691428
000120 e5 34 89 3d 90 17 67 bc 1d 08 25 be c3 71 fb 3b
       0.06699542 -0.014104739 -0.16116376 0.0076734736
000130 05 8a fa bd 89 9b 75 be 4a 72 8c bd 1f 6c 75 be
       -0.122333564 -0.23985113 -0.068577364 -0.23967026
000140 7a 72 16 be 1a ff 3f 3d f8 ee f1 3c e6 62 3a 3c
       -0.14692107 0.046874143 0.029532894 0.011376118
000150 da b0 6b ba d6 6d 07 bd 46 89 b4 bd 31 12 68 bd
       -0.00089908915 -0.033063732 -0.08815245 -0.056657974
000160 7f d9 a9 3d 0e 10 d7 3d 7c 78 82 be 78 5b 01 be
       0.08293437 0.10501109 -0.25482547 -0.12632549
000170 7c c5 1f be 87 15 47 be a7 39 b6 bb 1a fb bc bd
       -0.15602678 -0.19441806 -0.005561072 -0.09227581
000180 0c ca 0c be 84 84 f4 3b cf 2f 1f 3e d7 21 9f bd
       -0.1374895 0.007462086 0.15545581 -0.07770126
000190 71 cd df bd 4e 1a 32 be 00 1c 9d bd f6 9e 5d bd
       -0.10927857 -0.17392847 -0.07671356 -0.054106675
0001a0 84 69 2e bc fd 11 31 be 47 e0 8f bd 6f 81 bf 3c
       -0.010645274 -0.17292018 -0.070251994 0.023377148
0001b0 3b fb d7 3c 6e f2 80 3d 87 04 ac 3c e1 7b 01 3d
       0.026364913 0.0629624 0.020998253 0.03161228
0001c0 95 fc 54 3d 6f 19 8d 38 00 43 8c 3c 9c 59 63 bc
       0.051998693 6.728141e-05 0.017121792 -0.013876345
0001d0 b6 34 05 be dd 96 ae bd 44 07 9d bc 72 12 fd 3d
       -0.13008389 -0.08524869 -0.019168504 0.12357034
0001e0 26 1f 06 be c7 6d 49 3c e0 2d 25 3e 68 98 c0 be
       -0.1309782 0.012294239 0.16130781 -0.37616277
0001f0 57 08 24 be 84 0e 96 3e 14 76 42 3e 84 79 01 3e
       -0.16018806 0.2930795 0.18990356 0.12644011
000200 a7 46 41 3d 57 53 ab 3c ca 6d ca bc 51 77 cf bd
       0.04718652 0.020913763 -0.024710555 -0.1013018
000210 ea 72 dc 3d f9 9c a6 3c ba 76 1d be c0 5e b3 bd
       0.107641056 0.020338522 -0.15377322 -0.087583065
000220 f1 6c 78 bc 06 7e 1b be 7a ea 58 be f1 5c 9a 3a
       -0.015162692 -0.15184793 -0.21183196 0.0011776966
000230 18 b4 7c bd dd 98 4d be 34 cf 2d bd dc 61 ab bd
       -0.06169519 -0.20077844 -0.042433932 -0.083682746
000240 3e 3d 29 3d b5 5c 8e 3d 24 87 eb 3d 6a 46 1d bd
       0.04131817 0.06951276 0.115003854 -0.03839723
000250 42 0a 32 3c 9a da a5 bc c2 ec 94 bc 6d 7b fc 3b
       0.010866703 -0.020245839 -0.018179301 0.007705143
000260 44 3e 11 3d 1d 60 03 bc 4b 80 2d bc 33 2b 23 3d
       0.03545977 -0.008018521 -0.010589669 0.03983612
000270 ed dd bb 3c 99 bc c0 bc fd da 1f bd ae eb 67 3d
       0.02293297 -0.02352743 -0.039027203 0.056621246
000280 f5 e6 94 bd 54 52 48 bd 9b b0 18 be 62 9f 7b bd
       -0.07270614 -0.04890664 -0.1491112 -0.061431296
000290 99 1b 31 be 7f ad 82 bd dd a4 fe bd 51 99 39 bd
       -0.17295684 -0.06380748 -0.12433789 -0.04531223
0002a0 8f c5 3c be f6 15 42 be c7 56 12 be 62 28 b7 bc
       -0.18434738 -0.1895369 -0.14290915 -0.022358123
0002b0 5d 9b 21 bc 2d 78 52 3e ff 6a a0 bb 9e 5e 4a bc
       -0.009863702 0.20553656 -0.0048955674 -0.01235166
0002c0 35 75 de 3d f9 a8 d6 3d 28 ab c8 3c 40 ee 5b 3e
       0.10862199 0.10481448 0.024495676 0.21477604
0002d0 c2 3a 75 bd 4c 79 69 bd 84 76 52 bd fd da 9e bc
       -0.05987049 -0.057000443 -0.051382557 -0.019391531
0002e0 aa d8 8b bd 85 26 e9 bd 1a 8f 29 be 69 dc 22 be
       -0.06828435 -0.113843 -0.16558495 -0.15904392
0002f0 91 2c 73 be 97 1e f6 bd 3e 7f 5e 3c e4 4a d1 3b
       -0.2374747 -0.12017553 0.013580142 0.0063871015
000300 af 24 0b bd 59 1e 6a bc ca d7 09 3c 0f 18 1c be
       -0.03397053 -0.014289462 0.0084132645 -0.15243553
000310 3b 1b 01 be 82 d6 04 be bb d1 f0 bd 64 b5 a0 bd
       -0.12608044 -0.12972453 -0.11758753 -0.078470975
000320 0d af 86 bd 2c c4 63 bd 45 9e 4c 3c 05 26 35 bd
       -0.06576357 -0.055607006 0.012488906 -0.04422571
000330 a7 38 bf bd c5 5e 86 bd 5f cf cd bd 46 ff 3e 3c
       -0.093369775 -0.065610446 -0.100493185 0.011657542
000340 4f 9c 6c bc cd b3 a8 3a d1 42 27 3d af ba ef bc
       -0.014441564 0.0012870968 0.040835205 -0.029263822
000350 cb 59 19 bd fb 7a 96 bb 9d 28 ca bc 5b 71 2b 3b
       -0.03743915 -0.004592297 -0.024677569 0.0026160094
000360 0a c5 e4 bb ed e2 b6 3d 27 98 24 3e 76 19 70 ba
       -0.0069814967 0.089300014 0.16073667 -0.00091590674
000370 9e ff 4e bd c7 76 c3 3c a7 45 cb 3c b4 70 77 3b
       -0.050536744 0.023860348 0.024813486 0.0037756385
000380 70 72 64 bd d6 b3 46 bb 6d 21 48 bd d4 3a e2 bd
       -0.0557732 -0.0030319593 -0.048860002 -0.11046377
000390 28 8c a3 bc 7a c4 19 bd af 28 e4 bd ef ce 58 bd
       -0.019964293 -0.03754089 -0.11140572 -0.052931722
0003a0 73 0e 97 bd e9 76 e7 bd 39 dc 95 3c 4e dc 44 bb
       -0.07375803 -0.11301977 0.018293487 -0.0030038538
0003b0 6d 60 25 bc 40 d7 4f 3d 5f d6 41 bb 1c f2 d4 bd
       -0.0100937905 0.050742388 -0.0029577238 -0.10397741
0003c0 37 f0 af 3d 2f ba 88 3d 9e 15 5a bd 18 b8 bf 3d
       0.08590739 0.06676137 -0.053243272 0.09361285
0003d0 a8 88 94 ba c3 97 b2 3b 1c 41 ab 3d c0 a2 0c bb
       -0.0011332231 0.0054502203 0.08362028 -0.0021459311
0003e0 72 c3 17 bd 8f 93 b3 3d 9d a9 c9 bb e6 2b fe bb
       -0.037051626 0.08768379 -0.0061542527 -0.007756698
0003f0 3e 55 88 3c 92 c4 b3 bc 59 e2 9f 3d 48 f0 d4 bb
       0.01664221 -0.021944318 0.07806844 -0.0064983703

convblock6.2.weight f4 [16]
000000 7e ab 2e 40 d3 88 0c 40 b7 5e 28 40 ec cd 07 40
       2.729217 2.195851 2.630781 2.1219435
000010 01 62 f9 3f 16 84 1b 40 8d 0f 2b 40 7a 69 1d 40
       1.9483033 2.429937 2.6728241 2.4595628
000020 ea 3c 24 40 d2 ad 19 40 b6 ac 28 40 8d 3a 2e 40
       2.566218 2.4012341 2.6355414 2.7223237
000030 e8 71 4a 40 5f 40 3f 40 47 fd 43 40 62 8e 4e 40
       3.1632023 2.988304 3.0623338 3.2274404

convblock6.2.bias f4 [16]
000000 94 f0 3e bd 5e 69 4c 3d e1 d2 77 be 58 a4 95 bd
       -0.046616152 0.049905173 -0.24201538 -0.07306737
000010 44 10 f9 bd e0 d6 0b 3e 70 61 38 3e f3 e1 4e bc
       -0.121613055 0.13656187 0.1800592 -0.012627113
000020 5f f9 55 bd cc 99 77 3e 24 5d 31 be 1e 1b 1b be
       -0.052239772 0.24179763 -0.17320687 -0.15147063
000030 ca 97 c9 3e 7c c0 2a be 39 ea 22 3f 12 57 eb 3d
       0.39373618 -0.1667499 0.63638645 0.11491217

convblock6.2.running_mean f4 [16]
000000 e6 f3 6d 3e 8b 6d 1a 3f c2 e7 9c 3e bc 83 ff 3e
       0.23237571 0.603234 0.30645567 0.49905193
000010 07 5c 49 3f 64 26 84 3e b3 bc 39 3e ac 65 98 3e
       0.7865605 0.2581054 0.1813839 0.2976507
000020 ad 22 b1 3e 25 58 c7 3e 46 8e 83 3e 1f 59 39 3e
       0.34596768 0.38934436 0.25694484 0.18100403
000030 2e 1e 94 3e 20 d4 47 3e 54 a8 52 3e 8e 59 a2 3e
       0.28929275 0.19514513 0.20572025 0.3170895

convblock6.2.running_var f4 [16]
000000 51 0d 94 3e 34 63 f1 3e f1 5b c0 3e 61 c7 03 3f
       0.2891641 0.47145998 0.37570146 0.51476103
000010 57 83 0c 3f 9d 10 72 3e ec 96 59 3e 56 4b 98 3e
       0.5488791 0.2363915 0.21248978 0.29744977
000020 4d 9e ef 3e 2b aa 06 3f ca 4f 9c 3e 69 e0 76 3e
       0.4680046 0.52603406 0.30529624 0.24109043
000030 51 aa d9 3e 6e 35 95 3e 44 f1 a3 3e f6 36 1a 3f
       0.42512754 0.29142326 0.3202001 0.60240114
