S6/Assets/models/model_l1_l2.pth (torch_old, 45318 bytes, 27 tensors)

convblock1.0.weight f4 [16, 1, 3, 3]
00000000: 654e 1ebe 7e1b a5bd 6eea 15be fefa b83c
00000010: a581 8f3b f7e8 7cbd 5062 373d 7e57 103d
00000020: c0c8 7bbe f870 9dbe d765 88ba 7b7c 3d3b
00000030: 07fb 1abc 9623 cb3e 73d3 f1bc 166a b53c
00000040: b2c1 aebc 3045 3fbe 60bf 13bd 9309 7c3b
00000050: 4618 8e3d 082b abbc f397 7b3c 30f5 be3e
00000060: a77a 17be 8ddc 88bd a3aa 7ebb ccd0 123e
00000070: 9de5 84be bd51 a33c c36a f33d b125 7f3c
00000080: d689 23bc b6ef 5c3c 019b c63b 4f42 febc
00000090: feee 0bbc 391a 34bc 5644 babb b422 86bb
000000a0: 39de adbb 3b4f dabb 1fd4 e8bb 27b0 b3ba
000000b0: 90ca 10bc d36e 4c3d 305c 31bc 35e3 a3bd
000000c0: 90d9 563e 4429 243a 20df 07be d923 253e
000000d0: 59ce ecba 0753 6fbc b931 90bb 7fc3 acbd
000000e0: 4425 20be 06a4 483d e4d6 15bd b8b6 19be
000000f0: 9eaf 0c3e dedc 023d ddd6 b13b 8906 843d
00000100: 13ab c43d 503b 363d 04a9 69bb 9d77 d53c
00000110: fd27 11bb 17fb 59be d4ad 01be 35aa 61be
00000120: 73d1 07be 979c c2bc ecd4 a03d 8f21 91bd
00000130: 03e2 d3bc 6432 223d 06a9 9bbd 2e0e f4bd
00000140: fca7 13bd e9c2 143c b044 16bc 0f63 c8bc
00000150: bcba 13bd 5c01 12bc 56d7 88bc 6081 67bc
00000160: 966d 86bb 5678 69ba 5aa7 33bc 918b beba
00000170: cef7 4f3b 5a68 71bb 8b48 adbb 4ea2 0dbc
00000180: a08c c6bb e6a8 0ebc ca03 2cbc ecea 8f3d
00000190: f239 98bb f0e3 8fbe 34ad ec3d 0462 acbc
000001a0: efd1 51be 1fef c63c a086 3abe f7fe 24be
000001b0: 9411 9cbc edf5 5bbe dacf 2fbb 9a05 ffbd
000001c0: 6f1a 22bd 5c1e ca3d 6ab9 36be fa50 4cba
000001d0: 2686 a23d 9c45 bb3d d43b d33d f045 8f3d
000001e0: 0806 bb3d d98e 833b 7150 6dba f586 e6bb
000001f0: 3065 02be 4000 02be 5066 7e3b 4cc6 8c3d
00000200: 6a9a 1b3e 979d 7fbe 1170 c8bd f9e3 e63d
00000210: 6087 b8bb 6e75 41be f429 1fbe cac2 53be
00000220: b0ab 1cbe 53e2 4dbe ffd5 cf3a 8652 b73b
00000230: f34a b0bc 7a93 853d 2fb9 173e 15d7 ca3d
-0.15459593 -0.08061884 -0.14640209 0.02258062 0.0043794685 -0.06174561 0.044771492 0.03523969
-0.24588299 -0.3075025 -0.0010406327 0.0028913307 -0.009459264 0.39675587 -0.029519772 0.022145312
-0.021332595 -0.18678737 -0.03607118 0.0038457855 0.069382235 -0.020894542 0.015356052 0.37296438
-0.14792882 -0.06682692 -0.0038859032 0.14337462 -0.2595643 0.019936437 0.118855976 0.015572951
-0.009981593 0.013484886 0.0060609584 -0.031037478 -0.008540867 -0.01099258 -0.005684416 -0.0040934924
-0.005306032 -0.006662277 -0.007105365 -0.0013709114 -0.008837357 0.049910378 -0.010825202 -0.08002321
0.20981431 0.00062622526 -0.13268709 0.16126956 -0.0018066867 -0.014607198 -0.0044004587 -0.084357254
-0.15639216 0.04898455 -0.03658189 -0.15011108 0.13738868 0.031948917 0.005427225 0.06446559
0.09602942 0.04449016 -0.003565372 0.026058013 -0.002214908 -0.2128719 -0.12663966 -0.22037585
-0.13263492 -0.023756308 0.078531116 -0.07086479 -0.025864607 0.039598837 -0.07600598 -0.11916767
-0.036048874 0.009079673 -0.00917165 -0.024461297 -0.036066756 -0.008911457 -0.016704243 -0.0141299665
-0.004102419 -0.0008906176 -0.010965193 -0.0014537444 0.0031733396 -0.003683588 -0.005288189 -0.0086446535
-0.0060592443 -0.008707261 -0.01049895 0.0702723 -0.0046455795 -0.2810359 0.115564734 -0.021042831
-0.2049024 0.024283944 -0.18215418 -0.16112886 -0.01905135 -0.21480532 -0.002682677 -0.1245224
-0.03957599 0.09869072 -0.17844167 -0.0007794049 0.07935743 0.09144136 0.10314146 0.069957614
0.0913201 0.0040148315 -0.0009052819 -0.007035131 -0.12733912 -0.12695408 0.0038818307 0.068737596
0.15195623 -0.2496246 -0.09787 0.11273951 -0.0056313723 -0.18892452 -0.15543348 -0.20679775
-0.15299869 -0.20105867 0.0015856622 0.0055945544 -0.021520114 0.065222695 0.14816736 0.09904305

convblock1.2.weight f4 [16]
00000000: b65d 983f 0fa3 6e3f daf2 9c3f 0ceb 543f
00000010: 8c08 c93e 3593 973f 2364 853f 4615 853f
00000020: 03b8 4b3f 2230 073f f89e d63e d845 993f
00000030: 2c25 763f 136d 7d3f 98cd 8b3f 56fe 853f
1.1903598 0.9321756 1.2261612 0.83171153 0.39264333 1.1841799 1.0421184 1.0397117
0.79577655 0.5280782 0.4191816 1.197444 0.9615047 0.9899456 1.0922117 1.0468242

convblock1.2.bias f4 [16]
00000000: 7736 52be 5c57 3abe 2637 a53e 4a03 ac3d
00000010: 1ea1 71bc 6b7f 0c3f 0baa 943e 4ca1 1a3e
00000020: b055 90bd 8249 6dbd 7537 bdbc f69b 6e3d
00000030: 31ee 9cb9 9cc0 203e 21a9 19be 162f 2d3e
-0.20528589 -0.18197387 0.32268637 0.08399065 -0.014747886 0.54881924 0.29035982 0.15100592
-0.070475936 -0.05793143 -0.023097733 0.058254205 -0.00029932105 0.15698475 -0.15005924 0.16912493

convblock1.2.running_mean f4 [16]
00000000: 35b2 2f3e 5294 a53d 13db ea3d d8ec 223d
00000010: c504 963c 5e45 de3d ee2b be3d 39e2 093e
00000020: 9f72 f43d 2e4a 023d 57e0 5d3c cd61 573e
00000030: 6394 0d3e 09bd af3d 3e86 0a3e c769 043e
0.17157824 0.080849305 0.11467566 0.039776653 0.018312821 0.108530745 0.09285723 0.13465203
0.11935925 0.031809025 0.013542256 0.21033402 0.13826136 0.085809775 0.13527772 0.12930976

convblock1.2.running_var f4 [16]
00000000: e110 583c fa5e af3c bac6 a73d 2e89 753c
00000010: b45c 1b39 04d9 913d da75 743c 5eb0 8d3c
00000020: bc2f d23b ee4d d439 0f55 c238 aacb cd3c
00000030: 18c3 513c 289e 413d eb66 923c 8eac 013d
0.013187618 0.021407593 0.08192201 0.0149863195 0.00014816487 0.071214706 0.014920676 0.017296012
0.006414382 0.00040493853 9.266484e-05 0.025121529 0.012802862 0.04726997 0.01787134 0.0316587

convblock2.0.weight f4 [24, 16, 3, 3]
00000000: fff5 17bb c854 93bc 22bf 01ba 446e ebbb
00000010: e219 24bd 9a66 403b 06a7 66bc 7daf a0ba
00000020: fd2e 1dbb bfac 0a3c dc06 23bc abf7 f4ba
00000030: 6d8d ed3c 8568 673d 7c89 94b9 6ebd b33d
00000040: 7a99 08bb 8e5f aa3a 2dbc 263c d8f0 34ba
00000050: 2f63 7c3b 8535 ad3c d75b 9cba 6fca 92bc
00000060: 1c66 edbc 10ea 21bc 010a 91bd b8a3 abbc
00000070: be8d ebb9 ed53 8f3c 4466 8fbb b75f eebb
00000080: 72e0 95ba 6799 c6bc 4799 95bb a1c6 3bbc
00000090: 8e23 adba ed36 96ba ce51 8035 cc54 63ba
000000a0: 3c5d 73ba 55cd 743a cf6c 15ba a7c3 80ba
000000b0: 6ffd d1b9 3150 13be dd40 dcba 2fc5 a03c
000000c0: 9d9e 1abc c916 673c bb67 59bc b242 cf39
000000d0: b142 fe3c 2df3 2d3b 1e6e 58bc 9b57 30bc
000000e0: f27f 0dbc 5d28 5cbd 33e1 98bc 21f7 efbc
000000f0: b087 c9bc d488 d63b edfc 8c39 1fd5 01bc
00000100: 6178 7ebd 742b 1ebb 5466 0fbe 407a 2dbd
00000110: 7f64 44bb 6a97 2cbe 215e bcbc fff2 17bc
00000120: 8148 713a c29b 03bb 5a67 72ba e8c2 f8ba
00000130: cd98 2cbb 5a20 95bb a2ab f5bb c11b bdbb
00000140: a402 4739 2ee3 1dba b9c5 363b 830f e1ba
00000150: 1c7d 84ba 5c31 f5ba 8986 caba 0c5d 7c3a
00000160: 40bf 09b9 5b50 333b 940e 32ba 8e94 e3b9
00000170: 95c5 37ba b5f7 98ba 0d73 29bb 2fb1 3bbb
00000180: c180 b1bb 0015 e5ba b195 f9ba ea81 b4bb
00000190: 7f1a 92bb 7231 d1bb dfca 1639 9b18 01bb
000001a0: 0ed5 d83c 7730 5fbb e9ab 193d 3442 483c
000001b0: 4387 9fbc f549 423b 3b1e 3fbb e51c 9e3c
000001c0: 7cb9 2dbb afb6 9dba 4da2 fd3b b3af bbbb
000001d0: f990 10ba 92c5 24bd b5a7 4abb 34aa c739
000001e0: dcd2 adbc fb60 f13b 3f51 233c 02ee 3fbc
000001f0: aaae cabb fe2f 1e3c 5ef1 6c3c a989 9cbb
00000200: 36af b6bc 416d 3bbc d3a8 6dbd 96e6 c2bc
00000210: 56ee 93bd c6a7 52bd 5f7a f6ba d8cb 59bc
00000220: bac3 cebc 25ed e6bd 61d8 a4bb 65bf babd
00000230: 34ca f4bd 60af 40bd a9f6 8ebd 2c62 33bc
00000240: 29df 9c3a d986 573b 2304 ea3b 36a9 a53b
00000250: 4c74 a93b 36dd 923b 772f 313b 5796 953b
00000260: ef7f 2a3b 0042 18bc ffaa 6dba 4383 843b
00000270: 88f6 95bb 30d8 543a ea70 a0b8 3824 9e3a
00000280: 7f74 86b9 afab 14ba ed55 35bb 0c66 d0ba
00000290: 98d6 883c 275e 07bb 1628 61bb 58fe e83b
000002a0: e82f 0fb9 f443 3abb f595 9abb 1f70 5e38
000002b0: 7ef3 0b3a 73cf 91ba 818c a93b 13af a437
000002c0: cbd3 a438 270c 5a3b 18b1 d9b9 3b75 b2b8
000002d0: 5412 07ba 4b07 1e39 672d 2738 c8c9 29b9
000002e0: de1c ce39 b9f4 353a 1580 cbb9 e38c 43b7
000002f0: 6713 5438 b76f 793a a9a9 01bc 216d bfbb
00000300: bd3e ebba b319 15b9 69d2 84ba 4658 3a39
00000310: 3751 eb37 5a12 80ba 191b 003c 9a4b 8939
00000320: bd96 d339 1da9 833b fac5 aa39 8820 0dba
00000330: bcaa 523e cfbd 81ba 8c4e 41ba 7156 ca3b
00000340: e594 843b b0b2 94ba 9eb8 eb3a 0529 0fba
00000350: aecc 61bb a7a1 87ba 94df 05bb 9683 cab9
00000360: c7c7 8ebb e059 cb3a 9fd0 d33b abce 97ba
00000370: 094f b93a 6d4c 853c 5ab9 fcb9 b175 0c3a
00000380: eddf 8e3b 18fb b3b8 ed9e 3839 4347 4a3a
00000390: fe4a 85b9 6dba e239 f679 5b3a 9e87 0b39
000003a0: 23eb 9e39 6e67 9b3a 086f 12ba 07f0 c5b9
000003b0: 739c 6439 9764 78b8 5496 fa37 7617 3f3a
000003c0: 48e7 ecb9 13d9 50b7 6d40 fbb8 de3f 703b
000003d0: 948a 6f3a b386 d6ba 4a6f 4b3b 7df4 af39
000003e0: 74de d6b9 aebf 6f3c 09f9 043a f780 d83a
000003f0: 5941 46ba 5ec0 a6b9 7534 dfb9 34a8 88ba
-0.0023187397 -0.017984763 -0.00049494405 -0.0071847755 -0.040063746 0.002935803 -0.014077907 -0.0012259331
-0.0023984306 0.008464037 -0.009950366 -0.0018689533 0.028998101 0.056496162 -0.00028331194 0.08776365
-0.0020843432 0.0012998448 0.010176701 -0.00069023436 0.0038511266 0.021143684 -0.0011929226 -0.017918793
-0.028979354 -0.009882465 -0.07081986 -0.02095209 -0.000449283 0.017496074 -0.0043762047 -0.0072745937
-0.0011434688 -0.02424307 -0.004565391 -0.011460931 -0.0013209449 -0.0011460461 9.560551e-07 -0.00086719985
-0.00092836074 0.0009338458 -0.00057001127 -0.0009823934 -0.0004005241 -0.1438606 -0.0016803999 0.019625274
-0.00943723 0.0141045535 -0.01326936 0.0003953181 0.03103766 0.002654265 -0.013209848 -0.010763074
-0.008636462 -0.05374943 -0.01866207 -0.029292645 -0.024600834 0.006547073 0.00026891325 -0.007924347
-0.06212652 -0.0024134787 -0.14003879 -0.042352915 -0.0029967127 -0.16854635 -0.022994103 -0.009274243
0.00092042243 -0.0020081853 -0.0009246968 -0.0018978985 -0.0026336194 -0.0045509757 -0.007497267 -0.005771131
0.00018979103 -0.0006022927 0.0027888848 -0.001717076 -0.0010108086 -0.0018706727 -0.0015451472 0.0009626902
-0.00013136584 0.0027361128 -0.00067923334 -0.00043407496 -0.0007010338 -0.0011670502 -0.002585593 -0.0028639545
-0.00541696 -0.0017477572 -0.0019041804 -0.005508651 -0.004458725 -0.006384068 0.0001438069 -0.0019698504
0.02646878 -0.0034055987 0.037517462 0.012222815 -0.019473678 0.0029646133 -0.0029162306 0.019300887
-0.0026508262 -0.0012032593 0.007740295 -0.005727732 -0.00055147667 -0.04022748 -0.0030922715 0.0003808305
-0.02121871 0.0073662973 0.009968101 -0.01171446 -0.0061853724 0.009654997 0.014461843 -0.0047771526
-0.022300344 -0.011439622 -0.05802233 -0.023791593 -0.07223193 -0.051429532 -0.001880478 -0.013293229
-0.025239814 -0.112757005 -0.005030677 -0.09118537 -0.1195263 -0.04704225 -0.069806404 -0.010948699
0.0011968362 0.0032886772 0.0071416064 0.005055572 0.0051713344 0.004481937 0.0027036348 0.004565041
0.0026016196 -0.009293079 -0.0009066313 0.004043968 -0.004576508 0.00081193727 -7.6504264e-05 0.0012065237
-0.00025645268 -0.0005671335 -0.0027669624 -0.0015899553 0.016703889 -0.0020655484 -0.0034356168 0.0071103983
-0.00013655389 -0.002842185 -0.0047175833 5.3033345e-05 0.00053387124 -0.0011124447 0.00517422 1.9631849e-05
7.859579e-05 0.0033271404 -0.0004152141 -8.509537e-05 -0.00051525724 0.00015070771 3.9858187e-05 -0.00016192265
0.0003931289 0.00069410686 -0.00038814606 -1.16557085e-05 5.056281e-05 0.0009515243 -0.007913985 -0.0058418666
-0.0017947775 -0.00014219321 -0.0010133508 0.00017771227 2.8052002e-05 -0.0009771094 0.007818961 0.00026187004
0.00040357365 0.0040179626 0.0003257243 -0.00053835707 0.20572942 -0.0009898486 -0.000737407 0.0061748554
0.00404607 -0.0011344757 0.0017984097 -0.00054611295 -0.0034454274 -0.0010347859 -0.0020427452 -0.00038626482
-0.0043573114 0.0015514456 0.0064640786 -0.0011581978 0.0014137934 0.016271794 -0.00048203283 0.00053581136
0.00436019 -8.582155e-05 0.00017606812 0.00077163073 -0.0002542361 0.00043244977 0.00083723606 0.00013306594
0.000303113 0.0011856386 -0.0005586003 -0.00037753602 0.00021802056 -5.922149e-05 2.9872324e-05 0.0007289568
-0.00045185746 -1.2448308e-05 -0.00011980613 0.0036659162 0.0009137776 -0.0016367048 0.0031041675 0.0003356076
-0.00040983 0.014633102 0.00050725095 0.0016517927 -0.0007562838 -0.00031805312 -0.00042572958 -0.0010426105

convblock2.2.weight f4 [24]
00000000: 20a2 8c3f 385a 613f 71c2 743f 6e30 963f
00000010: 64d5 6b3f fab6 943f 6160 863f bfa1 603f
00000020: 781f 5e3f b19d 433f 492e 773f 6104 413f
00000030: 7b48 8b3f f12f 583f 128b 723f e809 933f
00000040: 7743 653f a75c 7a3f d93a 793f 5ef4 893f
00000050: d3b5 373f 29ba 673f 1dc2 8d3f dda8 703f
1.0986977 0.8802829 0.95609194 1.173353 0.92122483 1.161834 1.0498163 0.87746805
0.8676677 0.76412493 0.96555 0.75397307 1.0881494 0.8444815 0.94743454 1.1487398
0.8955607 0.97797626 0.9735542 1.07777 0.71761817 0.9051843 1.1074864 0.94007665

convblock2.2.bias f4 [24]
00000000: 87bc 61bd ed52 22be 5659 39bb 65e6 903d
00000010: a8b0 0d3e f801 bf3e a5e9 1bbe 5b1d 3abe
00000020: ac7b 70be d2a3 8c3d 9a68 a8bd 2029 df3b
00000030: cc2f 8f3d cd5b 61be d12a c5bd 2cb9 953e
00000040: 20f5 1d3e 67a8 973e d734 9ebe 9f23 8c3d
00000050: aff7 1abc 9255 5f3d f27e 803e 24dd 823e
-0.055111434 -0.15851946 -0.0028282008 0.07075194 0.1383692 0.3730619 -0.15225847 -0.1817526
-0.23484677 0.06867184 -0.08223076 0.0068103224 0.069915384 -0.22007675 -0.09627307 0.29242837
0.15425539 0.29620668 -0.3089969 0.06842732 -0.009458466 0.054524966 0.25096852 0.25559342

convblock2.2.running_mean f4 [24]
00000000: d696 f83d 7ba7 f43d c9d9 1b3e 178d 363e
00000010: ba4a 9f3d b9f7 8b3e 8820 c53e e03c f03d
00000020: 2c0f 0b3d 7637 193d bad9 1d3e 51be 6c3c
00000030: 3f9d 653e 5b48 143d 3eea c13d 082e 3a3e
00000040: a010 b13d 283f 583e 02d5 153e 8aee 793e
00000050: b233 b13c 6f4f 883d 7944 353e 2f22 d03d
0.12138145 0.11946007 0.15219797 0.17827259 0.07777925 0.27337435 0.38501382 0.11730361
0.033950016 0.037406407 0.15415087 0.014449672 0.22423266 0.036201816 0.09468506 0.18181622
0.08645749 0.21117842 0.14632037 0.24407402 0.021631096 0.06655776 0.17701901 0.1016277

convblock2.2.running_var f4 [24]
00000000: febd 163e aab4 593d 778f 1b3e 47d3 b93d
00000010: d173 9b3d 949a 043e ff56 293f 1250 563d
00000020: 902e d53c efb7 783b 5816 613e a781 2a3a
00000030: 54e0 2f3e ae7d 113c 1c9b c63d c96b a83d
00000040: d84b 093d 5a76 bd3d c0fc 153e 406b a33e
00000050: a497 f23a 45ba b23c c851 133e 7185 a63d
0.14720914 0.05315081 0.15191446 0.09073501 0.075904496 0.12949592 0.6614837 0.052322455
0.02602318 0.003795143 0.2198118 0.0006504305 0.17175418 0.008880062 0.096975535 0.082236834
0.033519596 0.092510894 0.14647198 0.31917763 0.0018508327 0.021817336 0.14386666 0.08130921

convblock3.0.weight f4 [10, 24, 1, 1]
00000000: d72a e038 d3d1 723b 7ab7 7c3c 27fe ac3e
00000010: b71d 7f3c 1a9d 94bb 9311 2fbc 0ea4 ab3b
00000020: ef66 1fbb edb1 a83a 4ab9 4abd 99ff 80bb
00000030: b891 8a3c 8f5b 1b3b e93c 043b 6dcb f33a
00000040: 64d9 353b 62aa a03b 0c6f 8b3b a60f 28bc
00000050: a9ce 363b eac2 8f3c 012f a73c 82f2 30bc
00000060: 7811 a93c f974 e7bb b1a1 4dbc ba66 0bbd
00000070: 8527 01bc dbca e839 1aff ee3b 9ed7 24bc
00000080: e4d6 65bb 647a 453b 4f3c 7fbc 4bd9 8dbb
00000090: 8b42 773e 5b8a 16bc 1497 2ebc 29b3 263e
000000a0: f07d deba e3d9 0b3e 508c 82bc bad2 89bb
000000b0: 72b8 69bc c3d7 c1bc 958f 87bc f773 083a
000000c0: 8b96 16bc cb47 923c 09e6 b43e 0070 e43b
000000d0: ece4 263e 8edd 13be afa2 563e 8f20 c03c
000000e0: a8c7 89bc 20a0 6b3a a1e0 aa3b 08ff b43b
000000f0: 990b 913c 8ffc acba b8fa f2bb ad36 2bbd
00000100: facd f4b8 ce1f c0bb 2378 29bb edaf 2fbd
00000110: a768 583c 4fea d33c 5972 f2bc bcd1 da3c
00000120: f4dc 02bd e612 f43d 8de4 b63b d65f 5c3c
00000130: 9c82 31bb fc65 013c 7457 68bb 2bd0 c73d
00000140: 5ccd 3abc 1c5a 753b 01f5 6cbc 6474 b0bb
00000150: e785 e93d e826 663b 0ec6 933e 2375 81bd
00000160: f598 a03b 8f11 e13a 46ab 083d b090 a0bb
00000170: 801a 163c 2367 c5bb 7b6f 92bc 59da 55bc
00000180: c440 933b 7dfd 993a 166d 753b cb50 a9bc
00000190: 78cf 61bd 6b2b 91bd 75af 66ba ec38 2abc
000001a0: 938b 0c3d 4eea c2bb d0a8 c23e 5a63 293a
000001b0: a409 0fbc 2fd9 7bbb b3dd bebc f1ad 853d
000001c0: 8b99 d63b e099 b3bc 4914 1e39 4310 abbc
000001d0: f8d6 633a 18ad 3fb9 b3c6 31bc dbac a33b
000001e0: f24d a7bd 2afd 5aba 5f80 3a38 d0e8 b2bd
000001f0: 3385 5dbc 0e36 923c 5103 3bbd 02a9 9dbb
00000200: a739 a0ba 6f57 02bc 26d7 1bbc 96ef 70bb
00000210: 1534 13bd a554 d23a 53d0 fcbc 9a0c 083e
00000220: d042 213e 5bfc 51bc 22ad b43c 4392 1fbb
00000230: c7b7 8bbb f637 93bc 2fce 9f3e d031 453e
00000240: df17 04bd 80c5 7cbc 1b09 203b ef2e 6f3d
00000250: 669c f93b 37f9 b03e 9ffb dc3c 7d6e 1cbc
00000260: 198f a3bc 8035 ff3b e46a 39bd 4db3 03bb
00000270: fd5b 5d3b 9594 92bb e183 263d 5696 9abc
00000280: 3854 053b e232 233c 7bb3 9abc 1e0d b4bc
00000290: 08ca 53bb 0fb9 d93d 61d7 b8ba d865 6ebb
000002a0: 365e 34bd 709e 693d e80f 64bc 84ed 8abc
000002b0: 63e1 f2bb 9343 883b 6e90 e83e a674 e53d
000002c0: f18e b9bb ddf9 283b 9820 96bb 2b02 bf3b
000002d0: 2771 cabc 49d7 bd3a f857 1c3c e5f2 36bd
000002e0: f2dd 00bd 9bfe e6bd 3b62 623c bc36 4ebd
000002f0: c7b2 49bc 6f9d cabb fc43 bb3d 44fe 5cbc
00000300: 6821 043b 9315 28bc c8b9 62bb e4f3 d2bb
00000310: 3fc4 40bc b6b0 86bd 39b2 f0bc ba23 6dbb
00000320: 9aa1 2b3e d721 243b 1b31 d2bb 297f e9bb
00000330: a3b0 47bc 0440 c6bc 9526 90bb 0fdc ae3b
00000340: d42f 073b 2934 03be 10c6 e43e aa8d a3bd
00000350: ac22 98bb f073 f2ba f3f8 a53c fd37 06bd
00000360: c52f bc3e 868f 32b9 2c0a 3cbb dcb2 a6ba
00000370: 496d 17bd 7b24 5ebd f8db ccbc 1763 abba
00000380: 5eab 4c3c fe5f 55bb 8f80 233b 4e9b 3ebc
00000390: 935f fe3d 7be6 243b 7f62 ef3b c0ab 99bb
000003a0: 77ed 1abd cb52 253b c990 ff3c 315c 9e3e
000003b0: 8362 883b ff35 47bc 4261 27bd 58de 1fbd
0.00010689132 0.0037051335 0.015424604 0.33787653 0.015571049 -0.0045353295 -0.010685342 0.0052380627
-0.0024322828 0.0012870409 -0.04949311 -0.0039367196 0.016915187 0.0023705696 0.0020177907 0.0018600054
0.0027747983 0.0049031237 0.004255181 -0.010257637 0.0027894175 0.017548997 0.020408155 -0.010800006
0.020638213 -0.007063505 -0.012550757 -0.034033515 -0.007882957 0.00044401627 0.007293594 -0.010061173
-0.0035070712 0.0030132765 -0.0155783435 -0.004328882 0.24146478 -0.00918826 -0.010656137 0.16279282
-0.0016974788 0.13657336 -0.015936047 -0.0042060288 -0.014265167 -0.023662454 -0.016547957 0.00052052684
-0.009191166 0.0178565 0.35331753 0.0069713593 0.16298264 -0.14439985 0.20960496 0.023453025
-0.016818836 0.0008988399 0.005214766 0.005523566 0.017705726 -0.0013197827 -0.007415142 -0.04180019
-0.00011673193 -0.0058631664 -0.002585896 -0.042892385 0.013208545 0.025868563 -0.02959554 0.026711337
-0.031949 0.11917667 0.0055814446 0.013450583 -0.0027085906 0.00789785 -0.0035452517 0.09756502
-0.011401501 0.0037437743 -0.01446271 -0.0053849686 0.11402493 0.0035118405 0.2886204 -0.0632117
0.0049010464 0.001717137 0.033366464 -0.0049000606 0.0091615915 -0.0060242577 -0.017875424 -0.013052546
0.0044938046 0.0011748519 0.0037449053 -0.020668408 -0.0551295 -0.070883594 -0.0008799949 -0.010389548
0.034312796 -0.0059483415 0.3801942 0.0006461643 -0.008730326 -0.0038429012 -0.023299074 0.06527317
0.0065490655 -0.02192396 0.00015075611 -0.020881778 0.00086913956 -0.00018279662 -0.010850596 0.004994971
-0.08169164 -0.00083537644 4.446541e-05 -0.08735812 -0.013520527 0.01784804 -0.04565746 -0.004811407
-0.0012224213 -0.007955416 -0.009511745 -0.0036763898 -0.03593834 0.0016046955 -0.030861055 0.13286057
0.15748143 -0.012816514 0.022055212 -0.0024348653 -0.0042638513 -0.01797102 0.31211993 0.19257283
-0.032249328 -0.015427947 0.002441949 0.05839437 0.007617521 0.34565136 0.026975451 -0.009547827
-0.019965695 0.00778836 -0.045267954 -0.0020095885 0.0033776753 -0.0044732788 0.040653113 -0.018870514
0.0020344388 0.009960862 -0.018884411 -0.021978911 -0.0032316465 0.10631 -0.0014102274 -0.0036376622
-0.04403516 0.057035863 -0.013919808 -0.01695896 -0.007412122 0.004158446 0.4542269 0.112038895
-0.005662792 0.0025783696 -0.004581522 0.005829116 -0.024712158 0.0014483716 0.009542458 -0.044665236
-0.031461664 -0.11279031 0.013817365 -0.050345168 -0.01231069 -0.0061833183 0.09143826 -0.013488356
0.0020161513 -0.01025905 -0.0034595598 -0.0064377654 -0.011765539 -0.06576674 -0.029381858 -0.0036184625
0.16760865 0.0025044584 -0.0064145452 -0.0071257544 -0.01218811 -0.024200447 -0.0043991306 0.0053362916
0.0020627873 -0.12812866 0.4468236 -0.07986005 -0.004642805 -0.0018497687 0.02026031 -0.03276824
0.36755195 -0.0001702887 -0.0028692586 -0.0012718099 -0.036969457 -0.05423401 -0.025007233 -0.0013075796
0.012492029 -0.0032558437 0.0024948453 -0.011633707 0.12420573 0.002516179 0.007305443 -0.0046896636
-0.03782412 0.002522635 0.031196969 0.3092971 0.004162134 -0.01215887 -0.040864237 -0.039030403

convblock4.0.weight f4 [14, 10, 3, 3]
00000000: 1f9d 15bd 042c 8ebb 4075 b4bb f842 2fbc
00000010: aead 4ebc 6850 b73a 4feb ae3d 4c59 8d3c
00000020: 8eb0 35bc 0649 f3bc 2ccc e3b9 93a0 683b
00000030: 3d83 aabb 7f2a b13b 129d 0e3b 837c 4a3c
00000040: 4bb7 213c 6fc1 bf3d ddb7 5e37 a71f 4b3b
00000050: bb16 f03c bc04 54bc 4f62 e13b c827 603c
00000060: 15f4 043c 7445 8b3c 9cc6 c83b 4099 43bd
00000070: 8465 1ebd 451c 3c3c 85a8 e0bc 8d58 37b7
00000080: e280 9e3d 9262 723e e8d5 983d 7e34 013c
00000090: a87a ab3c 7552 113d d551 b03d 7e80 ba3d
000000a0: 4a7b e63b de83 efbb 8ab1 a4bb 0d5f bdbd
000000b0: 01a4 3bbc 92bc f7bc 32ea 03bd 800f 1dbc
000000c0: b1b4 51be 9bb4 c0bc 618e d33a dd37 05be
000000d0: cc59 79bc cc28 6b3c caa6 cbbd 406b 85bd
000000e0: 31ec 763b 7a8c bebc 67fe 11bd f756 48bb
000000f0: e2ee 103a 86d7 803c bbf7 123c 2d67 5b3b
00000100: 6f05 833d 8494 6c3d 9dd4 e1bc c5e3 34bb
00000110: cec5 733b d42a 0cbc 0c11 1f3c c531 8dbd
00000120: 2c72 adbd e322 54bd db09 46bc 58b7 d4bc
00000130: d334 b6bc 43c9 99bc 6c5b 9f3c 1e78 8b3b
00000140: 4009 dabc b31a 063e 95b6 31bc 843c 89bc
00000150: e9f6 723d 2907 3eba f511 9dbd bb6f ad3c
00000160: 7b36 2eba 1d97 24bd 0af5 9d3b c1a8 063c
00000170: e28e 3f3a 086e 6e3e a7bb e73c e482 583b
00000180: 8703 e33b 62ed 01bc ad34 8cbd 32dc f6bd
00000190: d8eb 3eba d559 a1bc 3c0b d8bb 3755 0f3a
000001a0: f9e4 4ebc e03c 3abc add7 a03b e5d7 ebbb
000001b0: d06c dbbd 0d04 18bd 2fc3 a8bd 4a9c 2ebc
000001c0: cc90 b3bb 3bf0 b9bb 1bef 203c 3ec7 11bc
000001d0: ae37 82bc 9a8b a0ba a855 36bc a8c0 9bbd
000001e0: ed24 0a3b 9242 d83a 6c02 adbc fe8d 84bb
000001f0: 1a00 54ba 7a93 a5bc 7f04 17be 1e79 24bc
00000200: 1991 e33b c85d 0ebe 019f 6d3b c40c 863d
00000210: 3098 50bd 971e 3e3c 91c6 d03c dc3c e83b
00000220: ffa9 9dbc d083 16bb 0890 6fbc 3cf7 bebb
00000230: 4cfa 9939 4cf5 bd3c db91 653d aab9 c43d
00000240: bb31 613b 2f7a ef3b 7208 8cbd 5f4b 883b
00000250: 2116 cc3b 1299 263b abd1 4f3d c141 063c
00000260: f5d0 fc3b 6134 85bc af29 f9bb fcfa 023c
00000270: 3ecb 403b 5238 3c3c 4258 6bbb 05da 363d
00000280: d279 983b d5d3 8abc 3ef8 f73c c903 1dbc
00000290: 2df2 4dbc ea18 2a3b 700c 963b 8fb5 ddbb
000002a0: 0620 27bc f9fb bbbb a2db 143c 33e1 bc3c
000002b0: 33d1 b93d fb2c 003d af0d f73b c39e 2a3c
000002c0: 0daf 6f3b 32fe 7fbe db55 b1bd 912a 90bd
000002d0: 2f7f 5dbe 331f 67bc 7a8c babc 30b2 c9bd
000002e0: d941 64bb d8dc 113b b325 09bd 5acc 0e3c
000002f0: 4936 953d 0363 0cbc f734 adbd be63 53bd
00000300: 4397 613a 059a 163b bdd0 1e3c 1fa0 fa3b
00000310: b18f 9bbb 76ce 113c 5407 2abc 8ba5 83bb
00000320: f001 18bd d059 d5ba 6b60 d2ba 003d 69bb
00000330: 7236 65ba 5e5c 493a 81c9 493c 576b 6dbd
00000340: 7ecd 4cbc c650 923b 730b 6138 8673 c83b
00000350: f52d 303d 6596 edb9 24ce 9fbb ad6e 733c
00000360: c1f1 593e 1799 a23b 8262 0bbd 27b4 0c3d
00000370: 4f4b b2bb bac1 ddbd af36 a23d 17c7 153c
00000380: c735 3ebc 3c84 123d abbc ccbb 04b3 42bc
00000390: b7e8 c33b db68 06bc f696 28bd 45a6 e439
000003a0: 056b f1bb 3136 c2bc f6b3 80bb 101b a5bb
000003b0: 6828 853d 3e43 a6bd bc01 2bbc 1bb6 ae3c
000003c0: 4ac2 aabd fc1c 4cbb 5866 013c 866b 213c
000003d0: 3d5d 173e 4027 d63d 2a6b a4b9 ddbb 34bb
000003e0: 9f08 c13c 8612 7e3c 225b 0e3c b30f 193c
000003f0: 3f10 adb9 c163 0f3b 71d5 1bbb e029 913c
-0.036526795 -0.004338743 -0.0055071414 -0.010697119 -0.012614651 0.0013985755 0.08540975 0.017254494
-0.011089457 -0.029697906 -0.00043448934 0.00354961 -0.005203633 0.0054066773 0.0021761102 0.0123587875
0.009870361 0.093630664 1.327504e-05 0.0030994208 0.029307714 -0.012940582 0.0068781744 0.01368136
0.008114834 0.017000891 0.0061271917 -0.047753572 -0.03867103 0.011481349 -0.027424106 -1.0928267e-05
0.07739426 0.23670414 0.074626744 0.00788605 0.02093251 0.035479028 0.08609358 0.09106539
0.00703374 -0.007309421 -0.005026047 -0.09246645 -0.011452676 -0.030241285 -0.032205768 -0.009586215
-0.20479085 -0.02352362 0.0016140455 -0.13009591 -0.015219163 0.014352988 -0.09943922 -0.06514597
0.0037677402 -0.023260344 -0.035643008 -0.0030569413 0.00055287604 0.01572777 0.008970196 0.0033478246
0.06397521 0.057758823 -0.027567202 -0.0027601582 0.0037196758 -0.008555133 0.009708654 -0.068942584
-0.08469042 -0.051791083 -0.012087311 -0.025966331 -0.022241985 -0.018772727 0.019452773 0.0042562624
-0.026615739 0.13096122 -0.010846754 -0.016752489 0.059317503 -0.0007248992 -0.07669441 0.021171441
-0.00066456915 -0.040183175 0.0048204707 0.008218945 0.0007307363 0.23284161 0.028287722 0.0033037001
0.0069279107 -0.007930132 -0.068459846 -0.12053718 -0.0007283068 -0.019696156 -0.006593136 0.0005467715
-0.0126278335 -0.011367053 0.004908523 -0.0071973675 -0.10714114 -0.037113238 -0.08240353 -0.010657379
-0.0054799076 -0.0056743897 0.009822632 -0.008897601 -0.01589569 -0.0012248636 -0.0111288205 -0.07605106
0.0021079138 0.0016499332 -0.021119319 -0.004045247 -0.00080871733 -0.020211924 -0.14747809 -0.010038642
0.006944787 -0.13902962 0.0036258104 0.065454036 -0.050926387 0.011603973 0.025485309 0.007087333
-0.0192461 -0.002296675 -0.014621742 -0.0058278125 0.0002936892 0.023188256 0.0560473 0.09605725
0.0034361917 0.0073082666 -0.06837548 0.0041593756 0.006228224 0.0025420827 0.050737064 0.008194388
0.0077153393 -0.016260328 -0.007603846 0.00799441 0.0029418017 0.011488037 -0.003591076 0.044641513
0.004653194 -0.016946713 0.030269738 -0.009583422 -0.012569946 0.0025954791 0.0045791194 -0.0067660282
-0.010200506 -0.0057368246 0.009085568 0.023056602 0.09073105 0.031292897 0.007539473 0.010413828
0.0036572844 -0.24999312 -0.08658954 -0.07039369 -0.21630548 -0.01410656 -0.022772063 -0.0984844
-0.0034829287 0.0022256877 -0.03348322 0.008715713 0.07285745 -0.008568528 -0.08457368 -0.051608793
0.00086056086 0.0022979986 0.009693322 0.0076484825 -0.004747354 0.008899322 -0.010377724 -0.004017537
-0.037111223 -0.0016277377 -0.0016050463 -0.0035589337 -0.000874377 0.0007681305 0.012316109 -0.057963695
-0.012500165 0.0044651954 5.3654843e-05 0.006117287 0.043012578 -0.00045316215 -0.004876869 0.01485793
0.21283628 0.0049620974 -0.03402949 0.034351494 -0.0054411064 -0.10827966 0.07920586 0.009141705
-0.011609501 0.03577064 -0.006248077 -0.011883501 0.0059786695 -0.00820371 -0.041159593 0.0004361143
-0.007367494 -0.023707481 -0.003927703 -0.0050386265 0.065018475 -0.08118294 -0.010437425 0.021327069
-0.08337839 -0.0031145206 0.007897936 0.009852296 0.14781661 0.10456705 -0.0003136036 -0.0027577796
0.023563681 0.015507346 0.00868872 0.009342122 -0.00033009236 0.0021879526 -0.0023778344 0.017720163

convblock4.2.weight f4 [14]
00000000: a219 653f 6d9c 883f 7946 5a3f 0534 583f
00000010: e4a7 4a3f afdc 6a3f 3dd7 783f f115 963f
00000020: 1acf 843f c9b8 6f3f 3ec0 8d3f 94d2 983f
00000030: eab8 5e3f bd35 6e3f
0.8949224 1.0672737 0.8526378 0.84454376 0.7916243 0.91742986 0.9720343 1.1725446
1.0375702 0.93641335 1.1074293 1.1939263 0.87000906 0.9305075

convblock4.2.bias f4 [14]
00000000: dfdd 163d 3d2c 68bd b283 9ebe a59c e23d
00000010: dbfc cabc d00a 2a3d 8c8a 9dbd 88ab a43e
00000020: ef42 a53e f891 eb3c 1adf 03be b0ca c53e
00000030: c06f 8ebe 996d 54be
0.036832687 -0.056682814 -0.3095985 0.11065034 -0.024778774 0.041514218 -0.07692441 0.32162118
0.3227763 0.028756127 -0.12878075 0.386312 -0.27819633 -0.20744933

convblock4.2.running_mean f4 [14]
00000000: 5528 023e 971a fe3d d7b3 043e 12a0 ae3e
00000010: cb54 f23d a393 043e a9ef f33c 1ad1 f33d
00000020: a608 8d3e d7bd c43d 1476 2e3e cebc 523e
00000030: 1cf4 863d 3644 0f3e
0.12710698 0.12407415 0.12959228 0.341065 0.11832579 0.12946944 0.029777365 0.11905117
0.2754566 0.096065216 0.1703723 0.20579836 0.06589529 0.13990864

convblock4.2.running_var f4 [14]
00000000: 2939 8f3d b96f 5e3d 8cb9 a13d 9890 573e
00000010: 9cdf 7d3d 6f02 0a3d e844 833b 6fbe 673d
00000020: 141e 7d3e 7532 593d 7fa4 fa3d 7aff c13d
00000030: b25f 4c3d b122 783d
0.06993324 0.054305766 0.078967184 0.21051252 0.06198083 0.033693727 0.004006017 0.056578096
0.24718505 0.053026635 0.122384064 0.094725564 0.04989595 0.06057996

convblock5.0.weight f4 [16, 14, 3, 3]
00000000: 7763 c73c 50c9 b5bb ed8f 21bc 16f3 163d
00000010: 0eb5 e039 ef2f 36bd cb5e bb3c 78db 643c
00000020: a044 46bd 58ed 6bbd 5c62 0bbc c806 1cbd
00000030: 6796 5ebd 9d6d 1abc 3926 f9bb 4825 84bb
00000040: 400b 1a3b 1d2f d93a 6d99 b3bd 7f25 47bb
00000050: e168 1a3b 8f16 70bc c2c8 bcbb 27c9 bc3b
00000060: 2b03 79bb 0a7e 93bb 55e5 663b ae6a 53be
00000070: 3762 47bc 1d50 86bd 9903 efbc c3fc 88ba
00000080: 1e43 e3bb 124e 7abb 1ba5 20bb 966a 51bb
00000090: b8f6 8dbc 3d1d 67bc 4981 4dbc 83ba f63b
000000a0: f174 b13b 241c 253b 0204 2d3e 1dce ad3c
000000b0: 55dc 333d 68ca 4e3d 4e04 203c 736e ca3d
000000c0: 34c9 7f3b ea1f e1bb 5b07 10bc 113c 25bc
000000d0: 5571 33bc 2773 5cbc 5464 41bc 1a57 83ba
000000e0: 0373 9abc b1d2 a7bb 83fe 23bb 75f4 84bb
000000f0: d6d1 65bb 4852 33bb 660d 98bb 613e ea3d
00000100: 3ae7 2fbb b5ce 0339 5dd6 d73a 486f fc38
00000110: f45d 5cbc 0eae 213d 8874 cb3a db4f 53be
00000120: b680 1fbd 262f 59bd 52f7 18bd b07b 9f3b
00000130: b09c 203c fc89 b33b c722 d13d ce23 443d
00000140: 50c5 783d fdf3 5cbc e1e5 23bc cbdc 67bd
00000150: cdca 9a3c 43fa 0d3c 79ff a43b ccc9 d23b
00000160: ca9d d83b 8dde b33c 21c0 0e3b 7dce 073c
00000170: 3fa3 403b 7cd9 8cbc 46d0 14bb ef3a 063d
00000180: 880a 81bd 4c24 3abc 8898 abbb c00c 16bc
00000190: 36ff 9a3b e64f dc3b 2e2c 1b3a 36d3 0a3b
000001a0: fa1f 9abb 6027 35bb ae20 1fbb c0d0 45bc
000001b0: 0bf0 cabc 1494 b8bc 53c5 2cbd ef60 abbc
000001c0: 2e33 11bc da21 a8bb 7cf5 ef3d 4327 c83d
000001d0: cfd4 4b3d b1ae 5ebc b06e 1dbc bb26 cebd
000001e0: c8d6 d7bc eb97 cebb 0051 c1bb cb75 81bc
000001f0: 1ffe 153c 8c2f 9a3c f378 52bb c8e9 81bb
00000200: de17 fe3b 59bf 8dbc d8f3 21bc 31d0 cfbb
00000210: e34b b1bd a8ea 853a 2911 c43c e710 363c
00000220: 6f76 cf3b eba8 6b3c 8c46 c23c d208 2dba
00000230: e726 a43c c489 093d bee5 7d3d 8027 ee3d
00000240: 9eea 9d3a 3da9 25bb 22f2 16bc 02ec e7bb
00000250: 1391 d3bb 9a0e 4ebc c4b4 d6bb 4775 aaba
00000260: 3e49 aebc d142 c2bd 4875 b1bc 5461 afbc
00000270: 341e 7fbd b83a d6bc 028a 92bc 6ed0 55bc
00000280: 2ae4 81bc bcc6 04bd 4513 6339 03d9 53bc
00000290: 1e9f 95b9 4b33 50bc d155 d0bc 5af9 a4bb
000002a0: dfba 77bb 7c84 90bb 6e59 a5bb baef 053b
000002b0: 7686 a53a 1e60 fab8 4718 943a da94 263c
000002c0: 54c5 2b3b 80f2 1a3c ecd5 2f3c 36b4 793b
000002d0: 038a b03d fcb7 1f3c 6716 8e3b 887b 6f3c
000002e0: 1a24 8c3c d0e1 863b 0b68 853c 458f db3c
000002f0: f932 0f3e d56b 2e38 77d1 873a 0aad 0ab9
00000300: cd01 7fbb dd63 e2bb 2bf6 adbb 266f e2bb
00000310: 7264 f8bb 7c44 ffbb 16ed f2bb 1dc7 b5bb
00000320: 8655 92bd 6067 22bc 4ccc 37bc 1e94 96bc
00000330: 2eee 573b 3c7d afba 9c82 11bb 90f5 a2bb
00000340: 873f 9439 fdb8 893b f1ad 1dbc 4480 fcbb
00000350: 24ef ccbb e6ee 32bc eb70 b739 b0f7 eeb8
00000360: e99b debb b79a fab9 37b1 8838 898f cebc
00000370: 5592 3cbc 954b 45bb 14da a6bc 1264 8439
00000380: 5674 64bb b132 ab3c 1a9e 6e3a 12f7 5e3a
00000390: 953d 023e b58a c3bb afa1 6e3c c527 6bbb
000003a0: daf8 37bc 2282 503e 7dfb 223b 64f4 8d3c
000003b0: 9da8 f43c 6d0d 1f3c dedb 783c ce8e 343d
000003c0: 9b79 1ebc ee0b 6b3c 60b3 663c 7e1e 473c
000003d0: 51aa 123c 5a3b bd3b 9bb9 6a3c 08c9 943c
000003e0: 5ba1 923c f45d 363b d4fd 473b 2692 f53b
000003f0: b30f 0a3b 9593 3d3c 333a 373a ee4a 62bb
0.02433942 -0.00554768 -0.009860975 0.03685292 0.00042859506 -0.044479307 0.02287235 0.013968341
-0.04840529 -0.057599396 -0.008507337 -0.038092405 -0.054342654 -0.009425548 -0.0076034334 -0.0040327646
0.002350524 0.0016569827 -0.08769498 -0.003038734 0.0023561048 -0.014653816 -0.005761237 0.005761284
-0.0037996273 -0.004501109 0.0035231907 -0.20646164 -0.012169412 -0.06558249 -0.02917652 -0.0010451305
-0.006935491 -0.0038193506 -0.0024512473 -0.00319544 -0.017329559 -0.014106092 -0.012543031 0.007529558
0.005415552 0.0025193775 0.1689606 0.021216447 0.043911297 0.050486 0.009766651 0.09884348
0.0039029839 -0.0068702595 -0.008790816 -0.010085122 -0.010952313 -0.013455189 -0.011803705 -0.0010020465
-0.01885367 -0.005121552 -0.0025023527 -0.004057462 -0.00350677 -0.0027362276 -0.004640269 0.11437679
-0.0026840703 0.00012570138 0.0016467083 0.00012037024 -0.013450135 0.039472632 0.00155224 -0.20635931
-0.038941108 -0.05302348 -0.037345238 0.0048670396 0.009802982 0.0054790955 0.102117114 0.04788571
0.060735047 -0.013485906 -0.010003538 -0.05660705 0.018895531 0.008665624 0.0050353375 0.0064327475
0.006610607 0.021956706 0.0021781998 0.008288977 0.0029394177 -0.017193548 -0.0022707148 0.032771047
-0.06300837 -0.011361193 -0.005236689 -0.009158313 0.0047301305 0.006723392 0.0005919364 0.002118302
-0.004703519 -0.0027641878 -0.0024280953 -0.012073696 -0.024772665 -0.022531547 -0.04218037 -0.020920245
-0.0088623 -0.0051309885 0.11716744 0.097731136 0.049763497 -0.013591454 -0.0096089095 -0.10065981
-0.026347533 -0.006304731 -0.0058995485 -0.015803238 0.0091548255 0.0188215 -0.0032115548 -0.0039646365
0.00775431 -0.017303156 -0.009884797 -0.006341957 -0.08657052 0.0010217028 0.023933964 0.011112428
0.006331257 0.014383535 0.02371528 -0.00066007406 0.020038081 0.03357865 0.061986677 0.11628628
0.0012048071 -0.0025277876 -0.009213002 -0.007077695 -0.006456503 -0.0125767235 -0.0065523107 -0.0013004922
-0.021275159 -0.094854005 -0.02166237 -0.021408714 -0.062284663 -0.026151046 -0.017888073 -0.013050182
-0.015855867 -0.03241609 0.00021655585 -0.012930158 -0.00028538046 -0.012707542 -0.025431545 -0.005034608
-0.0037800593 -0.0044103246 -0.0050460612 0.0020437078 0.0012628573 -0.00011938832 0.0011298739 0.010167325
0.0026210146 0.009457231 0.010732155 0.00381018 0.08620074 0.009748455 0.0043361667 0.0146168545
0.017107058 0.0041162744 0.016284963 0.026801715 0.13984288 4.158526e-05 0.0010362108 -0.00013225168
-0.0038910985 -0.0069088773 -0.0053088865 -0.0069102226 -0.0075803334 -0.0077901464 -0.0074135168 -0.005547418
-0.071452186 -0.009912342 -0.011218142 -0.018381175 0.0032948363 -0.0013388763 -0.0022203093 -0.004973121
0.0002827609 0.0042029605 -0.00962399 -0.00770572 -0.0062540937 -0.010921216 0.0003498861 -0.0001139486
-0.0067934883 -0.00047798987 6.517994e-05 -0.025214927 -0.011509498 -0.0030104865 -0.02036766 0.0002525156
-0.003485938 0.020898195 0.00091025385 0.0008505444 0.12718804 -0.005967463 0.014564916 -0.0035881859
-0.011228764 0.20362142 0.0024869137 0.017328449 0.029865557 0.009707791 0.015189139 0.0440815
-0.009672548 0.014346106 0.014080852 0.012153266 0.008951739 0.0057748975 0.014326478 0.018162265
0.017899206 0.0027826997 0.0030516284 0.007494229 0.0021066486 0.011570831 0.00069895684 -0.0034529525

convblock5.2.weight f4 [16]
00000000: e439 4a3f 3f21 953f 0eb1 8a3f 3ae8 a73f
00000010: dfb4 2b3f fc2e 4a3f 8f62 5c3f 1e2f a83f
00000020: d745 723f 3679 853f 4df1 483f 150f 463f
00000030: ac18 3a3f 89e5 3f3f b3c9 773f 160b 2c3f
0.78994584 1.1650771 1.0835283 1.3117745 0.6707286 0.7897794 0.8608789 1.3139379
0.9463782 1.0427616 0.78493196 0.77366763 0.72693896 0.7495962 0.96792144 0.67204416

convblock5.2.bias f4 [16]
00000000: cc1e 153e 1c14 dd3e 7f6a 1e3f 976f 223f
00000010: f230 39bd 2a9d f53d 6ec0 ecbb e5ea 3e3f
00000020: b1c9 be3e 1bc8 f53d f89b 343d 9483 333e
00000030: 2256 1abe bc04 093e 8bc5 c33e a11d d73c
0.1456253 0.43179405 0.6188125 0.6345152 -0.045212694 0.11992867 -0.007225088 0.7457717
0.37263253 0.12001058 0.044094056 0.17530662 -0.1507192 0.13380712 0.3823665 0.026259245

convblock5.2.running_mean f4 [16]
00000000: 42f9 973e e0ba 563e 2227 8c3e 87b1 8c3e
00000010: b06d 8f3e bb92 9a3e 7ea6 643e 96a1 783e
00000020: 1982 903e f783 bc3e 8ce1 7a3e 5d40 4f3e
00000030: 4da3 553e e234 bb3e 5aab 473e ecd5 473e
0.29682356 0.20969725 0.27373606 0.27479193 0.28013372 0.3019007 0.22329137 0.2428039
0.28224257 0.3681943 0.24500102 0.20239396 0.20863076 0.36563784 0.19498959 0.19515198

convblock5.2.running_var f4 [16]
00000000: 1635 533e b542 093e f009 103e f5a1 3c3e
00000010: 14e0 2c3e 5493 8f3e 332f 433e be4f 303e
00000020: 184d 313e 0cca 993e e7ad 493e 253b 123e
00000030: 3800 043e c18b 743e 5ea6 d03d bf8f f93d
0.2062572 0.13404353 0.14066291 0.18421157 0.16882354 0.2804209 0.19060974 0.17217919
0.17314565 0.30036962 0.19695245 0.14280374 0.12890708 0.23881437 0.10187982 0.121856205

convblock6.0.weight f4 [16, 16, 3, 3]
00000000: 0ef3 2c3d 4f3c 953c 091b d03b c017 2c3c
00000010: 8238 e53a 4b31 3b3a c66e 9a3d 132b 063d
00000020: 3b86 223c 3d2f 37bc 8962 0dbc f5cc a6bc
00000030: ff54 19bc 54b9 debb 853a d8bc f70f 19bb
00000040: 7d5e d7bb 10ea 94bc 3b24 043c d3e6 a6bc
00000050: e5dc 83bb dda4 99bc 4660 d8ba 1ad3 d4ba
00000060: ac0a 96bd a16c d3b9 3ac0 6cbb f744 31bc
00000070: 30d2 45bc 7bcb a4bd 888f b0bb 8e9d 0bbc
00000080: b8d2 c8bb 6e06 33bc c28e 2bbc 101d 933c
00000090: 14a4 afba 346a 0b3b e39b b93d af2d be3b
000000a0: 9507 5e3c 7de6 bf3c a43a 813d 388d ac3b
000000b0: 14f3 193b dfe8 5cbc 5b7a 03bc 7eeb 57bb
000000c0: 2011 5bbd c2b9 0abc 63f5 a23b 4c44 92bd
000000d0: acff 2abc bad8 2c3b bccf 7fbd 3325 2cbc
000000e0: 3c63 953a b48f 23bb 44a5 983b 66d7 9e3d
000000f0: 9ad9 ef3b 568d 3b3c 0234 6d3d e9ad 94be
00000100: fdd8 acbd 1008 1fbc 14e2 9cba 3b60 12bb
00000110: d83c f1ba 6f75 cbba 1e9b 11bb 2abb 5abc
00000120: 1db6 28bc fdd1 99bb ba20 efbd 174d 24bd
00000130: 709f dcbb c703 85bb cfdc fcbc de81 01bc
00000140: 32c8 cb3b 045e 5fbb e4b3 14bc 562d 2d3e
00000150: 017c ed3b 7967 bf3b 82b7 8f3d b4b2 f1bb
00000160: 026b 87ba 2a2a 81ba 42fb 89ba b327 a6bb
00000170: a993 7dbb 5b58 84ba 4e16 9e3b 9680 523c
00000180: c3ec a3bc fbcd c3bb 56f9 f7bb ff23 2cbc
00000190: 560e dbbb e88f 9dbb 7e93 adbb a460 7cbb
000001a0: 29e4 30bb f6a5 38bd fb96 2c3b 1c85 be3b
000001b0: c84d 6cba e793 c3ba 1445 d0b9 1261 8dbb
000001c0: 31fb d5ba d156 a938 8e87 4dbb 9f77 1dbc
000001d0: f49b 1abc 707e 08be cde3 b0bb 0506 b9ba
000001e0: 0328 efbc 8bf5 6cbb 33bb ea3b 336f 15be
000001f0: 698b d6bb 42f7 aeba 48d1 eabd 3365 1ebc
00000200: e983 02b9 be1a 2cbd 3792 59bb ce33 21ba
00000210: c7a4 623a 2d5e 7e3b d820 a8ba 9946 10bc
00000220: 2d3b 75bd 70bb cebc 4b9f 60bb 8029 f4bb
00000230: 6036 86bb a573 7f3b e238 ebb9 45d5 bfbb
00000240: 04fe 3bbc b16f d2bc ac41 92bb c86a 32bc
00000250: 5d7d 98bc 9b61 67bb cbe8 50be 8542 9abc
00000260: e6a4 913b 2158 83bb 2d2a ddbb 769a 4bbc
00000270: 0e60 eabb 0cc1 cbbb 5761 50bc 14c5 2e3a
00000280: 19a0 3bbb e590 88bc 93e1 3f3d 0c8f bb3c
00000290: cc79 ba3a 0262 6b3c e371 50bb 3a1e f3bb
000002a0: eeac 323c d19f e83b 5147 8eba 9fab d1bc
000002b0: 828d 89bc 40e0 82ba 7e8c c8bc 45f3 51bc
000002c0: 4795 a4ba ecc1 61bd 74d2 5ebc 5256 77bc
000002d0: 5d31 c1ba e80a 16bb ea4e 28bc 5b2f 45ba
000002e0: c25a 6eba 6404 9ab9 7fd4 22ba f5d3 55bb
000002f0: 0fdf f3ba 7a5e 9abd 0304 45bd c2ec 53be
00000300: 9cf4 64bd 5c64 69bd eac4 e1bd 8361 f4bd
00000310: edd8 2abd 11f6 87bc ff79 e9bb 98c0 28bc
00000320: 2bf5 56bd 0252 a8bb d3d5 bebb 5529 dcbc
00000330: b4ee 5abb 7f3a 88bc fb49 55bd 8a7b fcbb
00000340: a2a5 05ba dc67 9ebb c936 48bb e18e 7d39
00000350: a039 34bc 9fce 793b 6617 d0ba 630a 9cbb
00000360: 94f6 213c 64e9 5f3c fa7e dd3b cbf4 cb3b
00000370: 9d15 743c e93b f13b db1b b73c 4c49 1b3d
00000380: 27df 143d e52a eabd 136a 17bd f723 89bd
00000390: 8093 63bb 1417 7dbb 2517 a3bb a9c1 a9bd
000003a0: 1ecd ddbd 642e c8bb 74d8 39bc 232f 58bc
000003b0: 2db9 c3bb 9798 32bc b826 9bbc 696a f7bc
000003c0: c28b 8ebc 1990 22bd 3ca3 58bb ce08 0abd
000003d0: 514d f0bc 488a 39bc ecd5 76bc 44ff 51bc
000003e0: 1a2c b8bc ff19 03bb fc07 8fbb 957b a8bb
000003f0: 3111 293d 5c94 a03c a386 573d 4ba8 373b
0.042223983 0.018217234 0.006350879 0.010503709 0.0017488154 0.0007140829 0.075406596 0.032755923
0.009919698 -0.011180696 -0.00862945 -0.020361403 -0.009358644 -0.006796995 -0.026395092 -0.0023355463
-0.006572543 -0.018178016 0.008065279 -0.020373737 -0.0040241354 -0.01875537 -0.0016508184 -0.001623723
-0.07326254 -0.0004032599 -0.0036125318 -0.010819665 -0.012074038 -0.08046623 -0.005388204 -0.008521451
-0.0061286353 -0.010926826 -0.010471048 0.017958194 -0.001340034 0.0021273019 0.09062936 0.0058037858
0.013551612 0.023425335 0.06310013 0.005265858 0.0023490833 -0.013483255 -0.008024777 -0.003294676
-0.05348313 -0.00846714 0.0049731 -0.07141933 -0.0104369335 0.0026374296 -0.06245397 -0.010506916
0.0011397372 -0.002495748 0.004658373 0.07755928 0.0073196413 0.011447271 0.057910927 -0.29038933
-0.08439825 -0.009706512 -0.0011969232 -0.002233519 -0.0018404974 -0.0015522669 -0.0022217701 -0.013350287
-0.010297325 -0.004694222 -0.11676164 -0.04011258 -0.0067328736 -0.004059288 -0.030867008 -0.007904498
0.0062189335 -0.0034083137 -0.009076092 0.16911826 0.0072474484 0.0058411923 0.07017423 -0.0073760394
-0.0010331573 -0.0009854485 -0.0010527151 -0.0050706505 -0.0038692749 -0.0010097133 0.0048244363 0.01284804
-0.020010358 -0.0059754825 -0.007567565 -0.010506629 -0.0066850586 -0.0048084147 -0.0052971235 -0.003850975
-0.0026991463 -0.045080148 0.0026335109 0.0058142077 -0.0009014276 -0.0014921398 -0.0003972432 -0.00431455
-0.0016325471 8.074719e-05 -0.0031361314 -0.009611039 -0.009436596 -0.13329482 -0.0053982497 -0.0014116174
-0.029193884 -0.0036157097 0.007163429 -0.145932 -0.0065473807 -0.0013348835 -0.114656985 -0.009667682
-0.00012446906 -0.04201769 -0.0033198723 -0.0006149382 0.00086457696 0.0038813457 -0.0012827171 -0.008805894
-0.059870888 -0.025235862 -0.0034274634 -0.0074512362 -0.0040958375 0.0038978842 -0.00044865074 -0.005854281
-0.011474136 -0.025688024 -0.004463395 -0.010889716 -0.018614465 -0.003530598 -0.20401303 -0.018830547
0.0044447063 -0.0040083085 -0.0067494125 -0.012426963 -0.007152564 -0.0062180813 -0.01271852 0.000666694
-0.0028629361 -0.016670654 0.046845984 0.022895359 0.0014226972 0.014366629 -0.0031806163 -0.007419375
0.010905487 0.0070991297 -0.0010854994 -0.02559453 -0.016791109 -0.0009985045 -0.024481054 -0.012814348
-0.0012556695 -0.05511658 -0.013599981 -0.015096264 -0.0014739443 -0.0022894684 -0.010272721 -0.000752201
-0.00090925035 -0.0002937644 -0.0006211474 -0.0032627557 -0.0018605905 -0.07537551 -0.04809953 -0.20695785
-0.05589734 -0.056980476 -0.110238865 -0.119326614 -0.041710783 -0.016596826 -0.007125139 -0.010299824
-0.052479904 -0.005136729 -0.0058238297 -0.026875177 -0.0033406438 -0.016629456 -0.052072506 -0.0077051567
-0.00050982286 -0.0048341583 -0.0030550233 0.00024181187 -0.011000067 0.003811754 -0.0015876114 -0.0047619804
0.009885449 0.0136664845 0.0067595216 0.00622425 0.014897731 0.007361878 0.02235215 0.0379117
0.036345627 -0.11433963 -0.036966395 -0.06696313 -0.0034725368 -0.0038618492 -0.0049771243 -0.08288891
-0.108301386 -0.006109046 -0.01134311 -0.013194832 -0.0059730024 -0.010900638 -0.018939361 -0.030202108
-0.017400626 -0.039688203 -0.003305628 -0.033699803 -0.029333742 -0.011324473 -0.015065651 -0.012817208
-0.022481967 -0.0020004509 -0.0043649655 -0.0051416853 0.04127616 0.019601993 0.052618634 0.0028023894

convblock6.2.weight f4 [16]
00000000: 4b27 4340 50d7 3140 a381 5c40 1582 5a40
00000010: 39cd 5840 5775 0540 2c94 3240 bf49 6240
00000020: 7c67 2e40 8909 4840 44a9 5840 efad 3240
00000030: 0ca2 4d40 a603 4a40 7c00 7840 1fd4 4a40
3.0492733 2.7787666 3.4454124 3.4141896 3.3875258 2.0852869 2.7902937 3.535751
2.7250662 3.125582 3.3853312 2.791866 3.2130156 3.1564727 3.8750296 3.1691968

convblock6.2.bias f4 [16]
00000000: 4b01 80be c055 0cbf 51b2 423e cf97 d13e
00000010: 1cd9 40be f8a6 523e a4e5 923e 08e5 a33d
00000020: cbcd 8ebd 3403 cabd a54b af3d ce88 93be
00000030: 4026 713e 5214 35bf a0bc fb3d f382 ad3d
-0.25000986 -0.54818344 0.19013335 0.40936133 -0.1883282 0.20571506 0.28690827 0.080026686
-0.06972846 -0.09863892 0.0855935 -0.2881531 0.23549747 -0.7073413 0.12291837 0.08472242

convblock6.2.running_mean f4 [16]
00000000: cef5 b63d e8c6 083e 34b3 a23d 11f1 e53d
00000010: 7df3 293e c9d8 513d 378e 873d 1c9d 173e
00000020: 8147 df3d 7fc6 073e 9ac1 063e 65b5 e23d
00000030: 60c2 2e3e 20c3 ba3d b517 f13d b479 d83d
0.08933602 0.13357127 0.079443365 0.112276204 0.1659679 0.051232133 0.06618922 0.14806026
0.1090231 0.13259314 0.1315979 0.110697545 0.17066336 0.091192484 0.117721 0.10570088

convblock6.2.running_var f4 [16]
00000000: e473 8d3d 9123 923d 8d8a 2b3d 416c c33d
00000010: a6c9 c63d 706b 773c 4745 063d ce9e e43d
00000020: 8dac 5b3d e401 d93d 7023 d63d b605 633d
00000030: a0f7 c83d 2384 4e3d 77f4 c33d b68f 8a3d
0.0690687 0.0713569 0.04188018 0.09542132 0.0970643 0.015101299 0.03278091 0.11163102
0.053631354 0.10596064 0.10455978 0.05542537 0.09812856 0.050418984 0.09568112 0.06765692

convblock8.0.weight f4 [10, 16, 1, 1]
00000000: 6e2c 3639 f863 bbba c27a 91ba 3dea deba
00000010: 5ad2 0ebb d2d4 9bb8 f5fa a1be 7606 9639
00000020: a1ec 653a 2e8d dab9 5a65 bbbe c643 5f3b
00000030: ea92 0f3f eb18 0140 2117 f4be f8b4 65be
00000040: 2286 4d3a 1f13 c93f 553e 89bd 2d46 1639
00000050: 84a3 823a 9da2 d3b9 d51b 9038 c531 b43e
00000060: 0ceb c8bb 52ed 2cbe a2ef e9b9 a580 6abb
00000070: a166 bcbe 25ea 10b9 4beb 703a f9e5 96b9
00000080: 761b 6cbb 5986 b23a 5672 a43f 2e6d af3e
00000090: ca06 913e 7a91 ceb8 640d 06bb 8900 d63f
000000a0: c46c 753b 18bf 8cba 214c 6938 45a8 a23b
000000b0: ce8d 62ba 8e35 febd bd04 88bf bd6f 2a3b
000000c0: 9f40 bc39 d78f d5ba ddab b93a 7e69 6fba
000000d0: 11ca ddbe cfa8 73bb f0b4 0f39 6842 803f
000000e0: c0ee 15b8 9c02 a4bc d439 ebba ba36 4c3f
000000f0: 3e28 66be d2d5 023a 9cff f43f 27aa 16be
00000100: eb48 7fbd 6409 dd39 c465 94ba 3d9a 853a
00000110: cf8d 7f3f 6291 a3ba 7393 e2bc 3443 c6bd
00000120: fe4f 73b9 a501 8f3a e13c 903f ed87 13bb
00000130: 176a 06bf 431f 993a 2595 db39 75e4 ac3f
00000140: 68d8 a33a 8e92 1abb b79c b6bd 095e d4be
00000150: cb87 d7ba baad e33a 8efd 2a3f 2bdb dfb9
00000160: ee7a 89b9 9f42 ed3f a802 cfb9 ba6d 79bd
00000170: 8503 293b 34fd 543a 4728 0f3f df0a 04be
00000180: cd87 f63f bf04 033a 8a50 a7be a7e5 0fbf
00000190: 09e0 293f d798 063f da11 b438 70b4 e139
000001a0: c106 09be 2cbb 67b9 5bdd 86bb c626 acbb
000001b0: 6356 1c3e 19b4 033a 58bd 0cba ba45 b2be
000001c0: 7a63 e7ba 8d07 803e 078a 9f3f 936f 10bc
000001d0: f769 2abe ba97 b8b8 2794 22b9 a7a5 f4be
000001e0: d1fb 393f 79a6 00bb 454f e3bd a1c0 993f
000001f0: 27c3 26be 95bd bcbe bd60 1fbe 9b70 0d3f
00000200: 943a 043b e624 81ba 4c73 873a 9a26 f53f
00000210: b35d 5b3c 4a55 303e 606d 6c3f d29a c0b9
00000220: 7178 42bb daa0 87bd 79f4 edba 7ba5 81b9
00000230: a957 093f c3b1 3d3c 5e1f 9b3e 61eb f6ba
00000240: 4f20 44ba cfd7 323b 59f0 f23b 8514 cf3a
00000250: 054f 4bbf 3e89 7eb9 c0e1 7bbd 39af 51bb
00000260: 38d0 8a3f 29cb 85b9 1138 da3f 2373 eabd
00000270: 839e 563f e762 babb 39fa 7aba fecf 7a3e
0.00017373424 -0.0014296761 -0.0011099207 -0.0017007064 -0.002179286 -7.430617e-05 -0.31636778 0.00028615043
0.0008770917 -0.00041685387 -0.36600763 0.0034067496 0.5608355 2.0171459 -0.47673896 -0.22432315
0.0007840117 1.570896 -0.06701342 0.00014331257 0.0009966944 -0.00040366212 6.871639e-05 0.3519422
-0.0061315354 -0.16887406 -0.00044619764 -0.0035782245 -0.3679705 -0.00013820136 0.0009190335 -0.00028781572
-0.003602711 0.0013620361 1.2847393 0.34262985 0.28325492 -9.8499426e-05 -0.0020454759 1.6718913
0.0037448863 -0.0010738103 5.562243e-05 0.004963907 -0.00086423464 -0.124125585 -1.0626446 0.0026006543
0.000359063 -0.0016293478 0.0014165599 -0.0009132846 -0.43318227 -0.0037179475 0.00013704947 1.0020266
-3.574672e-05 -0.020020775 -0.0017946311 0.79771006 -0.22476289 0.0004990968 1.9140506 -0.14713345
-0.0623254 0.000421594 -0.0011321832 0.0010193061 0.9982576 -0.001247924 -0.0276582 -0.09680787
-0.00023204085 0.0010910524 1.1268579 -0.0022511438 -0.5250563 0.001168229 0.00041882056 1.350722
0.0012500407 -0.0023585889 -0.0891661 -0.41477993 -0.0016443668 0.00173705 0.66793144 -0.00042697167
-0.00026222266 1.8535956 -0.00039484096 -0.06089566 0.0025789451 0.00081248884 0.55920833 -0.12894772
1.9260193 0.00049979606 -0.32678634 -0.56209797 0.66357476 0.52576965 8.586394e-05 0.0004304978
-0.13381483 -0.00022099604 -0.004115743 -0.0052536456 0.15267329 0.000502409 -0.00053687906 -0.34818822
-0.0017653548 0.2500576 1.2463998 -0.008815664 -0.16641985 -8.802065e-05 -0.00015504715 -0.47782633
0.72649866 -0.0019630475 -0.11099104 1.2011911 -0.16285382 -0.3686339 -0.15564246 0.5524995
0.0020176517 -0.0009852916 0.0010334044 1.9152405 0.013389039 0.17220035 0.92354393 -0.00036736444
-0.002967384 -0.06622477 -0.0018154524 -0.0002472809 0.53649384 0.011578026 0.3029737 -0.0018838459
-0.0007481621 0.0027289276 0.0074139056 0.0015798962 -0.7941745 -0.00024274454 -0.06149459 -0.003199531
1.0844793 -0.00025519103 1.704836 -0.11447742 0.8383562 -0.0056880596 -0.0009574029 0.24493405
